models/baseline_0.01_0_out_of_2000.pt (torch, 1191 bytes, 1 tensors)

linear.weight f4 [1, 32]
00000000: 0088 adbd 5061 a43d b80b bcbd 96cc 043d
00000010: e9f1 65be 184f e1bd 1f39 ad3d 198b e23d
00000020: 2c89 19be 2abd 7fbc 18cc 8c3c 17f0 debd
00000030: 7dd1 b9bd 22cb 11bd a191 1bbd 9897 81bd
00000040: 1fa0 173c 3799 333e c4bb 2d3e 2d1d b23d
00000050: 77b9 a53d f3c5 4b3c 7716 26be ac60 543d
00000060: b54a 5cbe 266d 5cbd 7dc3 403e 6aac 203d
00000070: 631e 13be 2c14 05bd f654 76bc d6ea eabc
-0.084732056 0.080263734 -0.09181923 0.03242167 -0.22455563 -0.11001414 0.084581606 0.11061687
-0.14993733 -0.015609065 0.017187163 -0.10885637 -0.0907316 -0.035594113 -0.03798068 -0.06327742
0.009254484 0.17538916 0.16966158 0.08696971 0.08092015 0.0124373315 -0.16219507 0.051850006
-0.21512873 -0.05381503 0.18824573 0.039226927 -0.1436706 -0.03248994 -0.015034905 -0.028676432
