models/baseline_0.01_750_out_of_1000.pt (torch, 1191 bytes, 1 tensors)

linear.weight f4 [1, 32]
000000 48 5d 80 bf 72 d1 e6 3e 61 a6 14 c0 08 df 75 40
       -1.0028467 0.4508167 -2.322655 3.8417377
000010 80 1c 6d 40 aa 50 a9 40 bc 9d 0a 41 d2 fb bd 3f
       3.7048645 5.2910967 8.663509 1.4842474
000020 25 43 e6 c0 b7 39 74 3f 94 93 aa be 88 c3 af bc
       -7.1956964 0.95400566 -0.33315718 -0.021455541
000030 32 db d7 40 ac c5 b5 3f 75 6d a9 40 38 1f c5 3d
       6.7455072 1.420095 5.2946115 0.09625095
000040 af 8d 67 c0 c2 8c c0 40 a8 7c f4 c0 f4 fe 5a 40
       -3.6180227 6.0171824 -7.640217 3.421811
000050 fe 5b 6a 3e d1 c0 81 3f 17 20 c3 bf 57 50 33 c0
       0.22886655 1.0136968 -1.5244168 -2.8017786
000060 d5 a2 87 40 72 07 f1 3f c0 ea 51 3f 7a ba c2 3f
       4.238627 1.8830397 0.81998825 1.5213158
000070 6c 16 f5 3f 22 c7 c9 3f 59 ff 05 40 20 a1 96 c0
       1.9147468 1.5763896 2.0937102 -4.7071686
