models/baseline_0.01.pt (torch, 1191 bytes, 1 tensors)

linear.weight f4 [1, 32]
-1.366201 0.7514805 -0.832539 -0.92715526 -1.3884444 0.47918126 1.0904276 -0.2998903
0.014573179 -1.3384491 -0.21443404 0.73437214 -0.62702197 -0.17397971 -0.2327539 -0.34909037
-1.1708952 -2.083139 0.21469656 1.4132868 0.3462884 1.7621971 0.3837496 -1.15621
-1.2221342 -0.42176026 0.6270526 -0.8570374 1.7454433 0.998535 -0.4804411 -1.7167689
00000000: addf aebf 0761 403f 4721 55bf 0c5a 6dbf
00000010: 8cb8 b1bf 3f57 f53e 2293 8b3f 398b 99be
00000020: 58c4 6e3c 4d52 abbf 9994 5bbe d0ff 3b3f
00000030: 8384 20bf bd27 32be 0a57 6ebe f9bb b2be
00000040: e5df 95bf 2652 05c0 6ad9 5b3e 95e6 b43f
00000050: b74c b13e ad8f e13f d47a c43e b0fe 93bf
00000060: e56e 9cbf f6f0 d7be 8586 203f ce66 5bbf
00000070: b06a df3f fd9f 7f3f 60fc f5be 15bf dbbf
