models/baseline_0.05.pt (torch, 13703 bytes, 12 tensors)

conv1.att_src f8 [1, 1, 32]
0	0x40154283846a5dd3	5.31495482348642
1	0x3ff66a9c751d95a2	1.4010281157328355
2	0x4016124953daa952	5.517857847424539
3	0x4013178c5b31be8a	4.772996354018355
4	0x401a6075c35164a7	6.594199230044217
5	0x401c853a1a1eb612	7.130104454159225
6	0x4006c9f4689455d3	2.8486107034939123
7	0x40150313cdaae2b6	5.253005231432942
8	0x400cd93cfee16541	3.6060733711753135
9	0x3ffb8434399da2d4	1.7197763681999065
10	0x402308433e14d8d5	9.516138019604492
11	0x4008346fe8df6ace	3.025604075735237
12	0x4012e24e38f2ff26	4.721001519996014
13	0x4023c17602504a94	9.877853462506472
14	0x400d7fc331a0f31a	3.687384021496098
15	0x4011b195071a1dc8	4.423420058220877
16	0x4019aed902cce540	6.420749706035451
17	0x4015bb1cc53d12ec	5.432726938107162
18	0x4018a22823aaeffc	6.158356244381135
19	0x4010fb7a5888df4c	4.245583899835605
20	0x4017e8db985d6644	5.977400189114238
21	0x40044f7d3f26646e	2.5388131078330423
22	0x401a3cdf230f496a	6.5594449499206835
23	0x401de0a0a642889f	7.469362829028028
24	0x400c9b4cededb3c6	3.575830324951741
25	0x4002ff63f1abdb62	2.3747023468562682
26	0x400343362aa3ff75	2.4078181582735234
27	0x40181d47ef058e7e	6.028594717706822
28	0x3fffdac29e57f807	1.9909082589433653
29	0x400f767994ccf773	3.932849085335812
30	0x401ee9b542c2e02d	7.728230517524975
31	0xbfdaf25c345fec0d	-0.4210424910995137

conv1.att_dst f8 [1, 1, 32]
0	0x3f9aa3f7ff02fc1f	0.026016116084743964
1	0xbfc5d349554d3742	-0.17051045098417644
2	0xbfcb532e4d267843	-0.21347597853758957
3	0xbf82f01b6e6ce7cc	-0.009247030551353584
4	0xbfb15d1360912e1e	-0.0678264723548456
5	0xbfc87c5ca225fe5d	-0.19129522244837718
6	0xbfb2d63caa089199	-0.07358149672706417
7	0xbfa35c58eca1fdbc	-0.037813929448926115
8	0xbf950d301d07c8d8	-0.020558120509982597
9	0xbf73a0b77b259585	-0.004791943285771598
10	0xbfbabd6c965974e8	-0.10445288344040515
11	0x3f9b00f687b39768	0.026370861084522274
12	0x3fc354f75670dedc	0.15103046150920008
13	0xbfc377c5cd85ee0b	-0.1520926717310974
14	0xbf9269645eb420d4	-0.017980163841486554
15	0xbfc54b3b2e5b3090	-0.1663583732937508
16	0xbfc4b94ada95c77f	-0.16190467522715932
17	0x3fcda5b4d384282f	0.23161945655766789
18	0xbfb214a130e87607	-0.07062728351635182
19	0x3fa428c4b85a8a52	0.03937353849803017
20	0xbf83e4fb3f2f0d05	-0.00971409117290146
21	0xbfb4afff2adee4d7	-0.08081049725196308
22	0x3f6a02540f526dda	0.003174938372991082
23	0x3fb3b262c2a61724	0.07694070102851619
24	0xbfc2ac43830dbffb	-0.1458820714865395
25	0xbfc6be6d976af221	-0.17768640416569872
26	0x3fb4e41646a104e9	0.0816053316530262
27	0x3f967bbc2f09b559	0.021956386919943813
28	0xbfb3d9440c2ea166	-0.07753396317878511
29	0xbfcdf6031df4cfc5	-0.2340701957961057
30	0xbfc5ac5ac8a859e0	-0.16932234571204585
31	0xbf96eccd87f0ee61	-0.022387706205547867

conv1.bias f8 [32]
0	0x405a650346791f65	105.57832490757353
1	0x405a6cbc92a17287	105.69900956884713
2	0x405a6bc3f63cd200	105.68383556308254
3	0x405a724bc403ee60	105.78587437042142
4	0x405a2040b0971e88	104.5039483524107
5	0x405a7bb54f3d3f2f	105.93294125538954
6	0x405a8c4ec2c5f0c7	106.19230717973834
7	0x405a6f86e6a8d77f	105.74260870445686
8	0x405a4b6c0acbec9a	105.17846937098003
9	0x405a5e3ccd32988a	105.47246103230478
10	0x405a7ff598edebb2	105.99936507448618
11	0x405a3eaa067d49a5	104.97912752375721
12	0x405a20a863d4007d	104.5102777071315
13	0x405a0e61531932bf	104.224690222366
14	0x405a52381fc7867e	105.28467554554842
15	0x405abaea9fde1c1c	106.92057034197245
16	0x405a8e60f0bbb431	106.22466677027184
17	0x405a4636729199a2	105.0970732137562
18	0x405a6154e50fc9ab	105.52080656568312
19	0x405a5833a83e69db	105.37815290541714
20	0x405a23384e28a954	104.55031160326809
21	0x405a356efd5a044e	104.8348992709227
22	0x405a73b98f5d04d2	105.8082006843936
23	0x405a5b5db1cfd8ed	105.4275936631927
24	0x405a7b167ec8bc53	105.9232480011281
25	0x405a5e04dc081ab5	105.46904660026014
26	0x405a1e9e8bb5bf71	104.47842686413584
27	0x405aa636e8044dfe	106.59710121555688
28	0x405a6e61710ed59c	105.72469736527131
29	0x405a57a4afa1c023	105.36942663951827
30	0x405a71d97707d7a2	105.77889800802089
31	0x405a617f5085bf7d	105.52339566289261

conv1.lin_src.weight f8 [32, 3]
0	0xc05a41ec8070e132	-105.03005991958051
1	0xc0592353c63930df	-100.55198817811059
2	0xc05a3ebafaaaf255	-104.98016230291371
3	0xc05a55f3e973fdd1	-105.34301220252316
4	0xc05954ccf3fbc2d0	-101.32500934206041
5	0xc05a4bb0184952de	-105.18262297783392
6	0xc05a5ce42e781364	-105.45142709470889
7	0xc0591a6fde48e6b2	-100.4130778991628
8	0xc05a3e0d664987d4	-104.969567844207
9	0xc05a34a0d0307212	-104.82231526118292
10	0xc0591c6b3a6682da	-100.44404468546728
11	0xc05a1c8b172758a2	-104.4459894069901
12	0xc059e8d461285d54	-103.6379626173196
13	0xc058a9c3dad7319c	-98.65257903113383
14	0xc059ba150c71cbbe	-102.90753470528486
15	0xc05a64b853737947	-105.57375036503537
16	0xc0594eba764fa11b	-101.23013074661542
17	0xc05a5f1627cfa1df	-105.48572726513474
18	0xc05a7fa26c506f99	-105.99428851943084
19	0xc05961b779504347	-101.52682335699238
20	0xc05a6f5add71962e	-105.73992096035428
21	0xc05a555f16b34290	-105.33392875200138
22	0xc0592f77ee526669	-100.7416950039566
23	0xc05a4b1e75407fa6	-105.17373400973028
24	0xc05a33c79b500066	-104.80905802548077
25	0xc058f76e9d25ece0	-99.8661263342251
26	0xc05a2e37e53737c0	-104.72216158287392
27	0xc05a36708ccd4ed3	-104.85061950730896
28	0xc0593c46d4a1ff0a	-100.94182315654703
29	0xc05a3745f147e5fc	-104.8636439516194
30	0xc05a74908b7faa8c	-105.82132232158091
31	0xc05951fca602ed95	-101.2810454395861
32	0xc05a5baea7cfeca8	-105.43253512673493
33	0xc05a2723a9754eed	-104.61155163246049
34	0xc05927661d20e5ad	-100.61560753071417
35	0xc05a1871d606fa68	-104.38194800073109
36	0xc05a134cfa98f1dd	-104.3015734189607
37	0xc058d8991e2ce3b8	-99.38434557327025
38	0xc059e923569a353a	-103.64278187808387
39	0xc05a030bef6a725e	-104.04760346789541
40	0xc058ea7c90fe94d7	-99.6638529287478
41	0xc059f3a3721f34fb	-103.80685093925051
42	0xc05a0dad6014e02a	-104.2137069896568
43	0xc058f72ca777cfd0	-99.86210047436111
44	0xc059fd294ecf0716	-103.95564623086497
45	0xc05aa9c7e9b38ae9	-106.65282671483477
46	0xc0599327cc510d42	-102.29930408396925
47	0xc05a7f7653744a39	-105.991597045483
48	0xc05a732b30bb870c	-105.79951113045917
49	0xc0595e33dac5d3e3	-101.47191495246038
50	0xc05a6cad649c0b50	-105.69808306921664
51	0xc059fe02f7d50de5	-103.9689311581238
52	0xc058ee9eb512294e	-99.72843672536439
53	0xc05a073dc44eab99	-104.11314494784018
54	0xc05a13c4b3128a0f	-104.30888058481672
55	0xc0590b17d977e0c5	-100.17333065707051
56	0xc05a07ebbb825acc	-104.1237629673953
57	0xc05a3aefde074233	-104.9208903380284
58	0xc05933e7efcef668	-100.81103129588303
59	0xc05a282915660ee1	-104.62750754324544
60	0xc05a256bf0a8a6a1	-104.58471313924612
61	0xc059078518154e27	-100.11749841766924
62	0xc05a0580a65a973c	-104.08597716185335
63	0xc05a12671ec223d2	-104.28754395445802
64	0xc05906d1db894890	-100.10655868918025
65	0xc05a0f9e3b2bc3e0	-104.24403266214313
66	0xc05a593d6191b7b4	-105.3943714068435
67	0xc059424aba7678e4	-101.03581105775407
68	0xc05a4e9fc53b4f96	-105.2285016135414
69	0xc05a2cadfde1e53c	-104.69811961231329
70	0xc0591318e0497c77	-100.29839331795107
71	0xc05a0e76c48d7a90	-104.22599901024137
72	0xc05a59cc121453f7	-105.40308048234134
73	0xc05947fb3dbd7245	-101.12470954418775
74	0xc05a538a3010172a	-105.30530931063973
75	0xc05a3f5bf2f9975a	-104.98998712896483
76	0xc0592e7e37877b7e	-100.72645366888716
77	0xc05a2ef4b6c46320	-104.73368615320624
78	0xc059bce737a2b07a	-102.95161238563188
79	0xc058cff8df93b09c	-99.24956502364006
80	0xc059c044960a9a44	-103.0041861632863
81	0xc05a6ed8d9bdf0cf	-105.73198550747769
82	0xc0594ab1e8dd40fd	-101.16710874182532
83	0xc05a4461a5ee3f9b	-105.06845997110797
84	0xc05a4c48781d3335	-105.19192316867414
85	0xc059421f613c0616	-101.03316527234742
86	0xc05a43e37c68770c	-105.0607596416632
87	0xc05a4346514b1e50	-105.05116684280188
88	0xc0592c73a83e7bc4	-100.6945591554823
89	0xc05a27565e5bf5a0	-104.61464652042787
90	0xc05a67858b444cc2	-105.61752587957292
91	0xc05935e2cd8bc9b2	-100.84196795130882
92	0xc05a55a9d172a7b3	-105.33848987767014
93	0xc05a24f2ec4a4f09	-104.57732684380257
94	0xc05908cc2226757b	-100.13745931392434
95	0xc05a0b1de85e79b8	-104.17370042062873

conv1.lin_dst.weight f8 [32, 3]
0	0xc05a41ec8070e132	-105.03005991958051
1	0xc0592353c63930df	-100.55198817811059
2	0xc05a3ebafaaaf255	-104.98016230291371
3	0xc05a55f3e973fdd1	-105.34301220252316
4	0xc05954ccf3fbc2d0	-101.32500934206041
5	0xc05a4bb0184952de	-105.18262297783392
6	0xc05a5ce42e781364	-105.45142709470889
7	0xc0591a6fde48e6b2	-100.4130778991628
8	0xc05a3e0d664987d4	-104.969567844207
9	0xc05a34a0d0307212	-104.82231526118292
10	0xc0591c6b3a6682da	-100.44404468546728
11	0xc05a1c8b172758a2	-104.4459894069901
12	0xc059e8d461285d54	-103.6379626173196
13	0xc058a9c3dad7319c	-98.65257903113383
14	0xc059ba150c71cbbe	-102.90753470528486
15	0xc05a64b853737947	-105.57375036503537
16	0xc0594eba764fa11b	-101.23013074661542
17	0xc05a5f1627cfa1df	-105.48572726513474
18	0xc05a7fa26c506f99	-105.99428851943084
19	0xc05961b779504347	-101.52682335699238
20	0xc05a6f5add71962e	-105.73992096035428
21	0xc05a555f16b34290	-105.33392875200138
22	0xc0592f77ee526669	-100.7416950039566
23	0xc05a4b1e75407fa6	-105.17373400973028
24	0xc05a33c79b500066	-104.80905802548077
25	0xc058f76e9d25ece0	-99.8661263342251
26	0xc05a2e37e53737c0	-104.72216158287392
27	0xc05a36708ccd4ed3	-104.85061950730896
28	0xc0593c46d4a1ff0a	-100.94182315654703
29	0xc05a3745f147e5fc	-104.8636439516194
30	0xc05a74908b7faa8c	-105.82132232158091
31	0xc05951fca602ed95	-101.2810454395861
32	0xc05a5baea7cfeca8	-105.43253512673493
33	0xc05a2723a9754eed	-104.61155163246049
34	0xc05927661d20e5ad	-100.61560753071417
35	0xc05a1871d606fa68	-104.38194800073109
36	0xc05a134cfa98f1dd	-104.3015734189607
37	0xc058d8991e2ce3b8	-99.38434557327025
38	0xc059e923569a353a	-103.64278187808387
39	0xc05a030bef6a725e	-104.04760346789541
40	0xc058ea7c90fe94d7	-99.6638529287478
41	0xc059f3a3721f34fb	-103.80685093925051
42	0xc05a0dad6014e02a	-104.2137069896568
43	0xc058f72ca777cfd0	-99.86210047436111
44	0xc059fd294ecf0716	-103.95564623086497
45	0xc05aa9c7e9b38ae9	-106.65282671483477
46	0xc0599327cc510d42	-102.29930408396925
47	0xc05a7f7653744a39	-105.991597045483
48	0xc05a732b30bb870c	-105.79951113045917
49	0xc0595e33dac5d3e3	-101.47191495246038
50	0xc05a6cad649c0b50	-105.69808306921664
51	0xc059fe02f7d50de5	-103.9689311581238
52	0xc058ee9eb512294e	-99.72843672536439
53	0xc05a073dc44eab99	-104.11314494784018
54	0xc05a13c4b3128a0f	-104.30888058481672
55	0xc0590b17d977e0c5	-100.17333065707051
56	0xc05a07ebbb825acc	-104.1237629673953
57	0xc05a3aefde074233	-104.9208903380284
58	0xc05933e7efcef668	-100.81103129588303
59	0xc05a282915660ee1	-104.62750754324544
60	0xc05a256bf0a8a6a1	-104.58471313924612
61	0xc059078518154e27	-100.11749841766924
62	0xc05a0580a65a973c	-104.08597716185335
63	0xc05a12671ec223d2	-104.28754395445802
64	0xc05906d1db894890	-100.10655868918025
65	0xc05a0f9e3b2bc3e0	-104.24403266214313
66	0xc05a593d6191b7b4	-105.3943714068435
67	0xc059424aba7678e4	-101.03581105775407
68	0xc05a4e9fc53b4f96	-105.2285016135414
69	0xc05a2cadfde1e53c	-104.69811961231329
70	0xc0591318e0497c77	-100.29839331795107
71	0xc05a0e76c48d7a90	-104.22599901024137
72	0xc05a59cc121453f7	-105.40308048234134
73	0xc05947fb3dbd7245	-101.12470954418775
74	0xc05a538a3010172a	-105.30530931063973
75	0xc05a3f5bf2f9975a	-104.98998712896483
76	0xc0592e7e37877b7e	-100.72645366888716
77	0xc05a2ef4b6c46320	-104.73368615320624
78	0xc059bce737a2b07a	-102.95161238563188
79	0xc058cff8df93b09c	-99.24956502364006
80	0xc059c044960a9a44	-103.0041861632863
81	0xc05a6ed8d9bdf0cf	-105.73198550747769
82	0xc0594ab1e8dd40fd	-101.16710874182532
83	0xc05a4461a5ee3f9b	-105.06845997110797
84	0xc05a4c48781d3335	-105.19192316867414
85	0xc059421f613c0616	-101.03316527234742
86	0xc05a43e37c68770c	-105.0607596416632
87	0xc05a4346514b1e50	-105.05116684280188
88	0xc0592c73a83e7bc4	-100.6945591554823
89	0xc05a27565e5bf5a0	-104.61464652042787
90	0xc05a67858b444cc2	-105.61752587957292
91	0xc05935e2cd8bc9b2	-100.84196795130882
92	0xc05a55a9d172a7b3	-105.33848987767014
93	0xc05a24f2ec4a4f09	-104.57732684380257
94	0xc05908cc2226757b	-100.13745931392434
95	0xc05a0b1de85e79b8	-104.17370042062873

conv2.att_src f8 [1, 1, 32]
0	0x3fe07a4af339640e	0.5149283171150516
1	0x3ffaf3a5d5f9a839	1.6844843252570298
2	0x3ff159ec5f512c23	1.0844539378474642
3	0x3fec73021dd78a5b	0.8890390951967889
4	0xbfd5b3f3eb3beae6	-0.33910844776225557
5	0x3ff28dfe657048ff	1.1596664392896512
6	0x3ffacc0ded625adb	1.6748179695911662
7	0x3ff2da564f91ccac	1.1783049686608065
8	0xbfb70f83ccc466cb	-0.09008048772048054
9	0x3ff1666338e9d0e3	1.087496969526051
10	0x3fdf88e18e6e8170	0.49272955808012053
11	0x3fd3562c74bb0c18	0.302134622568873
12	0x3ff7defe9c084926	1.491942033292227
13	0x3ff8fbfd68ba090d	1.5615209666144125
14	0x3fe4e70377f45ed2	0.653199896131776
15	0x3fd7968629c86a48	0.3685622604404313
16	0x3ffc9fa84e744342	1.7889788689246449
17	0xbfe18a6a9a6bf8c4	-0.5481465354967203
18	0x3feb2b71420a38b3	0.8490530290453279
19	0x3fefc09346cfe0cf	0.992257726959929
20	0x3fe065613ef2c43c	0.512375472017204
21	0x3fde9c8984352342	0.4783042708482307
22	0x3fda35e5de986580	0.409539668443891
23	0x3ff437842eeb7147	1.2635537941742585
24	0x3fed9ea8be29c0a1	0.9256175722239456
25	0x3fd1af768f823644	0.27633441938892056
26	0x3ff118feaea5c22b	1.0686022588889823
27	0xbfa8298c0bd1cb5c	-0.0471919788768875
28	0x3fdd5531a00b25d5	0.4583248198437933
29	0x3fe99be8aaec9b22	0.8002818430294136
30	0x3ff156d02af039dc	1.0836946179657536
31	0x3fd04beb86df3a52	0.2546337906941619

conv2.att_dst f8 [1, 1, 32]
0	0xbfd0280eba8c511a	-0.25244491784657586
1	0xbfae44e153514ba2	-0.05911926405010283
2	0x3fc60e8b05fe1243	0.17231881897545706
3	0xbfa2ebd65ba07883	-0.03695554607860265
4	0x3f811c6066fddfcd	0.008354905264908919
5	0xbfafc80ad21a8ec3	-0.06207307638876849
6	0xbfc3b6ecff60b116	-0.1540199515305935
7	0x3fbf9d7889509a00	0.12349656441129042
8	0xbfa18c54b97a75b8	-0.03427376522197839
9	0x3fb3b986d791188f	0.07704966318951477
10	0xbfbf43b40ee44414	-0.12212682117048274
11	0x3fc11517de5a643a	0.13345621449551165
12	0x3fc80cbd94d763f0	0.18788881080288844
13	0xbfb9520840f6dba7	-0.09890796266596046
14	0x3f8a7a276e671bae	0.012928302818989792
15	0xbfa847a55dd7dc76	-0.04742161531969995
16	0xbfa0b5a6e97d31b2	-0.03263589477737429
17	0x3f6dad13b8132a9f	0.0036225686204479214
18	0x3fbc005074ba9130	0.10937979554961852
19	0xbfab1364d958a14c	-0.052882339030761644
20	0xbfc23b859a9bee37	-0.14244146394035948
21	0xbfc428a55f0c7345	-0.15749041691824509
22	0x3fbdd19c7b883e65	0.11647966400072958
23	0x3f90d82b2e170fb6	0.016449618042102286
24	0x3fb1637122c43d6c	0.06792361353676818
25	0xbfcddb350ac8df92	-0.2332521727237205
26	0xbf95fab9ca828d6b	-0.0214642553188588
27	0xbfa783b3b3f05561	-0.04592668124693478
28	0x3fbb823243e4c5c9	0.10745538861808436
29	0xbf7318a57ecebf0b	-0.004662176576786479
30	0xbfa8bbec2d457639	-0.0483087353957043
31	0x3fb28de28261f174	0.07247749026459421

conv2.bias f8 [32]
0	0x405775894dea1769	93.83650539265149
1	0x4056ee147a5acba9	91.7199998747516
2	0x4056dcced44cdbfe	91.45012385850711
3	0x4056dc92c0de701e	91.44645711634118
4	0x4056c698025910cf	91.10302790353602
5	0x4056d89f474088f7	91.38472157766579
6	0x4056c4bc131b1fd7	91.07397916458955
7	0x4056e4afbb1f816e	91.5732257659599
8	0x40574beaf390d178	93.18621529714972
9	0x4056f8f6288ee9ae	91.89002431827859
10	0x4056cbd6a52dad14	91.18497590504222
11	0x4056eabdef899c90	91.66784275473242
12	0x4057151549ec49db	92.32942436289834
13	0x4056cfe86e197f58	91.24856140604004
14	0x40575aa1e07c6620	93.4161301817735
15	0x4056e476f96fa646	91.5697616186454
16	0x4056db8ec67c242d	91.43058931468177
17	0x4056f79b81f8839c	91.86886643666224
18	0x4056ce04e81162e0	91.21904946992754
19	0x40575b9c07af7946	93.4313983167277
20	0x4056eeaad27e5103	91.72917616210547
21	0x4056da006a6a4c13	91.40627537136633
22	0x4056e92ef784818c	91.6434916299824
23	0x4056f8496d6b3497	91.87948165387421
24	0x4056d83bb1fdad5a	91.37864351056251
25	0x40572b8b4370c42a	92.68037496578532
26	0x4057652504bf8bb1	93.58038443284637
27	0x4056e7da1acecc03	91.6226870555402
28	0x4056c6f7fbd166ac	91.10888572167704
29	0x4056d2f6511edc6c	91.29628398908397
30	0x40574ffba3e287e9	93.24973389742048
31	0x4056e1a16d302c31	91.52547769264562

conv2.lin_src.weight f8 [32, 32]
0	0x405852a1832769f8	97.2911079296972
1	0x40584c123b03be73	97.18861270299548
2	0x40583c975b47c7a7	96.94673807153468
3	0x4058c2b74574807e	99.04243599297658
4	0x4057eca31f4d093d	95.69745619319015
5	0x405873df0c2db1d1	97.81048874342311
6	0x40588aaf767775a5	98.16695939699146
7	0x40585fdf1a00686f	97.49799203910673
8	0x405852fce47b2d9c	97.29668533352964
9	0x40583bfb52aacb3b	96.93721453360642
10	0x40585432de2986d1	97.31560472541175
11	0x40583233cd962a7d	96.78441180863042
12	0x4057eb67b4f84afd	95.67820476767879
13	0x40580f462f6fd78e	96.2386587707717
14	0x405854d1a80ea604	97.32529641562002
15	0x4058675a92e71321	97.61490318838015
16	0x40584327cd6e3aff	97.04930434956258
17	0x405853d280c9b40b	97.30972308824146
18	0x40585e8138c75851	97.47663707225117
19	0x40581ab5c86b8934	96.41734514714773
20	0x4057d2aac3ec88fe	95.29167268847593
21	0x40582ed5a94e8553	96.73179085414931
22	0x40582f532a483ea8	96.73945099883224
23	0x4058390821273993	96.89112118559414
24	0x40584f95c2db818c	97.24351569591653
25	0x40586f7956238285	97.74178079097517
26	0x405826ed583fbb24	96.60823637222035
27	0x405878be137cadb8	97.88660132575649
28	0x40581c8ffe88a80d	96.44628871293408
29	0x405841b919ce2cdb	97.02692265638636
30	0x405890bbf86c7670	98.26147280304008
31	0x40583e7fdb46f353	96.97655374459036
32	0x4058f772e35bf0e8	99.86638721445672
33	0x40592faba0db22b9	100.74485036277737
34	0x405916db8f185ec5	100.35715081577207
35	0x405970a38b74e609	101.75998197952153
36	0x4058fad1ae6e2370	99.91904793506342
37	0x40591be60b92573f	100.43591584483237
38	0x4059391809c1c0f3	100.89209216996441
39	0x40590d138bcf5def	100.20431800127675
40	0x4058f189466de221	99.7740036080436
41	0x405908ab27ff77d7	100.13544654796657
42	0x4059285dcdc4fd16	100.63072532879991
43	0x4058f8a273796e34	99.88491522654004
44	0x4058da6e4639f2db	99.41298061045693
45	0x4058c3e9983facf7	99.06113249033284
46	0x40593b2e60b6b3c1	100.92470567552574
47	0x40596c2bdb836c0e	101.69017684778393
48	0x40594546be8579e7	101.08244288477691
49	0x405938d250009e5d	100.88783645687495
50	0x40593f0918fa2305	100.98493027141019
51	0x4059089ad4114f9f	100.13444997492341
52	0x4058dc8e404a0d4c	99.4461823199428
53	0x4058e482c76f10ac	99.5704821190472
54	0x40590ee7e9a68c0c	100.23290482773172
55	0x4059300066ba695d	100.75002449230438
56	0x4059205dfbd0f9c7	100.50573630721838
57	0x40590b00ffb83c94	100.1719359683214
58	0x40592095c230b8e6	100.50914053686174
59	0x40596418c97d53cf	101.56401288260462
60	0x4059134a920cd9f1	100.30142642264379
61	0x4059067630971138	100.10096373322165
62	0x405922083bc6d135	100.53175253310913
63	0x40593a0e1617f37e	100.90710975970248
64	0x405902401ac19fb4	100.03516262920931
65	0x4058f821dfc03769	99.8770675065149
66	0x4059064ff29b4a51	100.09862961926525
67	0x40595e4110d91b09	101.47272130204887
68	0x4058ebb458ed6299	99.68288253004211
69	0x405915663831ea98	100.33436398386618
70	0x40592f99646799f8	100.74373731725052
71	0x40590803360d09df	100.12519599221513
72	0x4058de7c6a75d4e9	99.47634374148369
73	0x4058fd49eb3e6f55	99.95763665291936
74	0x40591e4ddea14de6	100.47350278618214
75	0x4058f3de142a5255	99.81042961247415
76	0x4058e6efcd01da0a	99.60838627987701
77	0x4058bf9c44b84988	98.99391286846924
78	0x40592853937d3406	100.63010108210446
79	0x40595a2ce8201a7d	101.40899088988404
80	0x40592bc0a530ded5	100.6836331345797
81	0x4058fd0d79510e77	99.95394738116907
82	0x40592d5919956a17	100.70856322852374
83	0x4058fb775d3cbe8a	99.92916041309414
84	0x4058cab488b679a9	99.16726892299506
85	0x4058d9a5a7677c33	99.40073571306202
86	0x4059052dd477c1be	100.08092223830224
87	0x4059219aeb103697	100.52508045752835
88	0x405912c71a178c3e	100.29340221690742
89	0x4059058788c42900	100.08639735370889
90	0x40590fb8716f448e	100.24563251367564
91	0x40595f67f120e711	101.49071911061425
92	0x4058ef786d646b56	99.74172529989787
93	0x4059156fa89e2f11	100.33494010398523
94	0x4059220a61ff60ca	100.53188371600405
95	0x405925857e5a496a	100.58627280060833
96	0x4058ffc8370a51e5	99.996595153883
97	0x405925947e4bfaa9	100.58718831462706
98	0x40590397a5cc6142	100.05613083800293
99	0x40595f84448e43fa	101.49244798558348
100	0x4058e603f845cf9a	99.59399229829287
101	0x40592761c5b10a15	100.6153425434971
102	0x40591df12309694f	100.46784282607153
103	0x40591411d99095f7	100.31358946914393
104	0x4058eb528ed6f938	99.67691393846042
105	0x4058fea1c856a6a6	99.97862442457208
106	0x40590c6dfaa2eb66	100.19421258840666
107	0x4058c1156c54c2ab	99.01693256642709
108	0x4058bdafe6606697	98.96386107839713
109	0x4058c6a6c91c67f1	99.10392978452707
110	0x4059285ba79ca697	100.63059416101383
111	0x40596dc24811aa5e	101.71498300290247
112	0x405929d687275c05	100.65371874660202
113	0x405918094a769aea	100.37556706984074
114	0x40592932f805736a	100.6437358906966
115	0x4058f81116b35992	99.87604300989759
116	0x4058c895622a3b30	99.13411764263287
117	0x4058e49f5a834d7c	99.57222616980101
118	0x4059096fd8d8abaa	100.14745160254702
119	0x405917c50747a126	100.37140066142146
120	0x405917ce2c1c06c8	100.37195875870668
121	0x4059001826042958	100.0014739075317
122	0x405929ca01c713d3	100.65295452538639
123	0x405957444577b82a	101.36354195300433
124	0x405926868ee67db7	100.60196278103727
125	0x4058f2627ae7b5d3	99.78726074817614
126	0x4059256f6d127755	100.5849259071668
127	0x405930bcb6238d3b	100.76151803466648
128	0x4058e6fbb39efb28	99.60911264920708
129	0x405904ea93776d32	100.07681738531826
130	0x4058ffb8fd9587eb	99.99566592791204
131	0x405948af7fa11d79	101.13571158155345
132	0x4058e65cb30ae1a6	99.59940792143479
133	0x40591841c9fd1a9e	100.3790154430121
134	0x40592d1cf8107e7e	100.70489312754395
135	0x4058f76718fbb8b4	99.86566757757356
136	0x4058d9023cc4bb94	99.39076155864888
137	0x4058ffb46eaad209	99.99538771325764
138	0x40590e305b3bf47c	100.22170143942816
139	0x4058e66d4271fd33	99.60041867381806
140	0x4058a62a74113eeb	98.59634114917905
141	0x4058c489a4792176	99.07090102986498
142	0x4058fcf7ffb500ad	99.95263664890327
143	0x405927fb7f1883fe	100.62472512621022
144	0x4059256c4c79d26f	100.5847350301426
145	0x4058f9a00c369d12	99.90039353688579
146	0x40590d4d0be4fcae	100.20782754289641
147	0x4058e1448a54a0bb	99.51980837120475
148	0x40589ca78a327181	98.44772581983672
149	0x4058b0b9ee21d593	98.7613482790387
150	0x40590395b9c7eeee	100.0560135319208
151	0x405905ae6a2368a3	100.08877042253384
152	0x40591ae8822f0035	100.4204411944382
153	0x4058da982d531d09	99.41553814999146
154	0x4058ea565862d2e0	99.66152009630923
155	0x40594708ee8bdc92	101.1099201551281
156	0x4058ecfeb6cb7301	99.70304651134576
157	0x4058e368d7b65a60	99.553274086074
158	0x4058fe3c547715a5	99.97243224744177
159	0x40591f3fdea86ece	100.48827330063361
160	0x4059070c60422c5e	100.11013037168729
161	0x4059103fb789e940	100.25388897388348
162	0x405904ff35cacba4	100.07807678989644
163	0x40596aad55a50926	101.66682950131198
164	0x4058d64593e7d5c4	99.34799668922557
165	0x40590de34a68ab59	100.21699772092451
166	0x405917a2f61d60f5	100.36932137364404
167	0x4059083617e29ca7	100.12830159311362
168	0x4058d0cb72dfd744	99.26241752490483
169	0x4059019a7ce6b45e	100.02505419282667
170	0x4059115f78bd1fe7	100.27145212620927
171	0x4058ec0612c213ee	99.687870683221
172	0x4058c5fc038a9595	99.09350670369743
173	0x4058a35b8feff6e7	98.55246351655988
174	0x40590f61f274c016	100.24035321618462
175	0x40595000cda32e83	101.2500490277835
176	0x40591ec9c8058737	100.48106575527059
177	0x405909de0b7ec704	100.15417754536253
178	0x4059398e5346458b	100.89931184637514
179	0x4058c8ebdfe8784f	99.1393966455664
180	0x4058aaf32cd02dd6	98.67109222726808
181	0x4058d6c0edb5e574	99.35552542460738
182	0x40591e46f4c2bca9	100.47308081643372
183	0x405923065165b413	100.5472606175611
184	0x405918de6288dcf8	100.388573297172
185	0x4058eac56cd8a0b6	99.66829987673813
186	0x4059010679e97a52	100.01602027702873
187	0x405962a67d614a61	101.54141172886877
188	0x405910e999b48d20	100.26425783760033
189	0x4058ef6e5ddba6ac	99.74111124468135
190	0x405918595b9fb532	100.38045397373642
191	0x40591eee42888543	100.4832922299584
192	0x4058e7d1983cbb6b	99.62216764384145
193	0x40590efbddfad893	100.23412274834327
194	0x4058e291f3bd3511	99.54015820958399
195	0x40592f916aaf4025	100.74325053324044
196	0x4058c137b5b7c321	99.01902525849847
197	0x40590391b94c2583	100.05576927601037
198	0x405913f8d15070fc	100.31206162314987
199	0x4058faccef5f11fc	99.91875824245648
200	0x4058c6209a6c2a16	99.09573994219713
201	0x4058f8492f68c736	99.87946686966174
202	0x4058f024a8ddb8c2	99.75223752644072
203	0x4058cd1d360cd860	99.20490790609756
204	0x4058a35c746ecadb	98.55251799411364
205	0x4058a7ae14f5e2a6	98.62000011455766
206	0x4058e66a20b86c5d	99.60022752771461
207	0x40592ebfaaa404c8	100.7304483987565
208	0x40592004442621ea	100.50026038860202
209	0x4058f65108e75a45	99.8486959704688
210	0x4058fba08c416a89	99.93167406452461
211	0x4058d6a3ab360ca6	99.35373955038321
212	0x4058d465dd2a3419	99.31871728059231
213	0x4058c8fbfe282a51	99.14038041994469
214	0x4058fef0adc73983	99.9834398694566
215	0x4058f563477c4cce	99.83418452395128
216	0x4058f0bd64f05027	99.76155971019817
217	0x4058f19b8f99be50	99.77511968626027
218	0x4058e1f9e1c650e2	99.53087658278267
219	0x4059452e886b0830	101.08096514179556
220	0x40590cbe93ec79d1	100.19913194745392
221	0x4058e9b8d6c80389	99.6519066766033
222	0x4059104dcb6ce38e	100.25474820741348
223	0x40592a7e4fcd8075	100.6639594561437
224	0x4058fabde7e4cfa3	99.91784093231995
225	0x4058ffb54c35857f	99.99544053293901
226	0x4059093d2242eded	100.1443563130958
227	0x40595b5b80e6765c	101.42745993143166
228	0x4058e51c2825fa9f	99.57984355648885
229	0x4059431066fc47fc	101.04787611615023
230	0x40593c50c1609b93	100.94242891725871
231	0x40592ac912cba321	100.66852254759262
232	0x4058fe3a4863a4b4	99.97230729800032
233	0x40590e023ae8bf68	100.21888611535326
234	0x40592e5efe211171	100.72454789380369
235	0x4058f26dd0691a11	99.7879525209794
236	0x4058d2268b7ec046	99.28360259416613
237	0x4058c9f367d999c7	99.15548130273883
238	0x40591e96b321fad3	100.4779479820093
239	0x40596170eec00ee6	101.52251785998996
240	0x40592fdec8300039	100.74797253310761
241	0x40592f4620299ce0	100.73865512908696
242	0x405948d5882cea53	101.13803295503867
243	0x40590ea27f6c4af9	100.22866807532763
244	0x4058d666663a0bf1	99.34999995869272
245	0x4058d9310740b08f	99.39361745183326
246	0x40592bb10d2aef96	100.68268136208494
247	0x4059222ee4c234eb	100.53411215749263
248	0x4059294f7a4a2008	100.6454759334448
249	0x4058eb8831111d8f	99.6801874797004
250	0x4058ffef1f21ff80	99.99896982498285
251	0x405960baf3876c3f	101.51141060089957
252	0x40591714c8480db9	100.36064345394597
253	0x4058ed522f6c9e96	99.70814118964549
254	0x40591ff29aed7b0c	100.49918244544477
255	0x40594700e933ed30	101.10943059988927

conv2.lin_dst.weight f8 [32, 32]
0	0x405852a1832769f8	97.2911079296972
1	0x40584c123b03be73	97.18861270299548
2	0x40583c975b47c7a7	96.94673807153468
3	0x4058c2b74574807e	99.04243599297658
4	0x4057eca31f4d093d	95.69745619319015
5	0x405873df0c2db1d1	97.81048874342311
6	0x40588aaf767775a5	98.16695939699146
7	0x40585fdf1a00686f	97.49799203910673
8	0x405852fce47b2d9c	97.29668533352964
9	0x40583bfb52aacb3b	96.93721453360642
10	0x40585432de2986d1	97.31560472541175
11	0x40583233cd962a7d	96.78441180863042
12	0x4057eb67b4f84afd	95.67820476767879
13	0x40580f462f6fd78e	96.2386587707717
14	0x405854d1a80ea604	97.32529641562002
15	0x4058675a92e71321	97.61490318838015
16	0x40584327cd6e3aff	97.04930434956258
17	0x405853d280c9b40b	97.30972308824146
18	0x40585e8138c75851	97.47663707225117
19	0x40581ab5c86b8934	96.41734514714773
20	0x4057d2aac3ec88fe	95.29167268847593
21	0x40582ed5a94e8553	96.73179085414931
22	0x40582f532a483ea8	96.73945099883224
23	0x4058390821273993	96.89112118559414
24	0x40584f95c2db818c	97.24351569591653
25	0x40586f7956238285	97.74178079097517
26	0x405826ed583fbb24	96.60823637222035
27	0x405878be137cadb8	97.88660132575649
28	0x40581c8ffe88a80d	96.44628871293408
29	0x405841b919ce2cdb	97.02692265638636
30	0x405890bbf86c7670	98.26147280304008
31	0x40583e7fdb46f353	96.97655374459036
32	0x4058f772e35bf0e8	99.86638721445672
33	0x40592faba0db22b9	100.74485036277737
34	0x405916db8f185ec5	100.35715081577207
35	0x405970a38b74e609	101.75998197952153
36	0x4058fad1ae6e2370	99.91904793506342
37	0x40591be60b92573f	100.43591584483237
38	0x4059391809c1c0f3	100.89209216996441
39	0x40590d138bcf5def	100.20431800127675
40	0x4058f189466de221	99.7740036080436
41	0x405908ab27ff77d7	100.13544654796657
42	0x4059285dcdc4fd16	100.63072532879991
43	0x4058f8a273796e34	99.88491522654004
44	0x4058da6e4639f2db	99.41298061045693
45	0x4058c3e9983facf7	99.06113249033284
46	0x40593b2e60b6b3c1	100.92470567552574
47	0x40596c2bdb836c0e	101.69017684778393
48	0x40594546be8579e7	101.08244288477691
49	0x405938d250009e5d	100.88783645687495
50	0x40593f0918fa2305	100.98493027141019
51	0x4059089ad4114f9f	100.13444997492341
52	0x4058dc8e404a0d4c	99.4461823199428
53	0x4058e482c76f10ac	99.5704821190472
54	0x40590ee7e9a68c0c	100.23290482773172
55	0x4059300066ba695d	100.75002449230438
56	0x4059205dfbd0f9c7	100.50573630721838
57	0x40590b00ffb83c94	100.1719359683214
58	0x40592095c230b8e6	100.50914053686174
59	0x40596418c97d53cf	101.56401288260462
60	0x4059134a920cd9f1	100.30142642264379
61	0x4059067630971138	100.10096373322165
62	0x405922083bc6d135	100.53175253310913
63	0x40593a0e1617f37e	100.90710975970248
64	0x405902401ac19fb4	100.03516262920931
65	0x4058f821dfc03769	99.8770675065149
66	0x4059064ff29b4a51	100.09862961926525
67	0x40595e4110d91b09	101.47272130204887
68	0x4058ebb458ed6299	99.68288253004211
69	0x405915663831ea98	100.33436398386618
70	0x40592f99646799f8	100.74373731725052
71	0x40590803360d09df	100.12519599221513
72	0x4058de7c6a75d4e9	99.47634374148369
73	0x4058fd49eb3e6f55	99.95763665291936
74	0x40591e4ddea14de6	100.47350278618214
75	0x4058f3de142a5255	99.81042961247415
76	0x4058e6efcd01da0a	99.60838627987701
77	0x4058bf9c44b84988	98.99391286846924
78	0x40592853937d3406	100.63010108210446
79	0x40595a2ce8201a7d	101.40899088988404
80	0x40592bc0a530ded5	100.6836331345797
81	0x4058fd0d79510e77	99.95394738116907
82	0x40592d5919956a17	100.70856322852374
83	0x4058fb775d3cbe8a	99.92916041309414
84	0x4058cab488b679a9	99.16726892299506
85	0x4058d9a5a7677c33	99.40073571306202
86	0x4059052dd477c1be	100.08092223830224
87	0x4059219aeb103697	100.52508045752835
88	0x405912c71a178c3e	100.29340221690742
89	0x4059058788c42900	100.08639735370889
90	0x40590fb8716f448e	100.24563251367564
91	0x40595f67f120e711	101.49071911061425
92	0x4058ef786d646b56	99.74172529989787
93	0x4059156fa89e2f11	100.33494010398523
94	0x4059220a61ff60ca	100.53188371600405
95	0x405925857e5a496a	100.58627280060833
96	0x4058ffc8370a51e5	99.996595153883
97	0x405925947e4bfaa9	100.58718831462706
98	0x40590397a5cc6142	100.05613083800293
99	0x40595f84448e43fa	101.49244798558348
100	0x4058e603f845cf9a	99.59399229829287
101	0x40592761c5b10a15	100.6153425434971
102	0x40591df12309694f	100.46784282607153
103	0x40591411d99095f7	100.31358946914393
104	0x4058eb528ed6f938	99.67691393846042
105	0x4058fea1c856a6a6	99.97862442457208
106	0x40590c6dfaa2eb66	100.19421258840666
107	0x4058c1156c54c2ab	99.01693256642709
108	0x4058bdafe6606697	98.96386107839713
109	0x4058c6a6c91c67f1	99.10392978452707
110	0x4059285ba79ca697	100.63059416101383
111	0x40596dc24811aa5e	101.71498300290247
112	0x405929d687275c05	100.65371874660202
113	0x405918094a769aea	100.37556706984074
114	0x40592932f805736a	100.6437358906966
115	0x4058f81116b35992	99.87604300989759
116	0x4058c895622a3b30	99.13411764263287
117	0x4058e49f5a834d7c	99.57222616980101
118	0x4059096fd8d8abaa	100.14745160254702
119	0x405917c50747a126	100.37140066142146
120	0x405917ce2c1c06c8	100.37195875870668
121	0x4059001826042958	100.0014739075317
122	0x405929ca01c713d3	100.65295452538639
123	0x405957444577b82a	101.36354195300433
124	0x405926868ee67db7	100.60196278103727
125	0x4058f2627ae7b5d3	99.78726074817614
126	0x4059256f6d127755	100.5849259071668
127	0x405930bcb6238d3b	100.76151803466648
128	0x4058e6fbb39efb28	99.60911264920708
129	0x405904ea93776d32	100.07681738531826
130	0x4058ffb8fd9587eb	99.99566592791204
131	0x405948af7fa11d79	101.13571158155345
132	0x4058e65cb30ae1a6	99.59940792143479
133	0x40591841c9fd1a9e	100.3790154430121
134	0x40592d1cf8107e7e	100.70489312754395
135	0x4058f76718fbb8b4	99.86566757757356
136	0x4058d9023cc4bb94	99.39076155864888
137	0x4058ffb46eaad209	99.99538771325764
138	0x40590e305b3bf47c	100.22170143942816
139	0x4058e66d4271fd33	99.60041867381806
140	0x4058a62a74113eeb	98.59634114917905
141	0x4058c489a4792176	99.07090102986498
142	0x4058fcf7ffb500ad	99.95263664890327
143	0x405927fb7f1883fe	100.62472512621022
144	0x4059256c4c79d26f	100.5847350301426
145	0x4058f9a00c369d12	99.90039353688579
146	0x40590d4d0be4fcae	100.20782754289641
147	0x4058e1448a54a0bb	99.51980837120475
148	0x40589ca78a327181	98.44772581983672
149	0x4058b0b9ee21d593	98.7613482790387
150	0x40590395b9c7eeee	100.0560135319208
151	0x405905ae6a2368a3	100.08877042253384
152	0x40591ae8822f0035	100.4204411944382
153	0x4058da982d531d09	99.41553814999146
154	0x4058ea565862d2e0	99.66152009630923
155	0x40594708ee8bdc92	101.1099201551281
156	0x4058ecfeb6cb7301	99.70304651134576
157	0x4058e368d7b65a60	99.553274086074
158	0x4058fe3c547715a5	99.97243224744177
159	0x40591f3fdea86ece	100.48827330063361
160	0x4059070c60422c5e	100.11013037168729
161	0x4059103fb789e940	100.25388897388348
162	0x405904ff35cacba4	100.07807678989644
163	0x40596aad55a50926	101.66682950131198
164	0x4058d64593e7d5c4	99.34799668922557
165	0x40590de34a68ab59	100.21699772092451
166	0x405917a2f61d60f5	100.36932137364404
167	0x4059083617e29ca7	100.12830159311362
168	0x4058d0cb72dfd744	99.26241752490483
169	0x4059019a7ce6b45e	100.02505419282667
170	0x4059115f78bd1fe7	100.27145212620927
171	0x4058ec0612c213ee	99.687870683221
172	0x4058c5fc038a9595	99.09350670369743
173	0x4058a35b8feff6e7	98.55246351655988
174	0x40590f61f274c016	100.24035321618462
175	0x40595000cda32e83	101.2500490277835
176	0x40591ec9c8058737	100.48106575527059
177	0x405909de0b7ec704	100.15417754536253
178	0x4059398e5346458b	100.89931184637514
179	0x4058c8ebdfe8784f	99.1393966455664
180	0x4058aaf32cd02dd6	98.67109222726808
181	0x4058d6c0edb5e574	99.35552542460738
182	0x40591e46f4c2bca9	100.47308081643372
183	0x405923065165b413	100.5472606175611
184	0x405918de6288dcf8	100.388573297172
185	0x4058eac56cd8a0b6	99.66829987673813
186	0x4059010679e97a52	100.01602027702873
187	0x405962a67d614a61	101.54141172886877
188	0x405910e999b48d20	100.26425783760033
189	0x4058ef6e5ddba6ac	99.74111124468135
190	0x405918595b9fb532	100.38045397373642
191	0x40591eee42888543	100.4832922299584
192	0x4058e7d1983cbb6b	99.62216764384145
193	0x40590efbddfad893	100.23412274834327
194	0x4058e291f3bd3511	99.54015820958399
195	0x40592f916aaf4025	100.74325053324044
196	0x4058c137b5b7c321	99.01902525849847
197	0x40590391b94c2583	100.05576927601037
198	0x405913f8d15070fc	100.31206162314987
199	0x4058faccef5f11fc	99.91875824245648
200	0x4058c6209a6c2a16	99.09573994219713
201	0x4058f8492f68c736	99.87946686966174
202	0x4058f024a8ddb8c2	99.75223752644072
203	0x4058cd1d360cd860	99.20490790609756
204	0x4058a35c746ecadb	98.55251799411364
205	0x4058a7ae14f5e2a6	98.62000011455766
206	0x4058e66a20b86c5d	99.60022752771461
207	0x40592ebfaaa404c8	100.7304483987565
208	0x40592004442621ea	100.50026038860202
209	0x4058f65108e75a45	99.8486959704688
210	0x4058fba08c416a89	99.93167406452461
211	0x4058d6a3ab360ca6	99.35373955038321
212	0x4058d465dd2a3419	99.31871728059231
213	0x4058c8fbfe282a51	99.14038041994469
214	0x4058fef0adc73983	99.9834398694566
215	0x4058f563477c4cce	99.83418452395128
216	0x4058f0bd64f05027	99.76155971019817
217	0x4058f19b8f99be50	99.77511968626027
218	0x4058e1f9e1c650e2	99.53087658278267
219	0x4059452e886b0830	101.08096514179556
220	0x40590cbe93ec79d1	100.19913194745392
221	0x4058e9b8d6c80389	99.6519066766033
222	0x4059104dcb6ce38e	100.25474820741348
223	0x40592a7e4fcd8075	100.6639594561437
224	0x4058fabde7e4cfa3	99.91784093231995
225	0x4058ffb54c35857f	99.99544053293901
226	0x4059093d2242eded	100.1443563130958
227	0x40595b5b80e6765c	101.42745993143166
228	0x4058e51c2825fa9f	99.57984355648885
229	0x4059431066fc47fc	101.04787611615023
230	0x40593c50c1609b93	100.94242891725871
231	0x40592ac912cba321	100.66852254759262
232	0x4058fe3a4863a4b4	99.97230729800032
233	0x40590e023ae8bf68	100.21888611535326
234	0x40592e5efe211171	100.72454789380369
235	0x4058f26dd0691a11	99.7879525209794
236	0x4058d2268b7ec046	99.28360259416613
237	0x4058c9f367d999c7	99.15548130273883
238	0x40591e96b321fad3	100.4779479820093
239	0x40596170eec00ee6	101.52251785998996
240	0x40592fdec8300039	100.74797253310761
241	0x40592f4620299ce0	100.73865512908696
242	0x405948d5882cea53	101.13803295503867
243	0x40590ea27f6c4af9	100.22866807532763
244	0x4058d666663a0bf1	99.34999995869272
245	0x4058d9310740b08f	99.39361745183326
246	0x40592bb10d2aef96	100.68268136208494
247	0x4059222ee4c234eb	100.53411215749263
248	0x4059294f7a4a2008	100.6454759334448
249	0x4058eb8831111d8f	99.6801874797004
250	0x4058ffef1f21ff80	99.99896982498285
251	0x405960baf3876c3f	101.51141060089957
252	0x40591714c8480db9	100.36064345394597
253	0x4058ed522f6c9e96	99.70814118964549
254	0x40591ff29aed7b0c	100.49918244544477
255	0x40594700e933ed30	101.10943059988927

linear.weight f8 [1, 32]
0	0x405aa37727652800	106.55414757612743
1	0x405a6ea428a9bfb7	105.72876946045913
2	0x405a5b303bd62cc8	105.42481895366211
3	0x405a57aad4644769	105.36980161469332
4	0x405a42a030d4a364	105.0410272671266
5	0x405a5799246d3bb5	105.36872206370647
6	0x405a41defa9b79d1	105.02923455413044
7	0x405a69212f763cc4	105.6426504759466
8	0x405a58c287a385fa	105.38687315911366
9	0x405a80ba77142839	106.0113809296462
10	0x405a4a290178079c	105.15875279161122
11	0x405a6b7877004b44	105.67922759083473
12	0x405a3f4eaf0a486b	104.98917747501552
13	0x405a551fafcbe359	105.33005900298066
14	0x405a887fcd1b9530	106.13280036634092
15	0x405a64ba0581e05a	105.5738538521122
16	0x405a631bc94d2b90	105.54857094322347
17	0x405a38ef129b1826	104.88959183832102
18	0x405a4d4683cf151f	105.20742888663197
19	0x405a5940a1557d03	105.39456971500844
20	0x405a718598a4f79b	105.77377906904296
21	0x405a5bcaf655542a	105.43426283200156
22	0x405a71e29a5e6a6e	105.77945574970519
23	0x405a845af2c75f22	106.06805104703793
24	0x405a54947b864731	105.32156265366645
25	0x405a73db6f0014d7	105.81026816375685
26	0x405a6c6800cea39b	105.69384784869764
27	0x405a8eff2e546812	106.23432501070809
28	0x405a42bb872dfde1	105.04269580356005
29	0x405a56d2f2e73e2e	105.35662529547037
30	0x405a5787545d2bcc	105.36763486002673
31	0x405a5ffdf4a3d559	105.49987522124628

linear.bias f8 [1]
0	0x405182af629c30ee	70.04195466282883
