models/baseline_0.01_750_out_of_1000.pt (torch, 1191 bytes, 1 tensors)

linear.weight f4 [1, 32]
000000 e0 9e 1e be 1f 7f b3 3d 93 22 22 3e f4 19 15 3d
       -0.15490294 0.08764481 0.15833502 0.036401704
000010 e4 de 85 bd b9 ee 34 be d4 7a 0d be e6 90 38 bb
       -0.06536654 -0.1766919 -0.13816386 -0.0028162538
000020 ee 8a c9 3d 3d 79 9b bd bf 8a 91 bc 11 02 54 bd
       0.09840952 -0.07591484 -0.017766355 -0.051759783
000030 11 f6 78 3e df 0a ae 3a a6 0d 38 bd 82 2c 51 bd
       0.24312617 0.0013278386 -0.04493489 -0.051067837
000040 65 8d 6c bd 50 5a 39 3d 75 5d 01 3e d3 40 0a be
       -0.05775203 0.045252144 0.12633307 -0.13501291
000050 7e a9 1c 3e f9 d9 9b bb 04 e7 81 bc 81 be 81 3e
       0.15299031 -0.004756209 -0.015857227 0.25340655
000060 67 09 86 3d b3 9b 86 bc 07 35 0d 3d e6 25 06 bc
       0.06544762 -0.016431665 0.0344744 -0.008187747
000070 4e 9a 80 bd 72 df fa bd da ac 8f ba a1 f4 2a be
       -0.06279431 -0.1224965 -0.0010961548 -0.16694881
