models/baseline_0.00055_100.pt (torch, 13703 bytes, 12 tensors)

conv1.att_src f8 [1, 1, 32]
000000 ff 8d d3 25 f4 4c c0 3f 4d 29 5b a4 3f 12 c1 bf
       0.12734844061843373 -0.1333694031257643
000010 85 48 c8 2a 93 c9 68 3f e9 68 c5 0c d5 74 e1 3f
       0.003025805888918378 0.5455117463527844
000020 64 1a 7d 60 a4 e3 ca bf 10 c5 40 b9 4b d5 d4 3f
       -0.2100720854889061 0.32551854220499
000030 7b 01 a9 80 fd ab dd bf 1e 81 f7 66 8d ca d9 bf
       -0.4636224514433917 -0.40298781447747156
000040 41 30 1a 2d be 11 e2 bf 3e 08 22 a7 0d 57 de bf
       -0.5646658783821367 -0.4740633136899567
000050 72 69 1a d0 de 32 a2 3f dd 79 15 ce 05 e6 c2 3f
       0.03554436006853025 0.1476447349804876
000060 64 e7 ff 17 1d be d2 3f 37 91 2b 4b 2b 7c db 3f
       0.292853616177686 0.4294536813815912
000070 54 5a c3 2f 9f 1a a7 3f 93 61 96 d6 1e 54 d7 3f
       0.04512498338742846 0.36450930553248745
000080 3b 37 7d 81 bc e2 c3 3f 16 f0 df 8c 8f 15 e2 3f
       0.15535694430075772 0.5651319266758061
000090 9b 5a 17 c8 f6 c2 d8 3f 15 83 a9 28 25 44 e3 bf
       0.386899657632435 -0.6020684999640219
0000a0 ed e4 50 96 a1 a9 c0 3f 55 17 be 3c 3e ab d9 bf
       0.13017673339508154 -0.4010768502415563
0000b0 1e 1b ac 46 f6 74 d2 bf a0 49 6d db 86 74 e3 bf
       -0.2883887949141569 -0.6079744611436588
0000c0 a1 ea 84 25 2a bf d0 bf 91 01 f7 9b 84 75 cd 3f
       -0.261667763366555 0.23014886489364675
0000d0 6b ed 1e 2c b3 fe a9 3f dd 81 c1 2d 58 0a d3 3f
       0.05077133096298322 0.2975063750109522
0000e0 ca 01 1a fa 9c 2c e3 bf 0f d3 07 27 e4 cb c7 bf
       -0.5991959461971927 -0.18590976625241537
0000f0 9e e2 91 6f f2 5e e1 3f 28 fb 7a f3 a1 08 a2 3f
       0.5428402117823514 0.03522211167500294

conv1.att_dst f8 [1, 1, 32]
000000 87 e6 ae cd f7 6d c1 3f 95 29 61 27 0b d2 c9 bf
       0.1361684564888501 -0.2017225210459627
000010 2c 27 c9 98 dc c0 ce 3f 5d 1c 10 12 3d 4e cb bf
       0.24026067219011205 -0.21332515127162113
000020 fb a1 56 f6 71 2f d8 3f 2f 58 eb f7 e4 eb c5 bf
       0.3778958230637099 -0.17126142602381964
000030 57 c4 77 0e 60 52 d6 3f ce be 77 8e 0b a8 b3 3f
       0.34877778447031943 0.07678291538445167
000040 6a 7e 65 c4 59 91 9b bf 7f be ce 18 50 21 d6 3f
       -0.026921656238640436 0.34578325674645066
000050 c2 4c b9 49 51 83 cf bf 67 f5 51 12 b3 a9 c2 3f
       -0.24619499301716102 0.1458038176969396
000060 76 e4 21 aa 8e 21 d6 bf 89 1f a1 67 02 8f be bf
       -0.34579817404262003 -0.11936965017332403
000070 d5 d1 a7 e5 0f d7 96 3f d7 8a d4 91 a6 0c d8 3f
       0.022304771797239404 0.3757721351741287
000080 2e 02 ac ee b5 15 d5 3f e7 21 63 9f 05 b9 b0 3f
       0.32945011432460347 0.06532321111001914
000090 f1 df d3 73 b4 3d c0 bf fe 66 3d fb ae a0 d8 bf
       -0.12688308387419014 -0.3848073438181102
0000a0 cc b7 95 f8 ae 12 de bf c6 05 58 45 fb dc c9 3f
       -0.46989034915793293 0.20205632100991816
0000b0 97 ae 68 2e 2c ec d2 bf 9f 80 9c db 4e 8f 82 3f
       -0.29566483051414977 0.009062400891309884
0000c0 c4 98 ce a6 eb 1e c6 bf 90 ba 45 b8 ca 28 d1 3f
       -0.1728186192023654 0.268114738420004
0000d0 c6 70 55 60 2e e3 d3 3f 1c e8 21 d4 ae 40 ba bf
       0.31074103744118664 -0.10254948309912532
0000e0 c0 f1 84 71 6a 69 a1 bf 44 4f 63 8f ef 26 d7 bf
       -0.0340073836873418 -0.3617514515183198
0000f0 06 61 2b 46 d0 e4 d9 bf 31 cf 86 cd cc ad d8 bf
       -0.4045906720398452 -0.38560791083294804

conv1.bias f8 [32]
000000 0b 22 46 83 3e 4c dd 3f 32 67 ba b0 92 64 de 3f
       0.45777857608530387 0.4748884893284525
000010 42 e0 dc 3a 21 5e b2 3f d4 88 9d 07 dc 68 cd 3f
       0.07174880683021548 0.22976255771488374
000020 56 e7 af 69 ed b1 d8 3f 3d f8 4b 64 f6 1d de 3f
       0.3858598262883012 0.47057876391034253
000030 e0 83 d0 d1 d0 b4 ba 3f cd c4 fb b4 7b 88 c2 3f
       0.10432152864861122 0.14479013764461116
000040 e7 e9 28 44 15 a5 ce 3f 1c 33 57 9d a6 b2 c2 3f
       0.23941293552509466 0.14607699091575277
000050 3c ab 31 f5 4d 3c cd 3f 18 ff 11 5c 9c fa dd 3f
       0.22840284798015797 0.46842106810798745
000060 23 58 30 89 0f f4 d8 3f 7b 31 b0 4b b8 0a d6 3f
       0.3898962821707547 0.3444042910712352
000070 42 f7 11 cf 74 1b df 3f 78 c4 e6 b6 9e fe d4 3f
       0.4860507986230581 0.32804077016323374
000080 b5 78 d5 25 44 96 dd 3f 5e 93 a0 f5 25 a0 dd 3f
       0.462296521136419 0.46289967524562836
000090 cb 59 b5 a2 d7 a7 dd 3f 2a df 03 c3 d3 d3 c9 3f
       0.4633692826222641 0.20177695295546388
0000a0 cf 25 f0 0d 76 1c de 3f 1c 3d e7 ee a9 35 d3 3f
       0.47048713074817966 0.30015037851713244
0000b0 37 81 5c cc 7c 8d 8e 3f 56 b7 38 e3 52 34 c1 3f
       0.014918303476918566 0.13440929503252147
0000c0 4c 51 78 92 69 1d dd 3f 7c ba da c1 a0 bb d7 3f
       0.4549201898928643 0.37082690173239263
0000d0 96 fd 4e 5d 37 74 c4 3f 93 e8 a2 19 6a fa dd 3f
       0.15979663902360802 0.4684090853076068
0000e0 19 e3 4a e8 7e 11 d4 3f 0d 5d d7 3b bb 83 d8 3f
       0.3135678547364918 0.38304024547456167
0000f0 33 38 2b a1 b8 9f dd 3f 45 77 ca 1c 4b 19 d3 3f
       0.46287360896247093 0.29841878711328135

conv1.lin_src.weight f8 [32, 3]
000000 78 62 dd 84 38 07 c8 bf 0a a1 34 5c 69 09 d9 3f
       -0.1877203606370761 0.39119943623019593
000010 c6 c2 5f f0 b7 35 db bf 73 12 00 00 cb 78 d2 3f
       -0.4251537177470194 0.2886226177218198
000020 5d dd f6 cb c5 3d e1 3f 55 62 ab d1 ae 0d b4 3f
       0.5387906058958084 0.07833378428348088
000030 53 06 e7 64 9b 5b d9 3f 7a 58 04 ee 8f 4a d5 bf
       0.3962162480712312 -0.3326759170898935
000040 8c 02 2e 28 ad 4f dc bf 8e 97 9a 49 5e d5 b1 3f
       -0.4423630611782208 0.06966199204415899
000050 54 e2 ea 54 c6 0b d7 3f e0 8b 3f 9b 03 0c ab 3f
       0.36009367268301173 0.0528260352146146
000060 35 f8 b5 6a 6a 67 d7 3f d6 fe 48 b6 6d f8 c3 3f
       0.3656869928453291 0.15601893807069328
000070 99 11 80 be 95 5d e3 3f de 0e 20 83 1c 04 e2 3f
       0.6051739426334733 0.5630018769301974
000080 66 c4 dd 4c 16 96 d7 3f 6f e1 46 37 61 da d7 bf
       0.3685355902335402 -0.3727038421452766
000090 89 c9 f3 d5 a9 e3 ce 3f 62 8e ce 31 25 c2 e0 bf
       0.2413227362336097 -0.5236993763723599
0000a0 64 4c 95 ed 6f 7f d7 bf cf ba 64 ab ac 4d c1 bf
       -0.3671531505726249 -0.13518293732473416
0000b0 e7 77 08 a0 70 0d d1 bf 8b 40 c2 e9 78 03 d3 3f
       -0.26644530895452906 0.29708693340308717
0000c0 3a 0d 9e 8a 25 8a d1 3f 4b 56 00 87 fc 3b d5 bf
       0.27405680214743067 -0.33178628143045746
0000d0 06 fe 98 27 ba 3a dc bf e2 db f4 d6 13 7c c4 3f
       -0.44108442179637597 0.16003654476091272
0000e0 4e a4 67 ab 52 dc db bf 4c 67 c6 f5 ea 75 ba bf
       -0.4353224443316933 -0.10336178303114457
0000f0 1d da 8f 67 cf f8 c6 bf 77 8e 77 c8 99 bf d0 bf
       -0.17946808392271488 -0.2616943795858115
000100 8b 42 1a df c6 8e da 3f e7 58 69 e0 d3 6a d2 3f
       0.41496440684662933 0.2877702418821983
000110 67 fd f0 10 5c f5 e8 3f 0a 2b c0 a0 a1 2c b2 bf
       0.779951127136809 -0.07099352049423771
000120 0c 54 8b d4 be 00 a7 bf 57 92 fb 90 6f 91 e2 3f
       -0.04492756218466107 0.5802533942883866
000130 fc 6f 03 9e 58 8d bb 3f 65 b6 6a 46 55 0d d2 3f
       0.10762552125692076 0.2820637881912716
000140 40 b6 6c e4 b4 5f d5 3f 40 5f 6e e6 eb a9 d0 3f
       0.33396646792502693 0.2603711843780623
000150 72 d1 89 ae 3d 41 c7 3f 51 e3 6f 25 60 56 e9 3f
       0.18167849562054134 0.79179389297415
000160 fb b9 1a 00 39 d6 e2 3f 40 86 39 9a e4 28 e3 3f
       0.5886502267874784 0.5987418186379685
000170 0e f8 d9 59 86 20 d3 3f 74 4a 42 09 3f 6e cc bf
       0.2988601567702752 -0.2221144480905256
000180 b4 d7 fd f9 0c 2a c3 bf 5d 0b 81 45 9e d9 e7 3f
       -0.14972078520412213 0.7453147275449329
000190 48 2f 39 79 52 e3 d4 3f 32 21 b4 78 d8 db e2 3f
       0.32637464369030456 0.5893366200917056
0001a0 51 dd ec f0 2c cb e2 3f bf 26 53 41 bb 94 e0 3f
       0.5873017030307129 0.5181556964755244
0001b0 74 d2 11 5e 38 5e e4 3f e5 65 1d 5b 5a c7 e2 3f
       0.6365014874741761 0.5868350772463456
0001c0 55 6d 90 05 7c b8 dc 3f 3c 64 08 9a fd d3 d1 bf
       0.4487600378358441 -0.27856388132346743
0001d0 e8 8e 8f 8a 40 59 e1 bf 7b 2c 30 ca 5d 4f d4 bf
       -0.5421450334801792 -0.3173441385740216
0001e0 d8 7e af c0 ca 8b a7 bf 22 4b 17 2b 19 a3 d4 3f
       -0.04598840334051396 0.32245473106483946
0001f0 f9 0c d9 c3 81 77 db 3f 5d 09 d0 7d 46 90 c2 bf
       0.4291691219879819 -0.1450279344863458
000200 24 4e ff c5 8b 21 da bf 54 fe d5 e9 6a f4 b0 3f
       -0.40829748473808736 0.06622951706776209
000210 f9 ea a0 7e 57 a2 bd bf 1c 06 3f 05 66 a4 cf bf
       -0.1157583889152355 -0.24720454460298036
000220 10 fa e3 0f 91 84 ab bf 43 08 f0 01 81 48 d6 bf
       -0.05374577826477289 -0.348175289051259
000230 2a 41 dc df 84 62 d1 bf 3e fd d3 ed 5f f2 d1 bf
       -0.2716381250511569 -0.28041837907217715
000240 77 ce be 46 9a d3 c4 bf ff d4 18 c9 fe 5d dc 3f
       -0.16270760015833094 0.44323701513651764
000250 c4 aa 39 1a a2 37 cf bf a9 03 db eb 44 f1 ad 3f
       -0.24388529091387146 0.058481363097150414
000260 36 76 23 d0 be 89 d0 3f ac 46 7f d3 ea 64 e0 3f
       0.25840730978038395 0.5123190050892013
000270 f8 7c 97 d0 51 06 d4 3f 5f be 38 33 37 91 d2 bf
       0.31288571710861346 -0.29011325838198404
000280 81 2a 71 4c b8 f9 d3 bf 6c 7d 43 59 bd 5a b1 bf
       -0.312116694117016 -0.06779082707679657
000290 6b 5e 8d 63 37 ab e4 3f 23 5c aa 8c af 43 d1 3f
       0.6459004349116645 0.26975620972501896
0002a0 b3 8e 47 0d dc cf ba bf df 84 ae d2 82 46 dd bf
       -0.10473418544966755 -0.4574286515654204
0002b0 9b 53 6f d6 b6 4b c0 3f da cf 19 87 b5 34 dc 3f
       0.1273106143040906 0.4407171077102682
0002c0 2e a5 ea 63 79 30 d8 3f 92 e3 47 bd 4e bf 9f bf
       0.37795862920264056 -0.031003217985901062
0002d0 e5 3f d1 d8 e1 8f d6 3f 03 ba 67 20 8e 83 eb 3f
       0.35253187345096954 0.85980898217332
0002e0 d7 f3 23 8d 6b 76 d5 3f 8b 14 7c 35 b9 21 9e 3f
       0.3353527906727413 0.029425519837805097
0002f0 55 cf fe 58 11 65 d2 bf ce 90 d3 1f 57 b7 da 3f
       -0.2874186867804743 0.417440205650803

conv1.lin_dst.weight f8 [32, 3]
000000 78 62 dd 84 38 07 c8 bf 0a a1 34 5c 69 09 d9 3f
       -0.1877203606370761 0.39119943623019593
000010 c6 c2 5f f0 b7 35 db bf 73 12 00 00 cb 78 d2 3f
       -0.4251537177470194 0.2886226177218198
000020 5d dd f6 cb c5 3d e1 3f 55 62 ab d1 ae 0d b4 3f
       0.5387906058958084 0.07833378428348088
000030 53 06 e7 64 9b 5b d9 3f 7a 58 04 ee 8f 4a d5 bf
       0.3962162480712312 -0.3326759170898935
000040 8c 02 2e 28 ad 4f dc bf 8e 97 9a 49 5e d5 b1 3f
       -0.4423630611782208 0.06966199204415899
000050 54 e2 ea 54 c6 0b d7 3f e0 8b 3f 9b 03 0c ab 3f
       0.36009367268301173 0.0528260352146146
000060 35 f8 b5 6a 6a 67 d7 3f d6 fe 48 b6 6d f8 c3 3f
       0.3656869928453291 0.15601893807069328
000070 99 11 80 be 95 5d e3 3f de 0e 20 83 1c 04 e2 3f
       0.6051739426334733 0.5630018769301974
000080 66 c4 dd 4c 16 96 d7 3f 6f e1 46 37 61 da d7 bf
       0.3685355902335402 -0.3727038421452766
000090 89 c9 f3 d5 a9 e3 ce 3f 62 8e ce 31 25 c2 e0 bf
       0.2413227362336097 -0.5236993763723599
0000a0 64 4c 95 ed 6f 7f d7 bf cf ba 64 ab ac 4d c1 bf
       -0.3671531505726249 -0.13518293732473416
0000b0 e7 77 08 a0 70 0d d1 bf 8b 40 c2 e9 78 03 d3 3f
       -0.26644530895452906 0.29708693340308717
0000c0 3a 0d 9e 8a 25 8a d1 3f 4b 56 00 87 fc 3b d5 bf
       0.27405680214743067 -0.33178628143045746
0000d0 06 fe 98 27 ba 3a dc bf e2 db f4 d6 13 7c c4 3f
       -0.44108442179637597 0.16003654476091272
0000e0 4e a4 67 ab 52 dc db bf 4c 67 c6 f5 ea 75 ba bf
       -0.4353224443316933 -0.10336178303114457
0000f0 1d da 8f 67 cf f8 c6 bf 77 8e 77 c8 99 bf d0 bf
       -0.17946808392271488 -0.2616943795858115
000100 8b 42 1a df c6 8e da 3f e7 58 69 e0 d3 6a d2 3f
       0.41496440684662933 0.2877702418821983
000110 67 fd f0 10 5c f5 e8 3f 0a 2b c0 a0 a1 2c b2 bf
       0.779951127136809 -0.07099352049423771
000120 0c 54 8b d4 be 00 a7 bf 57 92 fb 90 6f 91 e2 3f
       -0.04492756218466107 0.5802533942883866
000130 fc 6f 03 9e 58 8d bb 3f 65 b6 6a 46 55 0d d2 3f
       0.10762552125692076 0.2820637881912716
000140 40 b6 6c e4 b4 5f d5 3f 40 5f 6e e6 eb a9 d0 3f
       0.33396646792502693 0.2603711843780623
000150 72 d1 89 ae 3d 41 c7 3f 51 e3 6f 25 60 56 e9 3f
       0.18167849562054134 0.79179389297415
000160 fb b9 1a 00 39 d6 e2 3f 40 86 39 9a e4 28 e3 3f
       0.5886502267874784 0.5987418186379685
000170 0e f8 d9 59 86 20 d3 3f 74 4a 42 09 3f 6e cc bf
       0.2988601567702752 -0.2221144480905256
000180 b4 d7 fd f9 0c 2a c3 bf 5d 0b 81 45 9e d9 e7 3f
       -0.14972078520412213 0.7453147275449329
000190 48 2f 39 79 52 e3 d4 3f 32 21 b4 78 d8 db e2 3f
       0.32637464369030456 0.5893366200917056
0001a0 51 dd ec f0 2c cb e2 3f bf 26 53 41 bb 94 e0 3f
       0.5873017030307129 0.5181556964755244
0001b0 74 d2 11 5e 38 5e e4 3f e5 65 1d 5b 5a c7 e2 3f
       0.6365014874741761 0.5868350772463456
0001c0 55 6d 90 05 7c b8 dc 3f 3c 64 08 9a fd d3 d1 bf
       0.4487600378358441 -0.27856388132346743
0001d0 e8 8e 8f 8a 40 59 e1 bf 7b 2c 30 ca 5d 4f d4 bf
       -0.5421450334801792 -0.3173441385740216
0001e0 d8 7e af c0 ca 8b a7 bf 22 4b 17 2b 19 a3 d4 3f
       -0.04598840334051396 0.32245473106483946
0001f0 f9 0c d9 c3 81 77 db 3f 5d 09 d0 7d 46 90 c2 bf
       0.4291691219879819 -0.1450279344863458
000200 24 4e ff c5 8b 21 da bf 54 fe d5 e9 6a f4 b0 3f
       -0.40829748473808736 0.06622951706776209
000210 f9 ea a0 7e 57 a2 bd bf 1c 06 3f 05 66 a4 cf bf
       -0.1157583889152355 -0.24720454460298036
000220 10 fa e3 0f 91 84 ab bf 43 08 f0 01 81 48 d6 bf
       -0.05374577826477289 -0.348175289051259
000230 2a 41 dc df 84 62 d1 bf 3e fd d3 ed 5f f2 d1 bf
       -0.2716381250511569 -0.28041837907217715
000240 77 ce be 46 9a d3 c4 bf ff d4 18 c9 fe 5d dc 3f
       -0.16270760015833094 0.44323701513651764
000250 c4 aa 39 1a a2 37 cf bf a9 03 db eb 44 f1 ad 3f
       -0.24388529091387146 0.058481363097150414
000260 36 76 23 d0 be 89 d0 3f ac 46 7f d3 ea 64 e0 3f
       0.25840730978038395 0.5123190050892013
000270 f8 7c 97 d0 51 06 d4 3f 5f be 38 33 37 91 d2 bf
       0.31288571710861346 -0.29011325838198404
000280 81 2a 71 4c b8 f9 d3 bf 6c 7d 43 59 bd 5a b1 bf
       -0.312116694117016 -0.06779082707679657
000290 6b 5e 8d 63 37 ab e4 3f 23 5c aa 8c af 43 d1 3f
       0.6459004349116645 0.26975620972501896
0002a0 b3 8e 47 0d dc cf ba bf df 84 ae d2 82 46 dd bf
       -0.10473418544966755 -0.4574286515654204
0002b0 9b 53 6f d6 b6 4b c0 3f da cf 19 87 b5 34 dc 3f
       0.1273106143040906 0.4407171077102682
0002c0 2e a5 ea 63 79 30 d8 3f 92 e3 47 bd 4e bf 9f bf
       0.37795862920264056 -0.031003217985901062
0002d0 e5 3f d1 d8 e1 8f d6 3f 03 ba 67 20 8e 83 eb 3f
       0.35253187345096954 0.85980898217332
0002e0 d7 f3 23 8d 6b 76 d5 3f 8b 14 7c 35 b9 21 9e 3f
       0.3353527906727413 0.029425519837805097
0002f0 55 cf fe 58 11 65 d2 bf ce 90 d3 1f 57 b7 da 3f
       -0.2874186867804743 0.417440205650803

conv2.att_src f8 [1, 1, 32]
000000 8e 00 8e da 45 1d db 3f 29 4a fc b8 84 32 db bf
       0.42366167395813015 -0.4249584013461197
000010 2a 49 e5 18 b9 f7 c8 3f 82 e1 3c c7 50 56 c8 3f
       0.19505990710838123 0.19013414123925193
000020 63 5c fd bf c4 d4 d0 3f 8d ea c8 00 20 0c c4 3f
       0.2629863619708372 0.1566200260002301
000030 53 49 0a 19 2b 6c b4 bf 2d f3 e7 b5 6e 47 d9 3f
       -0.07977551804859688 0.394984891550666
000040 05 91 1c 35 cd 6d d2 3f b9 84 1b 78 61 32 d7 3f
       0.28795175730398653 0.36244999627349334
000050 45 ca 97 b4 7d 8e bb bf af 78 b3 06 dd 32 c0 3f
       -0.10764299067504009 0.12655222727966506
000060 ac 23 de 57 f5 4d d2 3f 42 04 a9 2e 87 10 82 3f
       0.2860082014163321 0.008820587264496752
000070 e3 fa 3d e7 ee cd d4 bf 01 13 af b1 0c 5d c8 3f
       -0.32506916601407293 0.19033964801760564
000080 32 31 2f 32 3a 53 bd bf 0c 74 72 4f b1 c9 d0 3f
       -0.11455119824603768 0.2623103404856131
000090 de f9 a6 0c 82 3e d0 bf 82 77 26 68 5b e9 d8 3f
       -0.2538151858861094 0.3892429844944375
0000a0 23 0e 78 f9 9b 52 c8 3f 6d 85 ab 28 94 bc d3 3f
       0.1900210350141701 0.3083849332016005
0000b0 49 b9 f0 72 d6 e0 b4 bf 0c 5b c2 2f 8f 6e bf bf
       -0.0815557509056123 -0.12278075138088357
0000c0 4b 6b 21 f8 c2 24 d6 3f 22 bc 01 a8 b0 72 c3 3f
       0.34599374991892223 0.15193756297546296
0000d0 2c 90 c7 05 56 86 c7 bf b5 2a 80 ba da 92 a6 bf
       -0.1837871101589611 -0.0440891602193764
0000e0 75 a1 ce 99 f6 a2 d6 3f d9 1f ec e4 bc d2 d9 3f
       0.353696489527031 0.4034874187059337
0000f0 6e e6 59 cd 56 44 cd 3f 1d 04 6a cf 88 5c de 3f
       0.22864804293549262 0.47439785247121496

conv2.att_dst f8 [1, 1, 32]
000000 b0 0e 2c 65 16 6c a2 bf a9 82 6e 77 cd 41 90 3f
       -0.03598089203845001 0.015876017012149166
000010 47 69 ae f9 64 1d c9 3f 84 26 73 72 43 b6 d2 bf
       0.19620954696149281 -0.2923744790719882
000020 f0 84 2c cb 5e 8d d4 3f 6d 8e 47 17 5c d5 d2 bf
       0.3211285575981284 -0.29427244447126705
000030 fb cf f3 7c 96 80 d6 3f 4c a5 11 23 09 52 a2 3f
       0.3515983791578489 0.035782132655024584
000040 8b 30 fa 67 17 d8 a1 bf 14 6e 69 b2 77 1f d0 bf
       -0.03485177177671613 -0.25192062781363345
000050 1e 46 c6 57 86 b3 d6 3f c5 12 89 ab e1 e4 d5 bf
       0.35470732280472983 -0.34209481956012794
000060 17 3e 19 5f 8a 37 c9 bf 76 d0 c2 1d af ae b3 3f
       -0.1970074619625712 0.07688421703898193
000070 d2 66 f0 b3 33 5d a1 3f 80 c0 f4 31 1e c5 b2 bf
       0.03391419955751264 -0.0733202812159579
000080 3d d4 89 2e 56 f0 ce bf e1 3e f2 a7 c6 5a bf bf
       -0.24170949242003018 -0.12247888183832913
000090 ec 33 73 a1 5f eb d9 bf fa 5f d5 60 06 60 d4 3f
       -0.4049910618458046 0.31836089569469517
0000a0 f3 41 1e 58 1c 04 b8 bf 53 61 0e f6 a1 07 d4 bf
       -0.09381272460291949 -0.31296586064265347
0000b0 ea 7b 74 8c 55 98 bb bf 03 67 95 c3 ad 19 d4 3f
       -0.10779318503453764 0.31406730747185935
0000c0 8b 2e 3b 7e 4d 64 d0 bf e0 fc bc 9c d7 0d d2 bf
       -0.2561219914175374 -0.28209486299961206
0000d0 7a f6 22 19 73 b4 91 3f 34 a8 4f b9 dc f3 b3 3f
       0.017289923104490935 0.07793979191015482
0000e0 12 5e c4 ac c5 bd d7 bf 54 1a 91 ab 94 84 b1 bf
       -0.3709577738931965 -0.06842927158968709
0000f0 d6 07 c5 d3 0a 30 9a 3f 09 77 54 c0 5e f4 bd 3f
       0.025573891806977965 0.11701004214816292

conv2.bias f8 [32]
000000 1a e2 75 4f dd 56 d7 3f f2 1c 37 a8 b5 53 aa bf
       0.36467678794682146 -0.05141990354928251
000010 0e 0c 83 c8 1c 68 d4 3f 2d c6 74 8a 5f 28 b5 3f
       0.3188545187114763 0.08264729624058793
000020 b3 bf 7e c6 22 bd 9b 3f ad 9b 85 0b e1 78 d7 3f
       0.027088683476619923 0.36675287366090964
000030 88 4c 26 bf bc da d6 3f f2 04 f8 b2 cf ac da 3f
       0.3571006647773136 0.4167975661985813
000040 e5 3a bf be f7 e1 c3 3f 7b 30 09 f0 19 f6 b7 3f
       0.15533348859613408 0.09359895811320655
000050 bc 12 7d 7b 04 57 d6 3f d1 02 29 a3 33 3f ae bf
       0.34906112727575667 -0.059075940768257625
000060 8c e7 79 ac 14 01 d7 3f 1f 8b b1 e6 5a 57 ce 3f
       0.3594409641588008 0.2370408655579803
000070 c4 c9 df 96 42 38 cf 3f e1 da 5f e8 6c 77 d9 3f
       0.24390442244437172 0.3979141492158487
000080 c9 07 35 b0 81 cd d4 3f f5 57 86 d1 88 6c d1 3f
       0.32504312713365074 0.272249416936915
000090 74 6c d1 c2 c9 82 91 3f f6 b1 85 7f 1e 9d da 3f
       0.017100479617834854 0.4158397908529702
0000a0 b8 7b 16 1c 29 d5 d6 3f 70 45 7b f3 61 20 db 3f
       0.35676028960181894 0.42385147836201664
0000b0 d8 8b e7 98 a0 6d b4 bf 70 7c 45 01 f3 cc dc 3f
       -0.0797977803518245 0.45000910877383316
0000c0 cc 6e 06 4e 54 5a d7 3f 6f ef 17 ea 2c 60 db 3f
       0.36488826388970774 0.427745083434039
0000d0 78 4b 1f 60 e6 38 92 bf 82 5f fd 11 3d 05 d7 3f
       -0.017795180909000646 0.35969473606882485
0000e0 ef 16 93 4e 41 f4 da 3f 56 5a 11 87 57 17 c5 3f
       0.4211581485109112 0.1647748384009044
0000f0 56 d9 08 64 1b 99 da 3f be 7e 1f 26 07 38 d6 3f
       0.41559490937233556 0.34716967318489

conv2.lin_src.weight f8 [32, 32]
000000 5b cf c0 7c 74 4e cb 3f fa 71 0a 3c 89 cc d9 3f
       0.21333175746405683 0.4031088911376909
000010 24 03 19 f8 40 b6 8b 3f ff 71 af d6 96 b9 db 3f
       0.013531215258923597 0.4332024666344125
000020 94 9a 01 f6 dd 74 cc 3f 78 42 8d ba 10 55 db 3f
       0.22231649887108473 0.4270669767184141
000030 45 62 c5 7d fe 38 cf 3f 22 bb ac 20 fa 86 c5 3f
       0.24392682210124597 0.16818167300649473
000040 cc 4d 3d fc 45 3c d3 3f bc 30 1c fe c4 6b d7 3f
       0.3005537951732691 0.3659527284187438
000050 c1 d0 21 d6 fe 5e b0 bf 1b 51 4b 8b e6 6f e4 3f
       -0.06394951560816066 0.6386597366895644
000060 89 7f 55 f3 78 0d c0 3f b4 6e 3a e8 6e 4c cd 3f
       0.1254111469415842 0.22889505709905722
000070 ef dd 3e c2 88 b2 d5 3f c8 58 1d 6f d8 8c b8 3f
       0.33902186364454584 0.09589913094291369
000080 69 ff 96 40 6b b5 e4 3f 48 70 a2 89 a8 f0 d4 3f
       0.6471458684463701 0.32718862000342996
000090 08 08 15 3c be 97 e1 3f 54 49 ff 73 f0 22 d0 3f
       0.5497733281592909 0.2521325238023071
0000a0 63 05 94 02 6f 40 e1 3f f7 ad d7 74 cc 34 d2 3f
       0.5391154337268457 0.284472574333193
0000b0 80 44 86 57 47 1d a9 3f 4a 05 18 64 81 c2 d2 3f
       0.0490515035954866 0.2931216695288482
0000c0 55 bc cd bc d9 f6 dc 3f 59 bf f6 3f 56 2f dd 3f
       0.4525665611062711 0.45601421591253694
0000d0 a9 75 9b af 88 f9 5a bf e6 5d 8f b3 e3 3b e6 3f
       -0.001646407587421942 0.6948107249290245
0000e0 d4 34 b1 ca 7d 80 d2 3f 79 3f 3d 68 c7 73 cc 3f
       0.28909249109422075 0.22228329267317884
0000f0 3e de c1 02 e0 29 e0 3f 0a f2 67 48 89 a9 c2 3f
       0.5051116994718041 0.14579883609248184
000100 2b 32 7f 82 b8 2e ce bf 1e 4a ef ec 1a 87 a3 bf
       -0.2358008038703628 -0.03814014570493306
000110 1c 29 b8 e0 4f 0a 98 bf bb ad 07 92 51 64 c4 bf
       -0.023476837244779877 -0.15931148176546892
000120 be 2a 94 ed 38 31 d6 bf 7c 67 e1 4b 2d b0 d0 bf
       -0.34675429535915814 -0.2607529870052685
000130 d4 d9 cf 25 61 44 d4 3f cf 37 fa a9 85 f1 c8 3f
       0.31667355244226525 0.1948706703155367
000140 5e c2 d5 a2 cc 75 c6 bf 9b 90 64 bf 3e 74 c2 bf
       -0.1754699511616477 -0.14417251916268445
000150 a6 29 00 a0 1d d1 a4 bf 19 c2 31 75 75 d9 d1 bf
       -0.04065792635090597 -0.27889763302576537
000160 e9 f8 a1 97 81 bd d6 bf 04 ff 31 d9 ac ff ad bf
       -0.3553165417469147 -0.05859127188977989
000170 34 bd 35 c9 76 32 c3 bf 7f fd b5 19 90 f6 d0 bf
       -0.14997753929808655 -0.26504900465803155
000180 d7 0e 66 9d c2 99 cb bf 54 a5 dd bb 1c 29 d7 bf
       -0.21562988934976232 -0.36188429209012907
000190 47 fc 26 4f c7 aa d2 bf 19 3e a8 6c c6 51 d3 3f
       -0.2916734955760529 0.30186615572981307
0001a0 e0 3d 24 91 34 89 d0 bf 7c 7a 09 e6 69 30 bf bf
       -0.25837434934598313 -0.12183248392237006
0001b0 49 c3 8d b7 3b 4a cc bf b4 4f 38 f8 d5 33 c0 3f
       -0.22101541960321416 0.1265819036494783
0001c0 d8 14 5e 1c f4 48 c7 bf 2e 99 be aa 1f 54 c6 3f
       -0.18191386590129954 0.1744422515595913
0001d0 21 43 50 5e 7b aa d1 bf fa e2 5c 99 d2 9b aa bf
       -0.27603038988404377 -0.05197008249382935
0001e0 48 78 d7 e6 31 37 c2 bf d0 ab 31 bb 44 19 d6 bf
       -0.14230941554609644 -0.3452922657076529
0001f0 96 db 28 52 15 03 d0 bf 76 38 5b ff 5c c7 c3 bf
       -0.2501881887760019 -0.15452158421107115
000200 6b 50 b6 6f 8c ea d1 3f a7 5a 34 99 86 81 e4 3f
       0.27994070920363495 0.6408112518573333
000210 f2 8b c1 8b 26 9f d3 3f 58 99 4f e3 97 25 c1 3f
       0.3065887799077124 0.13395975684324912
000220 5b b9 65 41 d7 c3 a5 3f c9 51 4d 31 f6 ea c4 3f
       0.04250977204616176 0.16342046172452587
000230 62 85 6a b9 46 d0 c8 bf b2 0f 9c ad c6 73 c9 3f
       -0.19385608724136733 0.19884570576698263
000240 46 0a 40 e4 0e 8e ad bf 9d a8 3e 74 9c 60 d6 3f
       -0.057724442827766384 0.3496466765597093
000250 9a 5c bc ca 96 55 c0 3f 2a 08 36 a7 d4 64 e6 3f
       0.12761196994026563 0.6998084321824127
000260 0f 76 60 0a d0 06 bc 3f 4b 9b fd c1 b6 dc c1 3f
       0.10947895291652564 0.13954815361213443
000270 e1 bb ee 31 dc 37 c4 3f ba 04 23 d9 95 de b9 3f
       0.1579547160922337 0.10105263282004531
000280 80 83 c2 5e 34 dc d9 3f b7 c1 1a fd c5 88 d2 3f
       0.4040652203930719 0.2895979854320347
000290 41 f5 63 90 a1 c6 df 3f 60 58 a2 54 60 e8 a0 bf
       0.49649848080283127 -0.03302289040691231
0002a0 85 72 80 2d 42 68 bd 3f f3 4d b2 40 7b 30 98 3f
       0.11487210856325632 0.02362244207740889
0002b0 ac 33 ee 04 1e ef d4 3f 15 7e 6a d6 90 7c b4 3f
       0.3270945594929866 0.08002572283520977
0002c0 36 95 1a f9 b7 4a e0 3f 76 9d 36 c3 1d 98 d0 3f
       0.5091209283170091 0.2592844396953845
0002d0 c4 41 5f 1c ef c1 b0 3f c2 78 ee 5a 25 4d e6 3f
       0.06545919840505748 0.696917226410527
0002e0 14 e0 70 28 4b b6 e0 3f 11 0c 8e 2a 92 6a da 3f
       0.5222526349889471 0.4127545753073614
0002f0 12 79 ee 2f ec a3 d9 3f 3a c1 98 5b 3d 95 b3 3f
       0.40063004189313844 0.07649596678016204
000300 bd 2e ca 1e 22 5b c0 3f eb 85 b9 1b 1f 75 d1 3f
       0.1277811670628263 0.27277353007784083
000310 03 15 90 95 3a 34 b4 3f e0 ec 92 be 20 71 d0 3f
       0.07892194892345476 0.25690477953658153
000320 0e e5 34 80 a4 9e c3 3f 08 c9 2b cd 59 19 b6 bf
       0.15327888736809608 -0.08632432231005194
000330 2f 76 2d 3f 58 5e cb bf a3 cb 85 56 73 fa c4 3f
       -0.21381667218058584 0.16389314388979156
000340 b1 2a 7e 3d 37 84 b4 3f f4 24 dd 44 13 64 bd bf
       0.08014245272912991 -0.11480827742811411
000350 29 da e5 5a d3 5c b7 3f 52 ef d2 f2 27 7e bc 3f
       0.09126015633760488 0.11129998853988113
000360 44 51 3d db 7b 3c b3 bf 66 ce 04 b2 93 22 db 3f
       -0.07514165976073622 0.4239854086365312
000370 6b 44 41 7c 16 b8 cd 3f 4f 1c 1f 00 aa 3c be 3f
       0.2321804148400902 0.11811316016165672
000380 ff 19 fe ef 4f df 96 bf d0 6e 8a fa a1 82 cc 3f
       -0.02233624365137565 0.2227365945189974
000390 2b 75 57 80 42 7b a0 bf 70 d7 de 75 fd 97 cb 3f
       -0.03219039742155368 0.21557586913484839
0003a0 a4 1e a2 d3 47 6a b5 3f d7 3b 53 d3 d6 72 b8 3f
       0.08365296284511686 0.0955023065500734
0003b0 ef 2d 92 24 90 a6 bf 3f 24 b5 f9 87 74 1a b7 bf
       0.12363530056807524 -0.09024742431366356
0003c0 7a c6 8a 1b 51 e0 c7 bf 7e 3e db 0d be 05 c7 bf
       -0.18653310627773917 -0.1798627441080391
0003d0 a2 49 f3 fb c2 07 cd bf b1 b3 15 91 d0 33 a2 bf
       -0.22679936697256858 -0.035551564894240946
0003e0 81 61 11 6b 2e f6 b8 bf 50 05 af f8 16 ac c0 bf
       -0.09750642885172135 -0.13025176184423026
0003f0 8e 64 65 21 0b 6f 90 3f 2d bf 20 69 2e 1f c2 3f
       0.01604859725316437 0.14157657750319555
000400 b8 6f 17 4c 25 08 ba 3f 11 75 06 c8 ab d6 ce 3f
       0.10168679340080089 0.2409262396512664
000410 66 45 6e bf bb 23 88 3f 67 fb bb 08 0c fa be 3f
       0.01178690603208805 0.12100291455497612
000420 8c 9a 0a b9 38 11 ba bf 44 f0 57 e1 18 6f d5 3f
       -0.101825280357483 0.33490583425714626
000430 19 fd a7 15 12 d8 ce bf 58 f8 cb 2b ab c4 76 bf
       -0.24096895272666854 -0.005558651577983374
000440 00 72 43 0b a2 48 b6 3f 5c 54 0f cb d9 8a d2 3f
       0.08704579138743185 0.2897247775084162
000450 04 ec 94 fd bf 01 cf 3f 79 38 64 2f ce a2 b8 bf
       0.2422409046356223 -0.09623421341913908
000460 ba 12 7a bc 50 13 ae bf df e4 0c d9 3e a0 c4 3f
       -0.05874111462347771 0.1611403045479056
000470 4c 6e c6 d6 06 fe d6 3f 95 a5 06 70 ba bd d2 3f
       0.3592545602238928 0.2928300947192722
000480 d0 14 e2 03 d6 d2 9c 3f a1 d5 5c 37 0b 28 d5 3f
       0.028148025500304652 0.3305690804148416
000490 06 45 ab 23 44 64 ca bf 05 a1 26 26 e6 41 c4 3f
       -0.20618488065387214 0.1582610784801163
0004a0 90 1a 80 06 62 e1 d3 3f 54 ff e2 dc 59 92 cd bf
       0.31063128123097616 -0.23102877889140905
0004b0 78 4b 3b 42 67 3d cc 3f 6e a9 cd 57 df 44 ca bf
       0.2206238816639503 -0.20522681987069852
0004c0 4a 25 ae c3 d0 22 a3 bf 0d 65 fa 58 71 34 c8 3f
       -0.037374996077299175 0.18910042614587788
0004d0 46 68 df 33 27 e9 c9 3f 12 a3 a2 b5 ee b9 b4 bf
       0.20242776902051868 -0.08096210417228303
0004e0 f3 fa 16 49 e9 15 d2 bf e9 fa 40 9a 5a b1 cd 3f
       -0.28258735788033035 0.23197491199422096
0004f0 3f ac da 75 ae e4 cd 3f 38 47 33 3f fe 96 c0 3f
       0.23354130510901602 0.1296079453082315
000500 11 67 d0 9e 5b 4e d5 3f 81 78 6f ec e7 5b c6 3f
       0.3329075861853293 0.1746797470540891
000510 2a 33 98 bd 21 6a b5 3f 27 21 c6 8c 46 c3 c5 3f
       0.0836506927373192 0.17002183793761924
000520 36 0a 56 ce ac 3b e0 3f 08 70 cd c7 55 9f db 3f
       0.5072845487596342 0.4316000415035437
000530 c2 97 9b 84 9a 06 9f bf 82 78 f7 8d f1 04 d0 3f
       -0.03029862818120655 0.2503017317193398
000540 1a fd 02 92 f2 4e d9 3f 04 6f 41 dd de fb bc bf
       0.3954435754676112 -0.11321823980091145
000550 10 b7 6b 56 6f 45 d3 3f f7 65 b8 9a f4 72 df 3f
       0.3011129707291369 0.4913913260403144
000560 60 c4 40 77 cd 15 c3 3f f6 48 de 8f 62 7c d8 3f
       0.14910286257648675 0.38259185838354826
000570 e4 bc 01 4f 12 0d e4 3f 7a 62 a0 32 ad a4 e0 3f
       0.626595644292959 0.5201021183775787
000580 96 32 69 0f 56 ec d5 3f 0a d5 f9 ff 2b e1 d7 3f
       0.342549815225348 0.3731184005512921
000590 0d 7c 11 49 03 20 e1 3f d5 33 c6 b0 d3 74 b3 3f
       0.5351578166117875 0.07600138726975499
0005a0 6b da 4a 98 c6 03 c3 3f 03 8b 0c e4 f6 bd b9 3f
       0.1485527270903789 0.1005548769722218
0005b0 8d 11 15 17 a5 47 d6 3f 29 08 cc 3d 5a 81 dc 3f
       0.34812285665636794 0.44539505038130983
0005c0 31 4a 15 e1 85 4e df 3f 78 cc 39 f1 64 05 e1 3f
       0.4891676614835517 0.5319084845963422
0005d0 66 46 0e 71 1e fc da 3f f1 68 2e 90 03 f0 e3 3f
       0.4216381172237561 0.6230485740700528
0005e0 13 27 9a dd 3d b1 c3 3f c4 64 88 12 0e 19 c7 3f
       0.1538464862863341 0.18045211701318042
0005f0 b7 81 b5 7f 32 df df 3f 59 f6 eb 9c 71 68 e1 3f
       0.4979978797109896 0.5439994873883719
000600 86 cc a8 7b 36 ba d9 3f df 68 ef c8 15 89 dd 3f
       0.40199052883253505 0.4614920103318933
000610 fe cb 18 32 d6 77 af bf 41 3b 0c 6a dd a0 d3 3f
       -0.06146115647825211 0.30669341427067215
000620 4c 81 e8 5a d7 37 b8 3f fe 38 cb 7d ca 8a dc 3f
       0.09460206956328426 0.44597112927011995
000630 30 87 c9 50 f8 04 b9 3f 67 68 91 32 19 1d d4 3f
       0.0977320859178945 0.31427602709084684
000640 a9 cd fe 29 b0 bc cd 3f 0d 8b ce b5 bd a9 d4 3f
       0.23232080507805833 0.32286017183848587
000650 c8 75 71 a3 6d 8b da 3f 76 b4 67 7c 1e 08 d6 3f
       0.4147600265622171 0.3442455496686486
000660 5f 61 d1 30 33 72 d8 3f 43 0b ee 8c e3 8d d4 3f
       0.38197021262523906 0.3211602092998655
000670 ce d5 d7 8f 24 3c e3 3f 44 62 e3 69 f7 bc c1 3f
       0.6010916528163592 0.13857929869006302
000680 db 10 1d a8 d0 ef e3 3f b7 77 d7 49 83 4c e1 3f
       0.6230242999522732 0.5405899469585539
000690 05 ce d3 c0 66 66 d6 3f 67 3e 6e ee c5 4c d8 3f
       0.3500000842170439 0.3796858623909202
0006a0 cb 4c c7 39 7e 0d e0 3f f7 ca 58 39 14 91 d7 3f
       0.5016471031653053 0.3682299194362452
0006b0 f7 b6 53 84 64 06 d1 3f 84 4d 56 29 4e 8f c2 bf
       0.26601517603454233 -0.1449983312455566
0006c0 6e 69 77 31 b1 4b d2 3f c8 87 f8 9a 41 89 d8 3f
       0.28586988287647486 0.3833774579417164
0006d0 9e 72 d5 9d 78 57 b1 bf 95 4f 20 15 8f f4 e4 3f
       -0.06774095395435117 0.6548533833142637
0006e0 05 03 0e bd 70 07 d4 3f 3e a2 a5 51 22 0d d4 3f
       0.3129541250455506 0.3133016393026401
0006f0 fd 33 60 6c 95 0d d6 3f 29 69 12 2e ac 93 d2 3f
       0.34457908233235895 0.29026321887217194
000700 17 2a 00 2d 65 29 c4 3f 2a d2 b3 5f ee 7e e5 3f
       0.15751328179642662 0.6717445248783112
000710 7d 54 59 22 83 57 b9 3f ad d3 9c f9 f3 6c e0 3f
       0.09899158085439015 0.5132999301191511
000720 6b e2 c0 29 af 8f d1 3f b2 df bd 54 0f 58 de 3f
       0.27439478948102786 0.4741247489505397
000730 c3 12 96 95 44 a7 76 bf 46 5d 36 69 de cd b1 bf
       -0.005530612857346187 -0.06954755848561431
000740 f0 fc 3f 63 32 ef c9 bf a6 7f e7 a7 b1 ac d4 3f
       -0.20261220785321354 0.32304040333655804
000750 b4 5a 55 c2 48 35 a1 bf 5b ca 58 95 7f 9e e7 3f
       -0.033609651300755244 0.7380979458742546
000760 b9 03 81 85 70 ae d2 3f 27 d9 9a cb 72 a9 cf 3f
       0.29189694440361397 0.24735865537304244
000770 62 ac f7 99 53 d5 dd 3f 76 6f 8b 84 ec ca dd 3f
       0.4661454204166998 0.4655104917890108
000780 d3 88 f2 a5 fc 20 de 3f f3 4f db db bf ce bf 3f
       0.47076336103249367 0.12424849622340144
000790 7e ca d7 19 61 03 e5 3f a3 12 73 55 04 0e ce bf
       0.6566625122780605 -0.23480276272143383
0007a0 29 a4 45 c5 43 6d e3 3f d4 51 8e df ea 99 98 bf
       0.6070879795999008 -0.02402464856602811
0007b0 a0 a1 0e a9 ab 82 c6 bf 7a f8 6f 35 ba 1b 9f bf
       -0.175862748668135 -0.03037920905261913
0007c0 bd af 61 52 7f 9e d0 3f f3 93 46 97 8e 34 b9 3f
       0.25967391057087835 0.09845820611242555
0007d0 cc 5a 9b 6c bd 11 b2 3f bb 1e 34 bc fe 05 c8 3f
       0.07058318997892882 0.18768295468929871
0007e0 1e 38 11 7e 7b 80 d9 3f b2 f6 a8 bc 90 6b ca 3f
       0.398466942894517 0.20640763484873542
0007f0 1b b3 fa 88 73 e8 d0 3f 76 26 b0 c8 41 f7 c7 3f
       0.26418770195850677 0.18723318385336868

conv2.lin_dst.weight f8 [32, 32]
000000 5b cf c0 7c 74 4e cb 3f fa 71 0a 3c 89 cc d9 3f
       0.21333175746405683 0.4031088911376909
000010 24 03 19 f8 40 b6 8b 3f ff 71 af d6 96 b9 db 3f
       0.013531215258923597 0.4332024666344125
000020 94 9a 01 f6 dd 74 cc 3f 78 42 8d ba 10 55 db 3f
       0.22231649887108473 0.4270669767184141
000030 45 62 c5 7d fe 38 cf 3f 22 bb ac 20 fa 86 c5 3f
       0.24392682210124597 0.16818167300649473
000040 cc 4d 3d fc 45 3c d3 3f bc 30 1c fe c4 6b d7 3f
       0.3005537951732691 0.3659527284187438
000050 c1 d0 21 d6 fe 5e b0 bf 1b 51 4b 8b e6 6f e4 3f
       -0.06394951560816066 0.6386597366895644
000060 89 7f 55 f3 78 0d c0 3f b4 6e 3a e8 6e 4c cd 3f
       0.1254111469415842 0.22889505709905722
000070 ef dd 3e c2 88 b2 d5 3f c8 58 1d 6f d8 8c b8 3f
       0.33902186364454584 0.09589913094291369
000080 69 ff 96 40 6b b5 e4 3f 48 70 a2 89 a8 f0 d4 3f
       0.6471458684463701 0.32718862000342996
000090 08 08 15 3c be 97 e1 3f 54 49 ff 73 f0 22 d0 3f
       0.5497733281592909 0.2521325238023071
0000a0 63 05 94 02 6f 40 e1 3f f7 ad d7 74 cc 34 d2 3f
       0.5391154337268457 0.284472574333193
0000b0 80 44 86 57 47 1d a9 3f 4a 05 18 64 81 c2 d2 3f
       0.0490515035954866 0.2931216695288482
0000c0 55 bc cd bc d9 f6 dc 3f 59 bf f6 3f 56 2f dd 3f
       0.4525665611062711 0.45601421591253694
0000d0 a9 75 9b af 88 f9 5a bf e6 5d 8f b3 e3 3b e6 3f
       -0.001646407587421942 0.6948107249290245
0000e0 d4 34 b1 ca 7d 80 d2 3f 79 3f 3d 68 c7 73 cc 3f
       0.28909249109422075 0.22228329267317884
0000f0 3e de c1 02 e0 29 e0 3f 0a f2 67 48 89 a9 c2 3f
       0.5051116994718041 0.14579883609248184
000100 2b 32 7f 82 b8 2e ce bf 1e 4a ef ec 1a 87 a3 bf
       -0.2358008038703628 -0.03814014570493306
000110 1c 29 b8 e0 4f 0a 98 bf bb ad 07 92 51 64 c4 bf
       -0.023476837244779877 -0.15931148176546892
000120 be 2a 94 ed 38 31 d6 bf 7c 67 e1 4b 2d b0 d0 bf
       -0.34675429535915814 -0.2607529870052685
000130 d4 d9 cf 25 61 44 d4 3f cf 37 fa a9 85 f1 c8 3f
       0.31667355244226525 0.1948706703155367
000140 5e c2 d5 a2 cc 75 c6 bf 9b 90 64 bf 3e 74 c2 bf
       -0.1754699511616477 -0.14417251916268445
000150 a6 29 00 a0 1d d1 a4 bf 19 c2 31 75 75 d9 d1 bf
       -0.04065792635090597 -0.27889763302576537
000160 e9 f8 a1 97 81 bd d6 bf 04 ff 31 d9 ac ff ad bf
       -0.3553165417469147 -0.05859127188977989
000170 34 bd 35 c9 76 32 c3 bf 7f fd b5 19 90 f6 d0 bf
       -0.14997753929808655 -0.26504900465803155
000180 d7 0e 66 9d c2 99 cb bf 54 a5 dd bb 1c 29 d7 bf
       -0.21562988934976232 -0.36188429209012907
000190 47 fc 26 4f c7 aa d2 bf 19 3e a8 6c c6 51 d3 3f
       -0.2916734955760529 0.30186615572981307
0001a0 e0 3d 24 91 34 89 d0 bf 7c 7a 09 e6 69 30 bf bf
       -0.25837434934598313 -0.12183248392237006
0001b0 49 c3 8d b7 3b 4a cc bf b4 4f 38 f8 d5 33 c0 3f
       -0.22101541960321416 0.1265819036494783
0001c0 d8 14 5e 1c f4 48 c7 bf 2e 99 be aa 1f 54 c6 3f
       -0.18191386590129954 0.1744422515595913
0001d0 21 43 50 5e 7b aa d1 bf fa e2 5c 99 d2 9b aa bf
       -0.27603038988404377 -0.05197008249382935
0001e0 48 78 d7 e6 31 37 c2 bf d0 ab 31 bb 44 19 d6 bf
       -0.14230941554609644 -0.3452922657076529
0001f0 96 db 28 52 15 03 d0 bf 76 38 5b ff 5c c7 c3 bf
       -0.2501881887760019 -0.15452158421107115
000200 6b 50 b6 6f 8c ea d1 3f a7 5a 34 99 86 81 e4 3f
       0.27994070920363495 0.6408112518573333
000210 f2 8b c1 8b 26 9f d3 3f 58 99 4f e3 97 25 c1 3f
       0.3065887799077124 0.13395975684324912
000220 5b b9 65 41 d7 c3 a5 3f c9 51 4d 31 f6 ea c4 3f
       0.04250977204616176 0.16342046172452587
000230 62 85 6a b9 46 d0 c8 bf b2 0f 9c ad c6 73 c9 3f
       -0.19385608724136733 0.19884570576698263
000240 46 0a 40 e4 0e 8e ad bf 9d a8 3e 74 9c 60 d6 3f
       -0.057724442827766384 0.3496466765597093
000250 9a 5c bc ca 96 55 c0 3f 2a 08 36 a7 d4 64 e6 3f
       0.12761196994026563 0.6998084321824127
000260 0f 76 60 0a d0 06 bc 3f 4b 9b fd c1 b6 dc c1 3f
       0.10947895291652564 0.13954815361213443
000270 e1 bb ee 31 dc 37 c4 3f ba 04 23 d9 95 de b9 3f
       0.1579547160922337 0.10105263282004531
000280 80 83 c2 5e 34 dc d9 3f b7 c1 1a fd c5 88 d2 3f
       0.4040652203930719 0.2895979854320347
000290 41 f5 63 90 a1 c6 df 3f 60 58 a2 54 60 e8 a0 bf
       0.49649848080283127 -0.03302289040691231
0002a0 85 72 80 2d 42 68 bd 3f f3 4d b2 40 7b 30 98 3f
       0.11487210856325632 0.02362244207740889
0002b0 ac 33 ee 04 1e ef d4 3f 15 7e 6a d6 90 7c b4 3f
       0.3270945594929866 0.08002572283520977
0002c0 36 95 1a f9 b7 4a e0 3f 76 9d 36 c3 1d 98 d0 3f
       0.5091209283170091 0.2592844396953845
0002d0 c4 41 5f 1c ef c1 b0 3f c2 78 ee 5a 25 4d e6 3f
       0.06545919840505748 0.696917226410527
0002e0 14 e0 70 28 4b b6 e0 3f 11 0c 8e 2a 92 6a da 3f
       0.5222526349889471 0.4127545753073614
0002f0 12 79 ee 2f ec a3 d9 3f 3a c1 98 5b 3d 95 b3 3f
       0.40063004189313844 0.07649596678016204
000300 bd 2e ca 1e 22 5b c0 3f eb 85 b9 1b 1f 75 d1 3f
       0.1277811670628263 0.27277353007784083
000310 03 15 90 95 3a 34 b4 3f e0 ec 92 be 20 71 d0 3f
       0.07892194892345476 0.25690477953658153
000320 0e e5 34 80 a4 9e c3 3f 08 c9 2b cd 59 19 b6 bf
       0.15327888736809608 -0.08632432231005194
000330 2f 76 2d 3f 58 5e cb bf a3 cb 85 56 73 fa c4 3f
       -0.21381667218058584 0.16389314388979156
000340 b1 2a 7e 3d 37 84 b4 3f f4 24 dd 44 13 64 bd bf
       0.08014245272912991 -0.11480827742811411
000350 29 da e5 5a d3 5c b7 3f 52 ef d2 f2 27 7e bc 3f
       0.09126015633760488 0.11129998853988113
000360 44 51 3d db 7b 3c b3 bf 66 ce 04 b2 93 22 db 3f
       -0.07514165976073622 0.4239854086365312
000370 6b 44 41 7c 16 b8 cd 3f 4f 1c 1f 00 aa 3c be 3f
       0.2321804148400902 0.11811316016165672
000380 ff 19 fe ef 4f df 96 bf d0 6e 8a fa a1 82 cc 3f
       -0.02233624365137565 0.2227365945189974
000390 2b 75 57 80 42 7b a0 bf 70 d7 de 75 fd 97 cb 3f
       -0.03219039742155368 0.21557586913484839
0003a0 a4 1e a2 d3 47 6a b5 3f d7 3b 53 d3 d6 72 b8 3f
       0.08365296284511686 0.0955023065500734
0003b0 ef 2d 92 24 90 a6 bf 3f 24 b5 f9 87 74 1a b7 bf
       0.12363530056807524 -0.09024742431366356
0003c0 7a c6 8a 1b 51 e0 c7 bf 7e 3e db 0d be 05 c7 bf
       -0.18653310627773917 -0.1798627441080391
0003d0 a2 49 f3 fb c2 07 cd bf b1 b3 15 91 d0 33 a2 bf
       -0.22679936697256858 -0.035551564894240946
0003e0 81 61 11 6b 2e f6 b8 bf 50 05 af f8 16 ac c0 bf
       -0.09750642885172135 -0.13025176184423026
0003f0 8e 64 65 21 0b 6f 90 3f 2d bf 20 69 2e 1f c2 3f
       0.01604859725316437 0.14157657750319555
000400 b8 6f 17 4c 25 08 ba 3f 11 75 06 c8 ab d6 ce 3f
       0.10168679340080089 0.2409262396512664
000410 66 45 6e bf bb 23 88 3f 67 fb bb 08 0c fa be 3f
       0.01178690603208805 0.12100291455497612
000420 8c 9a 0a b9 38 11 ba bf 44 f0 57 e1 18 6f d5 3f
       -0.101825280357483 0.33490583425714626
000430 19 fd a7 15 12 d8 ce bf 58 f8 cb 2b ab c4 76 bf
       -0.24096895272666854 -0.005558651577983374
000440 00 72 43 0b a2 48 b6 3f 5c 54 0f cb d9 8a d2 3f
       0.08704579138743185 0.2897247775084162
000450 04 ec 94 fd bf 01 cf 3f 79 38 64 2f ce a2 b8 bf
       0.2422409046356223 -0.09623421341913908
000460 ba 12 7a bc 50 13 ae bf df e4 0c d9 3e a0 c4 3f
       -0.05874111462347771 0.1611403045479056
000470 4c 6e c6 d6 06 fe d6 3f 95 a5 06 70 ba bd d2 3f
       0.3592545602238928 0.2928300947192722
000480 d0 14 e2 03 d6 d2 9c 3f a1 d5 5c 37 0b 28 d5 3f
       0.028148025500304652 0.3305690804148416
000490 06 45 ab 23 44 64 ca bf 05 a1 26 26 e6 41 c4 3f
       -0.20618488065387214 0.1582610784801163
0004a0 90 1a 80 06 62 e1 d3 3f 54 ff e2 dc 59 92 cd bf
       0.31063128123097616 -0.23102877889140905
0004b0 78 4b 3b 42 67 3d cc 3f 6e a9 cd 57 df 44 ca bf
       0.2206238816639503 -0.20522681987069852
0004c0 4a 25 ae c3 d0 22 a3 bf 0d 65 fa 58 71 34 c8 3f
       -0.037374996077299175 0.18910042614587788
0004d0 46 68 df 33 27 e9 c9 3f 12 a3 a2 b5 ee b9 b4 bf
       0.20242776902051868 -0.08096210417228303
0004e0 f3 fa 16 49 e9 15 d2 bf e9 fa 40 9a 5a b1 cd 3f
       -0.28258735788033035 0.23197491199422096
0004f0 3f ac da 75 ae e4 cd 3f 38 47 33 3f fe 96 c0 3f
       0.23354130510901602 0.1296079453082315
000500 11 67 d0 9e 5b 4e d5 3f 81 78 6f ec e7 5b c6 3f
       0.3329075861853293 0.1746797470540891
000510 2a 33 98 bd 21 6a b5 3f 27 21 c6 8c 46 c3 c5 3f
       0.0836506927373192 0.17002183793761924
000520 36 0a 56 ce ac 3b e0 3f 08 70 cd c7 55 9f db 3f
       0.5072845487596342 0.4316000415035437
000530 c2 97 9b 84 9a 06 9f bf 82 78 f7 8d f1 04 d0 3f
       -0.03029862818120655 0.2503017317193398
000540 1a fd 02 92 f2 4e d9 3f 04 6f 41 dd de fb bc bf
       0.3954435754676112 -0.11321823980091145
000550 10 b7 6b 56 6f 45 d3 3f f7 65 b8 9a f4 72 df 3f
       0.3011129707291369 0.4913913260403144
000560 60 c4 40 77 cd 15 c3 3f f6 48 de 8f 62 7c d8 3f
       0.14910286257648675 0.38259185838354826
000570 e4 bc 01 4f 12 0d e4 3f 7a 62 a0 32 ad a4 e0 3f
       0.626595644292959 0.5201021183775787
000580 96 32 69 0f 56 ec d5 3f 0a d5 f9 ff 2b e1 d7 3f
       0.342549815225348 0.3731184005512921
000590 0d 7c 11 49 03 20 e1 3f d5 33 c6 b0 d3 74 b3 3f
       0.5351578166117875 0.07600138726975499
0005a0 6b da 4a 98 c6 03 c3 3f 03 8b 0c e4 f6 bd b9 3f
       0.1485527270903789 0.1005548769722218
0005b0 8d 11 15 17 a5 47 d6 3f 29 08 cc 3d 5a 81 dc 3f
       0.34812285665636794 0.44539505038130983
0005c0 31 4a 15 e1 85 4e df 3f 78 cc 39 f1 64 05 e1 3f
       0.4891676614835517 0.5319084845963422
0005d0 66 46 0e 71 1e fc da 3f f1 68 2e 90 03 f0 e3 3f
       0.4216381172237561 0.6230485740700528
0005e0 13 27 9a dd 3d b1 c3 3f c4 64 88 12 0e 19 c7 3f
       0.1538464862863341 0.18045211701318042
0005f0 b7 81 b5 7f 32 df df 3f 59 f6 eb 9c 71 68 e1 3f
       0.4979978797109896 0.5439994873883719
000600 86 cc a8 7b 36 ba d9 3f df 68 ef c8 15 89 dd 3f
       0.40199052883253505 0.4614920103318933
000610 fe cb 18 32 d6 77 af bf 41 3b 0c 6a dd a0 d3 3f
       -0.06146115647825211 0.30669341427067215
000620 4c 81 e8 5a d7 37 b8 3f fe 38 cb 7d ca 8a dc 3f
       0.09460206956328426 0.44597112927011995
000630 30 87 c9 50 f8 04 b9 3f 67 68 91 32 19 1d d4 3f
       0.0977320859178945 0.31427602709084684
000640 a9 cd fe 29 b0 bc cd 3f 0d 8b ce b5 bd a9 d4 3f
       0.23232080507805833 0.32286017183848587
000650 c8 75 71 a3 6d 8b da 3f 76 b4 67 7c 1e 08 d6 3f
       0.4147600265622171 0.3442455496686486
000660 5f 61 d1 30 33 72 d8 3f 43 0b ee 8c e3 8d d4 3f
       0.38197021262523906 0.3211602092998655
000670 ce d5 d7 8f 24 3c e3 3f 44 62 e3 69 f7 bc c1 3f
       0.6010916528163592 0.13857929869006302
000680 db 10 1d a8 d0 ef e3 3f b7 77 d7 49 83 4c e1 3f
       0.6230242999522732 0.5405899469585539
000690 05 ce d3 c0 66 66 d6 3f 67 3e 6e ee c5 4c d8 3f
       0.3500000842170439 0.3796858623909202
0006a0 cb 4c c7 39 7e 0d e0 3f f7 ca 58 39 14 91 d7 3f
       0.5016471031653053 0.3682299194362452
0006b0 f7 b6 53 84 64 06 d1 3f 84 4d 56 29 4e 8f c2 bf
       0.26601517603454233 -0.1449983312455566
0006c0 6e 69 77 31 b1 4b d2 3f c8 87 f8 9a 41 89 d8 3f
       0.28586988287647486 0.3833774579417164
0006d0 9e 72 d5 9d 78 57 b1 bf 95 4f 20 15 8f f4 e4 3f
       -0.06774095395435117 0.6548533833142637
0006e0 05 03 0e bd 70 07 d4 3f 3e a2 a5 51 22 0d d4 3f
       0.3129541250455506 0.3133016393026401
0006f0 fd 33 60 6c 95 0d d6 3f 29 69 12 2e ac 93 d2 3f
       0.34457908233235895 0.29026321887217194
000700 17 2a 00 2d 65 29 c4 3f 2a d2 b3 5f ee 7e e5 3f
       0.15751328179642662 0.6717445248783112
000710 7d 54 59 22 83 57 b9 3f ad d3 9c f9 f3 6c e0 3f
       0.09899158085439015 0.5132999301191511
000720 6b e2 c0 29 af 8f d1 3f b2 df bd 54 0f 58 de 3f
       0.27439478948102786 0.4741247489505397
000730 c3 12 96 95 44 a7 76 bf 46 5d 36 69 de cd b1 bf
       -0.005530612857346187 -0.06954755848561431
000740 f0 fc 3f 63 32 ef c9 bf a6 7f e7 a7 b1 ac d4 3f
       -0.20261220785321354 0.32304040333655804
000750 b4 5a 55 c2 48 35 a1 bf 5b ca 58 95 7f 9e e7 3f
       -0.033609651300755244 0.7380979458742546
000760 b9 03 81 85 70 ae d2 3f 27 d9 9a cb 72 a9 cf 3f
       0.29189694440361397 0.24735865537304244
000770 62 ac f7 99 53 d5 dd 3f 76 6f 8b 84 ec ca dd 3f
       0.4661454204166998 0.4655104917890108
000780 d3 88 f2 a5 fc 20 de 3f f3 4f db db bf ce bf 3f
       0.47076336103249367 0.12424849622340144
000790 7e ca d7 19 61 03 e5 3f a3 12 73 55 04 0e ce bf
       0.6566625122780605 -0.23480276272143383
0007a0 29 a4 45 c5 43 6d e3 3f d4 51 8e df ea 99 98 bf
       0.6070879795999008 -0.02402464856602811
0007b0 a0 a1 0e a9 ab 82 c6 bf 7a f8 6f 35 ba 1b 9f bf
       -0.175862748668135 -0.03037920905261913
0007c0 bd af 61 52 7f 9e d0 3f f3 93 46 97 8e 34 b9 3f
       0.25967391057087835 0.09845820611242555
0007d0 cc 5a 9b 6c bd 11 b2 3f bb 1e 34 bc fe 05 c8 3f
       0.07058318997892882 0.18768295468929871
0007e0 1e 38 11 7e 7b 80 d9 3f b2 f6 a8 bc 90 6b ca 3f
       0.398466942894517 0.20640763484873542
0007f0 1b b3 fa 88 73 e8 d0 3f 76 26 b0 c8 41 f7 c7 3f
       0.26418770195850677 0.18723318385336868

linear.weight f8 [1, 32]
000000 49 36 86 fa 5f a0 e1 3f 18 38 2c 88 75 93 ad 3f
       0.5508270161678378 0.057765648720405405
000010 52 7b 40 da 35 b3 da 3f 90 f7 06 7b f5 ce cb 3f
       0.4171881324163468 0.21725338465870125
000020 f5 a1 7a ed 20 c7 ca 3f 6b 30 9c 01 56 05 e2 3f
       0.2092019233289332 0.5631513625571761
000030 42 64 ea 82 da 07 e3 3f 66 d4 2a 49 f8 77 dd 3f
       0.5947086865372813 0.4604473795437286
000040 45 c0 18 15 e5 5d d4 3f 96 26 f5 7e 54 89 d0 3f
       0.31823088703368213 0.2583819618053921
000050 a4 ad a5 6b d2 6c e3 3f 93 39 51 3b 94 a1 a2 bf
       0.6070339300617218 -0.036389000168685424
000060 99 be d7 a6 59 70 db 3f cd fb e6 db 38 fe d5 3f
       0.4287323121379614 0.34364148592788696
000070 73 6d a0 61 85 6f d1 3f d8 fc 04 fc ec 15 df 3f
       0.2724317029366922 0.4857132397773518
000080 b4 14 d5 fa fa c0 d5 3f be 8b 4b 9c 74 c6 da 3f
       0.33990358825060274 0.4183627630538317
000090 d4 8d ca 7a 3e 35 c2 3f e0 c6 be 48 1b 38 e1 3f
       0.1422498797956978 0.5380989476018065
0000a0 bd 64 76 c1 f9 ac e1 3f 8f 0e 02 99 cb e0 df 3f
       0.5523651865543325 0.4980954164713944
0000b0 7d cb d2 7e 9b ea b0 bf 4f 0f b1 a0 6a 35 e0 3f
       -0.06607982488894311 0.506520570612773
0000c0 cc 8f f5 91 0f b1 e2 3f 70 2e 2f 94 6b 57 e0 3f
       0.5841138697401163 0.5106714147781997
0000d0 b0 94 78 12 42 e6 98 3f e4 19 3a 77 ee 40 e2 3f
       0.024315864922887342 0.5704262093211665
0000e0 00 41 66 49 3a 19 e2 3f e0 41 4b 33 03 ed d5 3f
       0.5655795510847668 0.34259109505822316
0000f0 1b da 8d 92 24 6e de 3f 23 d1 1d 5e cb bd db 3f
       0.475472586745498 0.43345913115560303

linear.bias f8 [1]
000000 f8 4b 5e b1 bf 3f db 3f
       0.4257659179795037
