models/baseline_0.05_0_out_of_500.pt (torch, 40839 bytes, 12 tensors)

conv1.att_src f8 [1, 1, 64]
000000 38 57 33 86 98 5b b4 3f e9 6d 7c e7 f6 51 d2 bf
       0.0795226409566937 -0.286252714214895
000010 da da 16 81 17 20 a0 bf 6a 07 ed 70 8e cf dc bf
       -0.03149484110638463 -0.4501682379524171
000020 00 25 9d b8 1f 8f c1 3f 95 99 42 87 37 ab a4 3f
       0.13718029512737218 0.04036878133892966
000030 98 9f 3e bf 69 48 ca bf 32 ab 71 12 50 70 b5 3f
       -0.20533487165562003 0.08374500704091473
000040 fe 04 e3 9e 23 87 d6 3f ff 80 1e 3d 43 c7 c1 bf
       0.3519982387188775 -0.13889351353009968
000050 51 de fd 84 97 5c d3 3f 6a dd 7b a3 15 3f b0 bf
       0.30252635943859213 -0.06346259347252717
000060 fb 13 86 06 16 85 d0 3f 34 97 d1 6a 70 f3 ca 3f
       0.2581229270656988 0.2105541726661443
000070 0a 1d ee a6 d5 5f b4 3f 0e bd aa b1 27 6d dc 3f
       0.07958731961672441 0.4441622958210737
000080 b9 80 92 0c 09 8f d1 3f 74 6d 67 c7 21 41 d3 3f
       0.274355184819807 0.30085033867881994
000090 74 c4 45 8c 10 ea d5 3f f2 34 48 f5 d4 11 b9 3f
       0.3424111718987384 0.0979283427079343
0000a0 c8 36 3f 14 24 29 83 bf 36 99 2d b1 78 60 dd bf
       -0.00935581385411001 -0.4590131502394742
0000b0 4c ca 46 6a 9d b6 b1 3f 4e 02 8b a5 6d 21 dd 3f
       0.0691927322830363 0.4551653019553087
0000c0 e2 9a 3f e8 ab 67 9c 3f b3 55 6e 36 0c 9e a9 bf
       0.02773922543556296 -0.05003393330040797
0000d0 12 a3 65 7d 34 a6 9f 3f fb 19 de c5 79 49 a6 3f
       0.03090745940554302 0.043529324916608624
0000e0 c9 e0 fb d8 83 92 c6 bf a6 5d 65 0f 5d 80 d9 bf
       -0.17634628386418275 -0.39845968726646175
0000f0 b6 02 3f 8a 55 b0 d4 3f ab 68 8f 81 df be aa 3f
       0.3232625818309701 0.05223749596162127
000100 d6 7a eb 58 5c bb b8 3f 2a 81 b5 7d 0b 21 d5 3f
       0.09660889788527113 0.33014189983625164
000110 b5 23 d5 a6 e8 83 dd bf 6d 09 6a 95 c7 4a b8 3f
       -0.46117607395404586 0.09489104650314113
000120 83 73 f5 78 35 a7 de bf d2 62 07 02 a0 ca cc 3f
       -0.47895561993009766 0.22493362521233579
000130 6e 90 20 82 14 3f dc bf bc 63 81 ec e3 28 b4 bf
       -0.4413501044057345 -0.07874893688257506
000140 40 d2 c1 70 80 24 d2 bf e9 6c f7 24 5e 92 d4 3f
       -0.2834778882163711 0.3214335785866767
000150 0e f5 f6 2d eb 7f d2 3f 63 53 95 cd 53 fe cd 3f
       0.28905753601777995 0.23432395494696853
000160 37 88 0f a9 67 f2 c2 bf 4b 16 bc ae e7 d8 ba bf
       -0.148022611188084 -0.10487220779403932
000170 6e ee 37 ab f9 3f c3 3f eb 6e 30 28 37 5d cc 3f
       0.15038987026479184 0.2215947099911014
000180 2c 37 3c ac 8a 5d b4 bf 2a 5d 06 f1 dc df d3 bf
       -0.0795523329254279 -0.31053851640304464
000190 48 3c 5a f8 e9 60 b9 3f 33 a8 64 17 a6 69 d8 3f
       0.09913503945630098 0.3814482906769882
0001a0 37 65 60 41 5f c8 d4 bf 97 bc 53 3a c5 62 d3 3f
       -0.3247297419016663 0.3029034680939246
0001b0 32 07 c4 79 24 cf cd 3f 81 32 fd 95 e6 9e a9 bf
       0.23288398690788764 -0.050040441331110415
0001c0 1a 68 41 39 8e 6a c1 bf 0a 5a c6 65 62 76 dd 3f
       -0.13606431766203358 0.4603506082434313
0001d0 2b 4c 88 ec 8b 50 d6 bf 56 15 77 97 80 dc a1 3f
       -0.34866617297047026 0.034885424127007056
0001e0 cd d9 c9 c0 d2 04 c3 3f f7 b2 60 b6 46 df c2 3f
       0.14858469403743726 0.14743884949839245
0001f0 12 da a0 4f 27 e5 ae 3f a2 c3 31 e1 cb 14 bc bf
       0.06034205290818674 -0.1096923279562945

conv1.att_dst f8 [1, 1, 64]
000000 3a 72 07 73 db 5c c2 bf 38 21 1b 65 0e 39 c2 3f
       -0.14345877758650422 0.14236621796431748
000010 1b 8b b3 84 a9 1e c7 3f ae 98 df 57 24 f0 8b 3f
       0.1806232355075615 0.013641628200229707
000020 f6 ca 52 62 eb 84 b3 3f 3e 0b 1d 05 f9 24 a7 3f
       0.07624694014047492 0.04520395457668379
000030 2d 1d a0 2e c4 4b d6 3f 02 48 be 6d 0b 4d b1 3f
       0.34837441018358356 0.067581857960505
000040 b9 9f 10 93 0b 66 c0 3f 55 93 0a 40 2c 8c cb 3f
       0.12811417275338302 0.21521523596779937
000050 97 cb 93 d0 9f dd c4 bf 87 fc df d4 67 26 c9 3f
       -0.16301343616904937 0.1964845456531956
000060 59 b6 ee 98 ce 74 a3 3f f7 56 f4 99 dd bf 93 bf
       0.03800054184771957 -0.019286596795686752
000070 65 59 eb 15 99 07 ca 3f 6c 9c d0 7f cc 56 d8 bf
       0.203356872275161 -0.3802977798645262
000080 ad bb 6c a5 1b cf d2 bf 43 94 9f 3b 38 5e c2 bf
       -0.2938908687091793 -0.14350035582825357
000090 b7 6b fc 55 e7 1d c2 3f f5 66 2a ab cd 66 9d 3f
       0.14153758715187134 0.028712476322289644
0000a0 e1 05 c1 b3 ba 7f d5 bf 49 f6 23 15 1f 27 bd 3f
       -0.3359209781084172 0.11387819543957635
0000b0 1b 16 7c b4 d7 52 b8 bf 22 64 51 c3 51 63 9d bf
       -0.09501407772412344 -0.02869918589235366
0000c0 b8 af 3b 5c 10 d5 d8 3f 3f 5d 6a a6 8e 8b da 3f
       0.38800438887733035 0.41476789714348067
0000d0 24 ff c2 27 fb bf cb bf 5b 77 01 72 c1 70 c8 3f
       -0.21679629746903928 0.19094102923093711
0000e0 c4 fb 62 81 4b 86 69 bf 64 81 6e 18 de c8 c7 3f
       -0.0031157946314972224 0.18581749146415938
0000f0 63 9a 51 fd d0 98 c4 bf 34 28 b5 81 5c ee 7f bf
       -0.16091358536796738 -0.007795678476506796
000100 91 4a 08 d4 fb ed ce bf a8 ae 4e 2c 84 cc d6 bf
       -0.2416376862825769 -0.35623268439187905
000110 83 30 5a fc 3d bf d1 3f 5a a2 60 6d 40 12 af 3f
       0.2772974933984715 0.06068612418340953
000120 a9 cb f6 c3 1b 88 ca 3f 02 34 e2 02 07 2f be bf
       0.20727870052868738 -0.11790508098984279
000130 f0 d9 1f 88 78 32 d8 3f 1e 90 91 b8 31 58 c8 bf
       0.37808049481773676 -0.19019147407664233
000140 58 f2 30 9f ff 20 a8 bf 3f 8c 7e fe f8 90 bc 3f
       -0.047126758749503395 0.11158710683098237
000150 db c6 7f 33 63 84 b5 3f 91 53 fe 96 ab 46 d3 bf
       0.0840513230066579 -0.3011883711381467
000160 8e b5 6a ef fe 2d c2 3f 50 97 5f 00 b9 d4 bb bf
       0.14202868166232147 -0.10871464022747301
000170 48 20 81 b3 c7 ba b3 3f 4b 80 2b f6 61 d1 d8 bf
       0.07706878788406002 -0.38777970352203245
000180 b7 f6 30 f4 84 b1 c6 3f 08 43 8d dd 27 27 d7 3f
       0.1772924606647643 0.36176487575453153
000190 c5 42 88 83 93 c2 c9 3f 8a ba 53 5a 58 ed b2 3f
       0.2012504951712996 0.07393409924746144
0001a0 03 94 2e d5 50 66 b4 3f 7e 44 f8 cc 75 21 cf bf
       0.07968621449124673 -0.2432086230115011
0001b0 ae 80 7a 4a 00 45 b5 3f b8 cd d9 47 c3 3f c1 bf
       0.08308412378619565 -0.13475838669147122
0001c0 d8 d0 78 04 53 ea b8 bf fa 1c bb 87 dc 8d cd bf
       -0.09732550486734526 -0.23089176776395687
0001d0 37 7e 4e 80 2f 85 d7 3f 02 56 bc b4 b1 bf c0 bf
       0.3675040009493133 -0.13085004162773833
0001e0 d8 7a a3 33 76 25 c1 bf 3e ea 93 32 a6 a4 48 bf
       -0.13395574113288578 -0.0007520495902604907
0001f0 cc 40 a3 8c 9c ca cd bf 55 29 64 73 a4 14 c1 3f
       -0.23274571291995583 0.133442455619227

conv1.bias f8 [64]
000000 90 0c f8 43 5b d6 9d 3f 99 99 37 81 65 e6 cd 3f
       0.0291380176768255 0.23359364327843649
000010 c7 19 9f 2a 8b 97 ca 3f 76 5e 24 f3 2e 7b cd 3f
       0.2077497442352991 0.23032175895854196
000020 23 72 50 7d e2 60 ca 3f fb 10 ec a1 52 36 cb 3f
       0.20608168715342953 0.21259529978136257
000030 e8 24 0c bb 71 f9 90 bf 3c 45 ad 94 7b 29 ba 3f
       -0.016576554337949384 0.10219547633939369
000040 32 2a ba 41 87 d2 cb 3f f7 29 83 2d 77 da c1 bf
       0.21736231526695488 -0.13947953913005026
000050 b6 37 58 59 82 2c b8 3f 24 a9 d2 1c 4e ca b7 3f
       0.09442915612473154 0.0929306812637703
000060 8c 4a 7a 0f 10 dc b8 3f d7 09 c6 12 a1 94 bb 3f
       0.09710789087174926 0.10773665150012533
000070 93 fa 92 e9 ae 3d b3 bf c8 81 89 4a 34 17 cb 3f
       -0.07515996172421983 0.2116456378889906
000080 de 40 86 96 8a d5 b9 3f d4 88 a5 b3 ca 57 ba 3f
       0.1009146325579908 0.10290209661392008
000090 2e eb 63 ee 76 e4 cb 3f 3b 74 b0 3b 97 cc ca 3f
       0.21790968551780437 0.20936861433520612
0000a0 ac e0 0f be 13 20 bb 3f 56 8a c0 9b 2f a2 c0 bf
       0.10595820799051364 -0.12994952302058732
0000b0 f4 d2 84 8e ae 8b b6 3f f4 b0 70 56 b7 b9 cb 3f
       0.08806887607063257 0.21660510750496764
0000c0 6a 5f 88 74 72 39 cd 3f 0c 5e 3b 0d 03 a3 ba bf
       0.22831564607690363 -0.1040498645119145
0000d0 d4 4a e2 06 61 96 c0 bf 1f 25 7f 8b a4 45 cb 3f
       -0.12958920322542744 0.21306282817230568
0000e0 c8 f8 82 3f e0 3b ce 3f ea 49 b2 fa f5 c9 c1 bf
       0.2362022695651318 -0.13897585621869207
0000f0 58 df cc b1 8f 16 cb 3f 56 fc c6 0f 7e 7c c2 bf
       0.2116260164418644 -0.14442420740485556
000100 60 ff de 1a 83 48 cb 3f 7c 83 17 88 89 3a bc 3f
       0.21315039455475482 0.11026820728831227
000110 c7 84 1b 2b fb 34 cc 3f 74 b0 f2 ba d1 a4 ca 3f
       0.22036685566766875 0.20815488460846476
000120 88 73 93 a9 c8 84 a6 bf f4 4c 0f d4 0c 51 bb 3f
       -0.04398181028384501 0.10670547654381207
000130 da 39 46 a0 81 c5 c7 3f dd e2 6e 60 89 1d cc 3f
       0.18571491552252334 0.21965138634347783
000140 ea 94 36 48 b4 d8 c7 3f a4 4b ad c1 19 7e ba 3f
       0.18630078817401535 0.10348664263191992
000150 83 06 5a 32 b1 12 cb 3f 92 64 5b 2e b7 e4 ca 3f
       0.21150793989732017 0.21010484469914964
000160 6b e3 ef e5 fa fd bf bf 3d e3 c8 b1 10 eb cb 3f
       -0.12496917833040093 0.21811112099546817
000170 89 02 5e c2 fc 75 cb 3f c5 3d 08 16 03 29 b0 3f
       0.21453818789088455 0.0631257942952664
000180 bc 4b cd cf 6c 19 b6 3f 74 90 61 af da 95 cc 3f
       0.08632545541085695 0.22332318843394072
000190 a6 7c 06 0a 90 4c bb bf f6 cb a7 70 d1 ab cb 3f
       -0.1066370033718039 0.21618097306017575
0001a0 70 2f a1 03 53 0c ce 3f 2b 8f ca c9 bb 86 cb 3f
       0.23475110699871093 0.21504924157226787
0001b0 a4 7d 07 a8 f4 98 8b bf 78 fa ed 4f dd c5 85 bf
       -0.01347533357414827 -0.0106313028352336
0001c0 68 31 56 f5 af 2d cd 3f ce 6f ca 06 08 9b ba 3f
       0.22795676688509592 0.1039280907229447
0001d0 1a 00 06 42 e7 a9 c0 bf 26 e6 64 d3 0d b1 91 3f
       -0.13018503879357085 0.017276969935869378
0001e0 4f 47 72 9d 95 4e cb 3f ef 3d 97 ba 8a b9 ba 3f
       0.21333570659458664 0.10439364486159496
0001f0 6b 12 da b0 52 02 bd 3f c4 11 e0 35 91 a4 cb 3f
       0.11331669633552514 0.21595969324711295

conv1.lin_src.weight f8 [64, 3]
000000 8e 6e c0 42 20 d7 d8 bf 0d 7e da 4a 68 c5 a3 3f
       -0.3881302501556342 0.03861547387827722
000010 ab b6 0f 09 9b 0c b8 3f 4f 4e 13 2f 55 47 e0 3f
       0.09394234629845737 0.5087076110307381
000020 c9 1e f5 8e 4c 3b d7 bf 04 21 36 17 58 99 b2 bf
       -0.3629943271703096 -0.07265234533963755
000030 6d 01 e0 e3 c3 06 cd bf 02 89 dd ef 4d 44 b3 3f
       -0.22676895739278838 0.07526099306190662
000040 93 fb ca a7 e1 15 cf 3f 5c 5e 3e 84 60 28 d4 3f
       0.2428552693654323 0.3149644175950692
000050 44 90 4d 7b 10 5a c8 bf ba 2e 10 35 ac ed bf bf
       -0.1902485467973084 -0.1247203473614559
000060 90 1a 90 99 78 b0 d7 3f 29 e9 2a fc d0 63 cc 3f
       0.3701459407460925 0.22179615319130022
000070 bc df f4 66 53 f3 b1 3f 81 39 7d a5 df 8c c4 bf
       0.07011910689914108 -0.1605491216709645
000080 7a d1 71 b8 42 fc cd 3f fe bc d7 59 11 cf ab bf
       0.23426088338932144 -0.05431417676651938
000090 2b 70 67 53 ff b8 ba 3f f8 c8 66 7d 57 aa cb bf
       0.1043853357909376 -0.21613591788406672
0000a0 9a 57 30 f3 a1 72 b8 bf 5c 85 2b d0 38 29 36 bf
       -0.09549915492274721 -0.000338150377656351
0000b0 f7 f3 31 33 3f 53 d2 3f 5c 3a 3b 16 e1 c0 b2 3f
       0.2863309860184126 0.07325560372121614
0000c0 98 00 84 b6 06 4d a3 bf f7 90 d1 13 5d 67 d6 3f
       -0.037697038440456854 0.350058812479133
0000d0 36 ec 85 d2 94 90 d5 bf 7b 10 8f bb 83 88 c2 3f
       -0.33694954451465564 0.14479109438082446
0000e0 9f fc f8 dc 9b 57 d1 bf 88 e6 f6 27 89 31 67 bf
       -0.27097221927028586 -0.0028312376814170793
0000f0 be 1c e6 cd 63 51 b3 bf f7 d3 ed af f4 77 c5 3f
       -0.0754606607134631 0.16772326078685726
000100 95 9e a9 54 63 44 d6 3f ba ae 40 5c ea 9f d0 3f
       0.3479240729124993 0.2597604657082503
000110 dc 75 40 74 54 cb d6 3f e0 33 17 80 43 d4 a9 3f
       0.3561602721473187 0.05044756830793751
000120 a8 37 04 58 49 9b bb bf 48 3f c8 79 2a 5c d4 3f
       -0.10783823393668845 0.31812536137384884
000130 48 60 45 f6 7e 54 cf bf 42 3e 8a 8f ff 8c b3 bf
       -0.24476611161185446 -0.07637021307368122
000140 40 8e d3 8b 93 0c d8 3f 0e bf ec 9d c9 37 bf bf
       0.3757675996296008 -0.12194500070176792
000150 0c 32 d4 a2 bb d1 9b 3f 0e 6d 0d cb 93 d8 a5 3f
       0.027167255223547612 0.04266797879855676
000160 54 39 fa 82 0b d3 ca bf 62 4e 02 dd 2a 88 c2 bf
       -0.2095655812776821 -0.14478050033050055
000170 ea d6 44 75 4f 98 dc 3f c7 14 d0 bd d3 53 d8 3f
       0.4467962880329269 0.3801164010659019
000180 3f 8a e6 95 65 f6 ab 3f da a2 85 66 fa 2c d9 3f
       0.054614233539969075 0.39337024700084344
000190 ac f9 a7 c8 a0 b6 a5 3f 24 69 b3 63 8c 01 d4 bf
       0.04240896653572021 -0.31259450661095145
0001a0 1f 09 a3 11 3b 44 db 3f 20 1f 66 4a 20 92 c4 bf
       0.4260394737467709 -0.16070941574820896
0001b0 de 29 55 ed 5f 64 cc bf 42 8f a6 1d a0 f5 d8 3f
       -0.221813193211644 0.3899917878682012
0001c0 1c f2 bb 51 a5 76 d7 3f bf 66 e4 0a 97 7e c7 3f
       0.3666165636239229 0.18355072051854468
0001d0 9f 0d fa 28 fd 4b d4 3f 5f c5 c7 30 51 cd d7 3f
       0.31713799478185395 0.3719065643664034
0001e0 77 0e 70 11 38 15 c9 3f 1e 81 0b 5a 23 24 c7 3f
       0.19596005298091132 0.18079034706807645
0001f0 9e 85 61 d1 35 a5 bd 3f f0 42 62 45 9c da 7f bf
       0.11580215799178581 -0.0077768425309307915
000200 75 62 2d b8 61 01 de bf 74 aa 7f 7d 73 22 c5 3f
       -0.4688343332868848 0.16511386516443205
000210 a6 12 cd f3 22 29 a0 bf 78 cd 42 b3 9b 83 ae 3f
       -0.03156384683692197 0.05959784091228476
000220 4c 3b fe 02 5c 24 d1 bf fe 09 a7 f7 b0 6a da bf
       -0.26784420292181177 -0.41276191887678226
000230 db ff 47 a0 4b d3 df 3f 0f ad 51 84 e4 5e bc bf
       0.497271448635727 -0.11082294683881265
000240 cc ef 79 89 c3 f3 c6 bf 40 a1 ed bd c6 fc ca bf
       -0.17931408131323534 -0.2108391215690606
000250 be 6b 25 64 94 ff cf 3f 01 94 45 27 d0 5e c3 bf
       0.2499871720309254 -0.15133096616332867
000260 44 0a ee 7d c2 d8 ad 3f 65 bc 36 18 3f 58 97 bf
       0.058294370529456546 -0.02279757104195958
000270 ad 9a 84 52 eb af af bf b5 13 07 4f ba a6 9c 3f
       -0.06188903219508766 0.027979765962090137
000280 72 8c 71 53 59 9d c0 3f 4f 2d 90 54 ca ab b8 bf
       0.1298019082488256 -0.0963713127568344
000290 17 55 0d f6 06 7f d1 3f 3e 41 ab 17 96 f8 c6 bf
       0.2733781245090809 -0.179461251790153
0002a0 0c 7f 38 aa ed 70 ba bf 76 d9 5e 82 c8 bf da bf
       -0.10328565030840425 -0.4179555199765653
0002b0 48 a6 1e 74 c3 a4 cc bf 3c 8d 46 d7 bc 6d cc 3f
       -0.2237781826964229 0.2220989276075701
0002c0 b7 df 0e 7c 52 ae d3 bf c9 75 8c c5 91 7f ba bf
       -0.30751478304909646 -0.10350905487981445
0002d0 3b 2a 46 a6 d4 e6 c3 3f d6 45 96 3a 32 17 dc 3f
       0.15548189276553778 0.43891578408610366
0002e0 24 8c 02 a4 fe 4c c2 3f d8 fe c1 43 b1 76 a8 3f
       0.14297469147013075 0.04778055145379562
0002f0 91 16 7b e8 4d c0 ab bf 3f f5 77 8e af 18 b5 bf
       -0.05420154059315253 -0.08240792492138825
000300 1c a7 e5 48 c7 8d bd 3f 22 09 96 51 5c c4 c6 3f
       0.11544461755479712 0.17786745055861625
000310 11 88 94 be b6 75 db 3f a9 ac 29 ca 07 59 90 bf
       0.42905968295429014 -0.01596462413219216
000320 bd c6 65 96 aa 71 da 3f 63 35 ab ae 52 85 84 bf
       0.41318764388334356 -0.010019918399303667
000330 8a db f2 dd 2f f7 b6 3f bd a6 0c fe 18 81 d3 bf
       0.08970927399319187 -0.30475449380410763
000340 11 13 88 76 eb 8a cb bf 70 f0 56 0c 72 cc d4 3f
       -0.21517699515984437 0.3249783630851715
000350 81 43 a0 8b 7f f6 ce 3f 60 c9 4e 7e 3e 0d 82 3f
       0.24189752881695983 0.008814323644263211
000360 bf fa ac f7 45 7c d6 3f ba 3c d3 67 99 bb d8 bf
       0.3513350409229296 -0.38645014895605423
000370 fe 4b e1 79 9c 7f b6 3f 25 3c ff 63 d3 b8 c5 bf
       0.08788469291293663 -0.1697029340998323
000380 43 8a b0 ef 1d 9c ca 3f 8e 71 bb 18 f6 4b ae 3f
       0.20788931087106918 0.059173288840358315
000390 86 9f 53 2c da e8 de 3f dc 27 af 22 2f 04 dc bf
       0.48296217278265663 -0.43775537860039804
0003a0 bc de 5c be ca 87 cf 3f 3e 06 50 3c c5 80 df bf
       0.2463315419679385 -0.4922345246305645
0003b0 3f df 4d 84 5b 0b cc bf f2 6b 8f 63 cf 91 d4 3f
       -0.2190966030136625 0.3213995430248239
0003c0 e7 6c 00 06 09 7b db 3f e0 c7 83 a3 98 9d d8 bf
       0.42938447557544496 -0.3846189114402687
0003d0 16 f0 2a 29 8d ea d0 3f b8 95 bb 90 0c a5 c5 3f
       0.2643158819225858 0.16909939829853982
0003e0 47 cd 76 d6 5e b3 d9 3f 30 de 34 97 4f 69 78 bf
       0.4015729040504152 -0.0059598073015006275
0003f0 da bf be 8f 3c af be bf f8 cc 52 e6 46 87 d2 3f
       -0.11986139783289165 0.2895066498997063
000400 fc 00 ee c7 e1 c7 cd 3f 13 eb cb 58 55 f8 c0 bf
       0.23266241323654657 -0.13257853351373025
000410 1a 96 69 9b 3c 81 dd 3f c1 bb e2 cf 65 bd bd bf
       0.461012985010116 -0.11617122960409089
000420 12 b6 40 29 e4 e9 c9 3f 0f 84 d6 c5 76 ed c9 bf
       0.20245029463096437 -0.20255932483726766
000430 4b 6c 13 30 a4 68 99 3f 82 07 5d 6f 91 89 c5 3f
       0.024813237604444798 0.16826074540773212
000440 67 18 66 71 35 72 ca bf b9 c8 5b 84 a4 16 d1 3f
       -0.20661037480403197 0.267006997352961
000450 b9 db 99 5c 5b 0f d2 bf d8 01 c2 af 4b cd d4 3f
       -0.2821873096758583 0.32503025211192726
000460 18 4b bc 4f f8 b3 bb bf b4 82 29 40 1f 80 b8 bf
       -0.10821487375896444 -0.09570498768290286
000470 32 96 a0 b2 8c 60 c8 3f c2 b0 71 79 10 af b2 3f
       0.19044645998035176 0.07298377003616266
000480 d2 b8 b5 c7 93 59 d3 3f a7 ba 90 e5 85 98 d1 3f
       0.3023423624316709 0.27493426722041153
000490 2a 9f 1e db a9 02 d3 3f 08 7b 09 fa 99 cb d5 3f
       0.2970375671234132 0.3405518476264864
0004a0 ec 36 35 87 99 8a d5 bf f2 77 bb d4 70 f9 cb bf
       -0.3365844555272435 -0.21854982745475088
0004b0 cc 8f 52 f4 07 80 7d bf 7a 1b 40 93 3f 7e ab 3f
       -0.007202178069892495 0.05369757339945287
0004c0 f4 e6 f0 75 78 ae b8 bf 59 5e bb 68 44 b1 d6 bf
       -0.0964122093145326 -0.35456953265881946
0004d0 85 4b 26 ec e7 6e da 3f 17 90 a3 8b d4 eb c0 bf
       0.41301916181071646 -0.1321969682531978
0004e0 8e 94 d6 da d3 7e 8b 3f 94 13 0b 38 b2 f2 cf bf
       0.01342549811927032 -0.24959399925697012
0004f0 2f bd 40 6b da c0 cd bf bd ee b7 81 e5 42 c3 bf
       -0.23244791256863936 -0.1504790194884346
000500 e5 0e 80 46 43 9a d2 3f 6e bb a2 65 3f a8 c0 bf
       0.290665453765753 -0.13013451063803977
000510 c4 6d c9 a2 8b b3 d4 bf 1f 6d fe 94 5b a9 c3 3f
       -0.3234585847582958 0.1536058881291433
000520 55 b0 32 5a b6 89 af bf 1a 6c 02 23 c3 91 b9 bf
       -0.06159753657388537 -0.09988040547106927
000530 85 80 63 79 52 87 be bf c0 0d 35 b1 b6 12 bb bf
       -0.11925235236731353 -0.10575429750775012
000540 64 ae 5e 6e a9 c7 ae 3f 27 8f 43 30 38 1f db bf
       0.0601170489529437 -0.42378048623344217
000550 1c 3c a7 cd cb 97 df 3f 2e 22 1b ef ed 7c c4 3f
       0.4936398990948321 0.16006254363152678
000560 0a bd 91 c3 a5 40 d2 3f 01 15 17 4d fc 43 c1 bf
       0.28519577120364714 -0.13488725437324692
000570 88 ed 19 09 81 18 d9 3f 13 0d ea f4 75 82 d4 bf
       0.39212060822293227 -0.3204626933804359
000580 f6 75 0a 4f 80 c9 bd 3f ae c8 ed 5c aa 9b 98 bf
       0.11635591439922863 -0.024031316682745434
000590 cc 92 c8 4b 16 bc 80 3f 6f 27 6f 84 91 43 d2 3f
       0.008171247661331725 0.2853740495016756
0005a0 e1 97 bc e5 9d 51 d8 bf 4c 3a b5 f3 29 4b c2 3f
       -0.3799814933321369 0.1429188194255907
0005b0 1f 74 41 d8 f6 f7 d9 3f 68 39 62 bb 4a 0c c2 3f
       0.4057595359680039 0.14100011968225634
0005c0 9f 1c 46 64 05 c6 d5 3f 83 d9 17 d6 d6 13 c5 bf
       0.3402112464177182 -0.16466794446723662
0005d0 1a 0d 65 53 84 19 cf bf 28 da 4d 95 d7 11 ca 3f
       -0.24296621391304357 0.2036694983505225
0005e0 d6 26 cc 15 1c 88 b7 3f 42 ae 79 9a 78 1a bf 3f
       0.09192061931767212 0.12149766703958512
0005f0 2e 3d 68 58 bf c9 d1 3f f1 10 1f 9e 9b fa be 3f
       0.2779386866904642 0.1210114728010614

conv1.lin_dst.weight f8 [64, 3]
000000 8e 6e c0 42 20 d7 d8 bf 0d 7e da 4a 68 c5 a3 3f
       -0.3881302501556342 0.03861547387827722
000010 ab b6 0f 09 9b 0c b8 3f 4f 4e 13 2f 55 47 e0 3f
       0.09394234629845737 0.5087076110307381
000020 c9 1e f5 8e 4c 3b d7 bf 04 21 36 17 58 99 b2 bf
       -0.3629943271703096 -0.07265234533963755
000030 6d 01 e0 e3 c3 06 cd bf 02 89 dd ef 4d 44 b3 3f
       -0.22676895739278838 0.07526099306190662
000040 93 fb ca a7 e1 15 cf 3f 5c 5e 3e 84 60 28 d4 3f
       0.2428552693654323 0.3149644175950692
000050 44 90 4d 7b 10 5a c8 bf ba 2e 10 35 ac ed bf bf
       -0.1902485467973084 -0.1247203473614559
000060 90 1a 90 99 78 b0 d7 3f 29 e9 2a fc d0 63 cc 3f
       0.3701459407460925 0.22179615319130022
000070 bc df f4 66 53 f3 b1 3f 81 39 7d a5 df 8c c4 bf
       0.07011910689914108 -0.1605491216709645
000080 7a d1 71 b8 42 fc cd 3f fe bc d7 59 11 cf ab bf
       0.23426088338932144 -0.05431417676651938
000090 2b 70 67 53 ff b8 ba 3f f8 c8 66 7d 57 aa cb bf
       0.1043853357909376 -0.21613591788406672
0000a0 9a 57 30 f3 a1 72 b8 bf 5c 85 2b d0 38 29 36 bf
       -0.09549915492274721 -0.000338150377656351
0000b0 f7 f3 31 33 3f 53 d2 3f 5c 3a 3b 16 e1 c0 b2 3f
       0.2863309860184126 0.07325560372121614
0000c0 98 00 84 b6 06 4d a3 bf f7 90 d1 13 5d 67 d6 3f
       -0.037697038440456854 0.350058812479133
0000d0 36 ec 85 d2 94 90 d5 bf 7b 10 8f bb 83 88 c2 3f
       -0.33694954451465564 0.14479109438082446
0000e0 9f fc f8 dc 9b 57 d1 bf 88 e6 f6 27 89 31 67 bf
       -0.27097221927028586 -0.0028312376814170793
0000f0 be 1c e6 cd 63 51 b3 bf f7 d3 ed af f4 77 c5 3f
       -0.0754606607134631 0.16772326078685726
000100 95 9e a9 54 63 44 d6 3f ba ae 40 5c ea 9f d0 3f
       0.3479240729124993 0.2597604657082503
000110 dc 75 40 74 54 cb d6 3f e0 33 17 80 43 d4 a9 3f
       0.3561602721473187 0.05044756830793751
000120 a8 37 04 58 49 9b bb bf 48 3f c8 79 2a 5c d4 3f
       -0.10783823393668845 0.31812536137384884
000130 48 60 45 f6 7e 54 cf bf 42 3e 8a 8f ff 8c b3 bf
       -0.24476611161185446 -0.07637021307368122
000140 40 8e d3 8b 93 0c d8 3f 0e bf ec 9d c9 37 bf bf
       0.3757675996296008 -0.12194500070176792
000150 0c 32 d4 a2 bb d1 9b 3f 0e 6d 0d cb 93 d8 a5 3f
       0.027167255223547612 0.04266797879855676
000160 54 39 fa 82 0b d3 ca bf 62 4e 02 dd 2a 88 c2 bf
       -0.2095655812776821 -0.14478050033050055
000170 ea d6 44 75 4f 98 dc 3f c7 14 d0 bd d3 53 d8 3f
       0.4467962880329269 0.3801164010659019
000180 3f 8a e6 95 65 f6 ab 3f da a2 85 66 fa 2c d9 3f
       0.054614233539969075 0.39337024700084344
000190 ac f9 a7 c8 a0 b6 a5 3f 24 69 b3 63 8c 01 d4 bf
       0.04240896653572021 -0.31259450661095145
0001a0 1f 09 a3 11 3b 44 db 3f 20 1f 66 4a 20 92 c4 bf
       0.4260394737467709 -0.16070941574820896
0001b0 de 29 55 ed 5f 64 cc bf 42 8f a6 1d a0 f5 d8 3f
       -0.221813193211644 0.3899917878682012
0001c0 1c f2 bb 51 a5 76 d7 3f bf 66 e4 0a 97 7e c7 3f
       0.3666165636239229 0.18355072051854468
0001d0 9f 0d fa 28 fd 4b d4 3f 5f c5 c7 30 51 cd d7 3f
       0.31713799478185395 0.3719065643664034
0001e0 77 0e 70 11 38 15 c9 3f 1e 81 0b 5a 23 24 c7 3f
       0.19596005298091132 0.18079034706807645
0001f0 9e 85 61 d1 35 a5 bd 3f f0 42 62 45 9c da 7f bf
       0.11580215799178581 -0.0077768425309307915
000200 75 62 2d b8 61 01 de bf 74 aa 7f 7d 73 22 c5 3f
       -0.4688343332868848 0.16511386516443205
000210 a6 12 cd f3 22 29 a0 bf 78 cd 42 b3 9b 83 ae 3f
       -0.03156384683692197 0.05959784091228476
000220 4c 3b fe 02 5c 24 d1 bf fe 09 a7 f7 b0 6a da bf
       -0.26784420292181177 -0.41276191887678226
000230 db ff 47 a0 4b d3 df 3f 0f ad 51 84 e4 5e bc bf
       0.497271448635727 -0.11082294683881265
000240 cc ef 79 89 c3 f3 c6 bf 40 a1 ed bd c6 fc ca bf
       -0.17931408131323534 -0.2108391215690606
000250 be 6b 25 64 94 ff cf 3f 01 94 45 27 d0 5e c3 bf
       0.2499871720309254 -0.15133096616332867
000260 44 0a ee 7d c2 d8 ad 3f 65 bc 36 18 3f 58 97 bf
       0.058294370529456546 -0.02279757104195958
000270 ad 9a 84 52 eb af af bf b5 13 07 4f ba a6 9c 3f
       -0.06188903219508766 0.027979765962090137
000280 72 8c 71 53 59 9d c0 3f 4f 2d 90 54 ca ab b8 bf
       0.1298019082488256 -0.0963713127568344
000290 17 55 0d f6 06 7f d1 3f 3e 41 ab 17 96 f8 c6 bf
       0.2733781245090809 -0.179461251790153
0002a0 0c 7f 38 aa ed 70 ba bf 76 d9 5e 82 c8 bf da bf
       -0.10328565030840425 -0.4179555199765653
0002b0 48 a6 1e 74 c3 a4 cc bf 3c 8d 46 d7 bc 6d cc 3f
       -0.2237781826964229 0.2220989276075701
0002c0 b7 df 0e 7c 52 ae d3 bf c9 75 8c c5 91 7f ba bf
       -0.30751478304909646 -0.10350905487981445
0002d0 3b 2a 46 a6 d4 e6 c3 3f d6 45 96 3a 32 17 dc 3f
       0.15548189276553778 0.43891578408610366
0002e0 24 8c 02 a4 fe 4c c2 3f d8 fe c1 43 b1 76 a8 3f
       0.14297469147013075 0.04778055145379562
0002f0 91 16 7b e8 4d c0 ab bf 3f f5 77 8e af 18 b5 bf
       -0.05420154059315253 -0.08240792492138825
000300 1c a7 e5 48 c7 8d bd 3f 22 09 96 51 5c c4 c6 3f
       0.11544461755479712 0.17786745055861625
000310 11 88 94 be b6 75 db 3f a9 ac 29 ca 07 59 90 bf
       0.42905968295429014 -0.01596462413219216
000320 bd c6 65 96 aa 71 da 3f 63 35 ab ae 52 85 84 bf
       0.41318764388334356 -0.010019918399303667
000330 8a db f2 dd 2f f7 b6 3f bd a6 0c fe 18 81 d3 bf
       0.08970927399319187 -0.30475449380410763
000340 11 13 88 76 eb 8a cb bf 70 f0 56 0c 72 cc d4 3f
       -0.21517699515984437 0.3249783630851715
000350 81 43 a0 8b 7f f6 ce 3f 60 c9 4e 7e 3e 0d 82 3f
       0.24189752881695983 0.008814323644263211
000360 bf fa ac f7 45 7c d6 3f ba 3c d3 67 99 bb d8 bf
       0.3513350409229296 -0.38645014895605423
000370 fe 4b e1 79 9c 7f b6 3f 25 3c ff 63 d3 b8 c5 bf
       0.08788469291293663 -0.1697029340998323
000380 43 8a b0 ef 1d 9c ca 3f 8e 71 bb 18 f6 4b ae 3f
       0.20788931087106918 0.059173288840358315
000390 86 9f 53 2c da e8 de 3f dc 27 af 22 2f 04 dc bf
       0.48296217278265663 -0.43775537860039804
0003a0 bc de 5c be ca 87 cf 3f 3e 06 50 3c c5 80 df bf
       0.2463315419679385 -0.4922345246305645
0003b0 3f df 4d 84 5b 0b cc bf f2 6b 8f 63 cf 91 d4 3f
       -0.2190966030136625 0.3213995430248239
0003c0 e7 6c 00 06 09 7b db 3f e0 c7 83 a3 98 9d d8 bf
       0.42938447557544496 -0.3846189114402687
0003d0 16 f0 2a 29 8d ea d0 3f b8 95 bb 90 0c a5 c5 3f
       0.2643158819225858 0.16909939829853982
0003e0 47 cd 76 d6 5e b3 d9 3f 30 de 34 97 4f 69 78 bf
       0.4015729040504152 -0.0059598073015006275
0003f0 da bf be 8f 3c af be bf f8 cc 52 e6 46 87 d2 3f
       -0.11986139783289165 0.2895066498997063
000400 fc 00 ee c7 e1 c7 cd 3f 13 eb cb 58 55 f8 c0 bf
       0.23266241323654657 -0.13257853351373025
000410 1a 96 69 9b 3c 81 dd 3f c1 bb e2 cf 65 bd bd bf
       0.461012985010116 -0.11617122960409089
000420 12 b6 40 29 e4 e9 c9 3f 0f 84 d6 c5 76 ed c9 bf
       0.20245029463096437 -0.20255932483726766
000430 4b 6c 13 30 a4 68 99 3f 82 07 5d 6f 91 89 c5 3f
       0.024813237604444798 0.16826074540773212
000440 67 18 66 71 35 72 ca bf b9 c8 5b 84 a4 16 d1 3f
       -0.20661037480403197 0.267006997352961
000450 b9 db 99 5c 5b 0f d2 bf d8 01 c2 af 4b cd d4 3f
       -0.2821873096758583 0.32503025211192726
000460 18 4b bc 4f f8 b3 bb bf b4 82 29 40 1f 80 b8 bf
       -0.10821487375896444 -0.09570498768290286
000470 32 96 a0 b2 8c 60 c8 3f c2 b0 71 79 10 af b2 3f
       0.19044645998035176 0.07298377003616266
000480 d2 b8 b5 c7 93 59 d3 3f a7 ba 90 e5 85 98 d1 3f
       0.3023423624316709 0.27493426722041153
000490 2a 9f 1e db a9 02 d3 3f 08 7b 09 fa 99 cb d5 3f
       0.2970375671234132 0.3405518476264864
0004a0 ec 36 35 87 99 8a d5 bf f2 77 bb d4 70 f9 cb bf
       -0.3365844555272435 -0.21854982745475088
0004b0 cc 8f 52 f4 07 80 7d bf 7a 1b 40 93 3f 7e ab 3f
       -0.007202178069892495 0.05369757339945287
0004c0 f4 e6 f0 75 78 ae b8 bf 59 5e bb 68 44 b1 d6 bf
       -0.0964122093145326 -0.35456953265881946
0004d0 85 4b 26 ec e7 6e da 3f 17 90 a3 8b d4 eb c0 bf
       0.41301916181071646 -0.1321969682531978
0004e0 8e 94 d6 da d3 7e 8b 3f 94 13 0b 38 b2 f2 cf bf
       0.01342549811927032 -0.24959399925697012
0004f0 2f bd 40 6b da c0 cd bf bd ee b7 81 e5 42 c3 bf
       -0.23244791256863936 -0.1504790194884346
000500 e5 0e 80 46 43 9a d2 3f 6e bb a2 65 3f a8 c0 bf
       0.290665453765753 -0.13013451063803977
000510 c4 6d c9 a2 8b b3 d4 bf 1f 6d fe 94 5b a9 c3 3f
       -0.3234585847582958 0.1536058881291433
000520 55 b0 32 5a b6 89 af bf 1a 6c 02 23 c3 91 b9 bf
       -0.06159753657388537 -0.09988040547106927
000530 85 80 63 79 52 87 be bf c0 0d 35 b1 b6 12 bb bf
       -0.11925235236731353 -0.10575429750775012
000540 64 ae 5e 6e a9 c7 ae 3f 27 8f 43 30 38 1f db bf
       0.0601170489529437 -0.42378048623344217
000550 1c 3c a7 cd cb 97 df 3f 2e 22 1b ef ed 7c c4 3f
       0.4936398990948321 0.16006254363152678
000560 0a bd 91 c3 a5 40 d2 3f 01 15 17 4d fc 43 c1 bf
       0.28519577120364714 -0.13488725437324692
000570 88 ed 19 09 81 18 d9 3f 13 0d ea f4 75 82 d4 bf
       0.39212060822293227 -0.3204626933804359
000580 f6 75 0a 4f 80 c9 bd 3f ae c8 ed 5c aa 9b 98 bf
       0.11635591439922863 -0.024031316682745434
000590 cc 92 c8 4b 16 bc 80 3f 6f 27 6f 84 91 43 d2 3f
       0.008171247661331725 0.2853740495016756
0005a0 e1 97 bc e5 9d 51 d8 bf 4c 3a b5 f3 29 4b c2 3f
       -0.3799814933321369 0.1429188194255907
0005b0 1f 74 41 d8 f6 f7 d9 3f 68 39 62 bb 4a 0c c2 3f
       0.4057595359680039 0.14100011968225634
0005c0 9f 1c 46 64 05 c6 d5 3f 83 d9 17 d6 d6 13 c5 bf
       0.3402112464177182 -0.16466794446723662
0005d0 1a 0d 65 53 84 19 cf bf 28 da 4d 95 d7 11 ca 3f
       -0.24296621391304357 0.2036694983505225
0005e0 d6 26 cc 15 1c 88 b7 3f 42 ae 79 9a 78 1a bf 3f
       0.09192061931767212 0.12149766703958512
0005f0 2e 3d 68 58 bf c9 d1 3f f1 10 1f 9e 9b fa be 3f
       0.2779386866904642 0.1210114728010614

conv2.att_src f8 [1, 1, 64]
000000 0d a7 ea ef 31 aa d9 bf 90 3e 84 f0 13 32 cf 3f
       -0.4010128825126323 0.24371575588201155
000010 c3 92 38 b6 50 86 c1 3f ae 1c fc 64 1b 5f d0 bf
       0.13691147706517456 -0.2558048711948214
000020 8a 04 13 9a 85 93 d4 bf d7 43 bd 5f 39 a8 d2 bf
       -0.3215040211326331 -0.29151758527319543
000030 4c 40 cb 01 b0 d7 d8 3f 01 78 fa aa 32 16 c9 bf
       0.38816452193441786 -0.1959899268012464
000040 3e 59 81 45 82 4f df 3f e8 af 5c dd 6b 5f 72 bf
       0.4892278364908583 -0.004485532137362448
000050 81 b9 d8 66 57 d9 cd 3f dc 09 ac 93 ea 0e c9 3f
       0.23319523355298702 0.19576770983265035
000060 0d f6 46 e1 db d7 9e 3f 00 c2 55 22 f1 00 30 3f
       0.030120311379269227 0.0002441967684126134
000070 8b 5b ac 23 53 56 d8 3f 5d 43 a7 3a a8 6e b8 3f
       0.3802688454028888 0.09543849403349954
000080 f1 46 f9 b6 20 1b b0 bf 0e 61 1e fe 13 67 bd 3f
       -0.06291393725521367 0.11485409692830137
000090 6b 65 19 dc b3 29 c1 bf 86 d4 bb 53 c7 56 d5 bf
       -0.13408516165763315 -0.3334215467178371
0000a0 d8 d3 66 7e 43 a8 ba bf 9c 9f 7d 38 c6 2c 97 3f
       -0.10412999950388213 0.022631737897796364
0000b0 46 55 db e9 e9 50 ba 3f 5b 87 3d ac 21 6f c9 3f
       0.10279714545625493 0.1987039652840917
0000c0 61 61 34 49 04 53 d2 3f b3 90 db c1 79 59 c0 3f
       0.2863169398201731 0.12773057904917592
0000d0 17 51 75 41 09 35 c6 3f f6 15 20 4d 5a 91 c3 3f
       0.17349353500561257 0.1528733135784674
0000e0 71 76 34 a9 6b 17 dd 3f 45 7c 1d 11 80 e1 cb 3f
       0.45455447696608703 0.21781922183706307
0000f0 b0 6d 25 54 74 87 ac 3f 9d cc d0 3e e9 0f d0 3f
       0.05572093512702325 0.2509711373742876
000100 86 bc 4a 4b 58 7f b0 3f 1d b9 d2 8d d6 6e bb 3f
       0.06444312894994839 0.10716000521162923
000110 a2 af b9 dc a8 21 c4 bf 15 2a 0f f7 90 a4 c2 3f
       -0.15727721002201372 0.14564716399611713
000120 45 e3 9b 4c 19 2e a7 3f 7a 8d 4a 9c 85 f8 db bf
       0.0452735811249512 -0.4370435739785631
000130 5e 58 33 73 ea f3 cb 3f b0 97 be 0e e2 5a ca 3f
       0.21838122010257427 0.2058985301966323
000140 33 38 d8 c0 49 af c8 bf 15 20 6c df f0 c3 a6 3f
       -0.1928493682502804 0.04446366050075327
000150 09 bf 61 a0 f0 ce ce 3f 0c e2 b5 e2 0e 9f bd bf
       0.24069030600684752 -0.11570828471111144
000160 ad e5 fb 9b 2b c8 c7 3f 06 81 4d 4f 0c 22 c0 3f
       0.1857962142601485 0.12603906509594526
000170 00 be 48 b1 cf b1 c8 bf 74 80 e9 75 32 97 b7 bf
       -0.19292637020542713 -0.0921508348342302
000180 17 76 89 d1 80 02 cf bf 79 3a b5 56 27 19 d6 bf
       -0.24226389151856217 -0.3452852579838815
000190 72 dc 93 3e 00 ef d4 3f 98 92 02 79 a9 4c da 3f
       0.3270874606236652 0.4109290773142589
0001a0 f0 4c e1 2a ee 76 a2 bf 04 6e c7 07 1a 38 91 bf
       -0.03606361649931411 -0.01681557342986474
0001b0 e3 4f bf 41 21 87 cd bf 52 57 1e 3a 36 de c1 3f
       -0.23068633756940846 0.13959386670893054
0001c0 84 81 bc b5 58 b1 de 3f 12 cc 3f e7 ee 8c c9 3f
       0.4795743727463775 0.1996134404322168
0001d0 a8 e3 a1 7f 1a 26 c9 3f 09 20 70 f5 7e b3 ce 3f
       0.1964753268437367 0.23985278114582823
0001e0 e0 e0 51 b9 bf b6 d1 3f 8a 43 c8 9a 27 2e ae bf
       0.27677910897865665 -0.058945882458039625
0001f0 84 47 f7 25 65 85 d3 3f 2c 97 d0 64 a5 22 a0 bf
       0.3050167914162716 -0.03151432853364464

conv2.att_dst f8 [1, 1, 64]
000000 24 f2 54 f1 ae 26 a5 bf 1d d8 a5 b7 9d ad b5 bf
       -0.041310755691004425 -0.08468042119588444
000010 23 1d 03 63 8c 1e bf bf 8d ec 88 e6 88 ee b7 3f
       -0.12155988137520927 0.09348350170414417
000020 92 16 80 34 69 84 d6 bf f5 c9 d4 0a 50 cd d3 bf
       -0.3518317234705616 -0.30940629060492536
000030 50 77 ba 10 e7 3b ce 3f 67 b5 ca d1 ed a5 cf bf
       0.23620308224502162 -0.24725125068418238
000040 74 f4 dd 6f 23 f6 b2 bf ac 03 d2 f0 13 5f c8 bf
       -0.07406827431801039 -0.19040154703909928
000050 23 5b 80 71 ab 85 d9 3f e5 12 3c 28 05 34 cc bf
       0.3987835510646837 -0.22033752884467286
000060 f3 4a 38 4a 50 25 c6 bf f1 77 83 d0 43 ad cf bf
       -0.17301372169512028 -0.2474751251347125
000070 6b 74 2a e9 3a d8 b2 bf f3 1c 1b 98 d0 48 c8 3f
       -0.07361190979504932 0.18972213198706064
000080 0a b5 23 6b de ba b0 3f 4e 90 2f b3 18 4e c0 3f
       0.0653513919421195 0.1273833155565875
000090 43 1a 00 f7 fb b8 8f bf fd 58 2e 22 07 72 c6 3f
       -0.015489548182825113 0.17535485428806644
0000a0 ae e8 2a ff f9 69 d0 3f 19 64 ce d9 79 d2 d4 bf
       0.2564682952758045 -0.3253464343084161
0000b0 fa aa c0 ca 2d 43 d8 bf c2 ba 4a 6d f3 75 d0 bf
       -0.3791002731328913 -0.25719915078199673
0000c0 62 f5 0a 80 9f a6 c7 3f ae dc 36 8b e8 85 ca bf
       0.1847724318703668 -0.20721155927251317
0000d0 2d ef 06 59 08 67 bd bf ff 74 2f 04 96 64 c9 3f
       -0.11485340283882968 0.19838214115490158
0000e0 ec f1 cb 74 24 56 dc 3f c3 78 a6 e7 43 de a8 bf
       0.4427577152817139 -0.048570749309179394
0000f0 02 31 a4 bd 17 0a ca 3f 6c 88 7d c5 c8 cb be bf
       0.20343300590355545 -0.12029700109045088
000100 65 5e 0b 4a 70 3c d7 bf b6 ad 11 c9 e6 f4 bb 3f
       -0.3630638812150891 0.10920565041458627
000110 c5 d2 f0 a4 2a 70 d6 bf 97 5f 42 7b f0 09 a8 bf
       -0.35059610469333463 -0.04695083145742201
000120 79 6d 88 55 09 df b4 bf e8 28 ae 8c db 5d a4 3f
       -0.0815282663174254 0.039778576777352914
000130 68 ef cf 39 81 72 cb 3f 2d d2 07 ea 2c 6d db bf
       0.21443190882552732 -0.42853854040666556
000140 7f 14 68 63 d6 30 cf bf f7 91 1f d5 21 a3 c1 3f
       -0.24367790082775184 0.1377908983842102
000150 4d a9 c8 2b e4 9a a8 bf bb b4 20 47 f7 11 d3 bf
       -0.04805672678442594 -0.29797155328817454
000160 0d fe b2 cd b4 00 d5 3f 94 ee 06 10 b8 d8 ba 3f
       0.3281681069165366 0.10486936942373354
000170 f5 f1 9b ea b0 7e cd 3f a1 72 ab 79 58 69 dd bf
       0.23042880492711473 -0.4595547855549658
000180 81 1f 41 57 31 25 cb 3f 16 f1 d4 5a 46 fa b8 bf
       0.21207253227680314 -0.09756889073918659
000190 a9 26 6f 16 ac c3 da 3f c7 04 bc 01 b6 1f 94 bf
       0.41819288435781715 -0.01965221772752981
0001a0 fd 43 90 23 c5 68 c9 bf f5 b8 be d6 16 87 a7 3f
       -0.19850982891560412 0.0459525239124207
0001b0 9d ba 80 4a 76 db d2 bf 3e b0 58 b3 7b ef 8e bf
       -0.2946449019972677 -0.01510521546432397
0001c0 d0 8c ad 45 e9 3d dd 3f 41 66 92 48 02 ac d2 3f
       0.4569037609528097 0.2917485912999816
0001d0 23 f0 49 a4 4e b5 cc bf 00 30 44 54 b6 ee d5 bf
       -0.22428305646815358 -0.34269483784805743
0001e0 cf 46 59 2b 32 bc c4 3f 37 30 d0 bc 42 88 81 3f
       0.16199328533780608 0.008560677897570297
0001f0 38 5f 26 4a 4e e5 c5 3f 74 f9 ef bf a7 46 8b 3f
       0.1710603582439434 0.013318357987370112

conv2.bias f8 [64]
000000 43 b3 e8 b6 6a fd c2 bf 3c 31 76 2e da ef cb 3f
       -0.14835866862395095 0.21825721043240687
000010 7c a1 49 4f 5e ca b5 bf 44 b3 e8 b6 6a fd c2 bf
       -0.08511914668782156 -0.14835866862395097
000020 72 4f 55 4e 3b d9 c4 3f 7e 57 b4 24 56 b3 cd 3f
       0.1628793842779675 0.23203541557512247
000030 84 6f ad 0c ff 2b ce 3f d0 41 2e 78 21 5b cf 3f
       0.23571766013162343 0.2449685894794258
000040 c7 5c be 49 67 59 cc 3f 70 d7 4d be c8 7c cd 3f
       0.2214783773494899 0.2303706101626477
000050 9a d5 66 61 12 a8 cb 3f e6 53 01 7e 59 5c cc 3f
       0.21606664424841143 0.22156828549000734
000060 7d a0 61 ad 7b 8c c2 bf b8 fb aa 59 49 fd ce 3f
       -0.14491220441709976 0.24210469129863355
000070 46 ef 4c 82 9b 23 c4 bf 69 da d9 73 d4 ed c2 bf
       -0.15733665335016606 -0.1478829923323304
000080 1f 36 17 3b 44 d9 cd 3f ff 69 80 8e 7d 9b c2 bf
       0.23319294820105171 -0.14537019212805544
000090 68 b1 72 4f 9c f4 ce 3f 43 b3 e8 b6 6a fd c2 bf
       0.24183992270753696 -0.14835866862395095
0000a0 2e fd c2 4b 57 a8 ce 3f be 62 1e b1 61 00 c3 bf
       0.23951235961247036 -0.14844914577840557
0000b0 a1 44 72 52 3b b0 cb 3f e9 40 11 53 40 12 cc 3f
       0.21631566549016149 0.21930698448205213
0000c0 7f e3 a4 d7 9e b3 cb 3f 28 b0 7a c9 03 a3 ca 3f
       0.2164190819692315 0.20809981668333077
0000d0 88 3c 20 ca 89 1b cc 3f d2 73 db 08 e8 b4 cc 3f
       0.21959040040426125 0.2242708247421477
0000e0 d4 ca 5c 8c 11 c4 cc 3f 36 fd f4 ad 87 66 cc 3f
       0.2247335372317908 0.22187896722787465
0000f0 bf d5 5c 97 12 bc ce 3f 73 bf 06 03 78 5c bc 3f
       0.24011452093843208 0.11078596185575211
000100 c0 7c b8 1c b3 29 a7 bf 94 f9 1d 9c e4 7a c3 bf
       -0.04524001813501277 -0.15218789694695245
000110 9a 77 cc bc a0 60 c1 bf 1a 5f 9d 69 6b 0e cc 3f
       -0.1357613489025738 0.21919005066842417
000120 86 68 17 97 c7 9e c1 bf c4 0f 39 a5 a8 bd b4 3f
       -0.13765807034980443 0.08101896318208818
000130 8e 7d 5f 2f 12 b5 cc 3f 1e 69 0d 94 f7 9a b7 3f
       0.22427584946761353 0.09220836033401666
000140 ca 20 04 82 3c f9 c2 bf d8 da 8f 33 9b 12 cd 3f
       -0.14823109005397433 0.2271303178565265
000150 d2 72 12 5d ac 9d ce 3f 5e 03 92 ad f9 b8 c2 bf
       0.2391868071034851 -0.14626999831309723
000160 49 b1 a0 29 6d 0e cf 3f 23 5d 45 77 7d 42 a5 3f
       0.2426277592907218 0.04152290421432727
000170 f1 37 37 c7 3d 0c c3 bf f3 fb 1b e1 df 78 cc 3f
       -0.14881107547120068 0.2224387978712624
000180 43 b3 e8 b6 6a fd c2 bf 5e b8 d5 4f f6 b7 be bf
       -0.14835866862395095 -0.11999453972905047
000190 26 64 06 28 33 a4 cc 3f ba 1c 37 14 c5 b8 ce 3f
       0.22376098112434412 0.24001372801851578
0001a0 9d 4d 22 f4 4c ff c2 bf ef 97 57 fa 72 fd c2 bf
       -0.14841615601163208 -0.14835965369928725
0001b0 b6 43 48 8d 02 92 c5 bf 56 ef 1e a5 7a 51 cd 3f
       -0.16851837061451896 0.22904904425183287
0001c0 d8 5f dd fb 21 93 ce 3f 14 ec 2c 5c a3 08 ce 3f
       0.23886513517459096 0.23463861466174818
0001d0 6d 0d aa eb 79 13 cc 3f 1c db d8 2f 85 80 9d 3f
       0.21934436804813676 0.028810578389506167
0001e0 af b9 8c 06 ed 15 ce 3f 7a 87 49 bc 6a fd c2 bf
       0.23504412479219414 -0.14835867112838824
0001f0 59 f2 6e c8 ee d3 cb 3f 7a a3 cb c4 8a 2c cc 3f
       0.21740517412935637 0.22010931595948674
