models/baseline_0.0001_100.pt (torch, 13703 bytes, 12 tensors)

conv1.att_src f8 [1, 1, 32]
00000000: 7acb fabc 261d c53f 8405 2ad1 51c7 b43f
00000010: 2041 78ae 659c c5bf e379 89e3 8deb d43f
00000020: 38db 2c90 e7e5 cf3f 8e28 8481 0dbc d53f
00000030: 03a7 8207 d462 db3f a11d aa78 9f94 c7bf
00000040: 7904 658f 98db d73f ecc9 7c25 8c95 ac3f
00000050: 42bb eb50 463c a83f 7082 16da d1c2 c7bf
00000060: 11ca 8a07 e41e c13f 1bd9 1ece 82ee aa3f
00000070: 00ae 000e 625c c5bf 7bfe 42e8 d05b 78bf
00000080: 96c0 13ac 7701 d33f 690e 07fe afe1 c23f
00000090: 7551 f521 05c0 af3f 044d 71be 9e63 c83f
000000a0: 1228 fa44 58a6 d2bf 9818 a600 d62d da3f
000000b0: 54ca d70f b7ff d93f b657 56ae 63a1 94bf
000000c0: d744 934c 0ebb bebf 5622 d80f d25e d93f
000000d0: d161 a6ad 82d7 cdbf 9564 30b9 c127 bf3f
000000e0: 59f2 d45a 123e c9bf 29e8 c284 680d d8bf
000000f0: 2421 e1d6 37bc b7bf fadc 3188 0ef4 ccbf
0.16495212771914308 0.0811663756994872 -0.1688353635695501 0.32687709064876297 0.24920362987332978 0.33960282943792997 0.4279069970458382 -0.18422311202833178
0.372778072389401 0.05582845647440479 0.04733485925486615 -0.18563292645287133 0.1337552105738529 0.052600944195932274 -0.16688180621837034 -0.0059469376030275535
0.29696456722650433 0.14751243499459868 0.062011871714875356 0.19054016398386164 -0.29140288101246015 0.4090476042114317 0.4062326101986049 -0.020146901622488854
-0.12004174584878356 0.3964123873452413 -0.23313935736656657 0.12170038958756131 -0.1972067779078255 -0.3758183762071235 -0.09271573062972444 -0.2261980214131894

conv1.att_dst f8 [1, 1, 32]
00000000: 419c 4d94 d342 b63f d06d 437b 3b94 c73f
00000010: 43e3 a35c e436 d83f 297d 098c 840f d4bf
00000020: 4a4b 0f0a 1702 c8bf 0e52 44c3 6011 d33f
00000030: c1ad 6b8e 0205 6abf b2b1 b948 ceb1 c2bf
00000040: 00dc dae3 01b9 b0bf bf2e c14e 4408 c8bf
00000050: f5f8 925d 7925 d93f fe4f 3e99 ee78 c5bf
00000060: eb04 f76d 6c75 c4bf 8b02 dc97 7f19 d1bf
00000070: f195 17e2 2cd1 c23f 22ee cf66 d23c cd3f
00000080: 5f9a 94c4 17a5 c5bf 3462 72ba 44f8 d23f
00000090: 75f9 5f86 930c 9d3f 0b1e 1726 ac97 b63f
000000a0: 7199 d15a 50bb b83f 6ed3 02f4 1095 ce3f
000000b0: d2e3 45bf 13fc c7bf 09e7 3307 8036 afbf
000000c0: ac1f 1b51 1103 b3bf b84a 8255 59b4 c9bf
000000d0: 380a f82f 7d47 c93f 70e7 28d7 5ffa d1bf
000000e0: 67df a367 b236 dbbf d394 6a7c 106f b93f
000000f0: e9ab 95ae a8db da3f 51d9 cb54 7d22 c43f
0.08695719118769409 0.1842111923095744 0.37835034415143215 -0.3134471290158723 -0.18756378165434234 0.2979356676962944 -0.0031762170723277088 -0.1460512023071608
-0.06532298863281483 -0.18775228352966697 0.3929122365770035 -0.16775305254543577 -0.15983348245030213 -0.26718129949589614 0.14700852431921832 0.2284186365139798
-0.16910073374420428 0.2964031048555029 0.02836828715953162 0.08825183801592844 0.09660818307165699 0.2389241401157522 -0.18738028373243637 -0.060962677840462894
-0.0742655585300997 -0.20081631350747897 0.19749417154533133 -0.28090663921067627 -0.42521343346697055 0.09935095822818889 0.4196569161346689 0.15730253830379096

conv1.bias f8 [32]
00000000: 0000 0000 0000 0000 0000 0000 0000 0000
00000010: 0000 0000 0000 0000 0000 0000 0000 0000
00000020: fd50 3fdf b698 833f 0859 001d 6bce 883f
00000030: 8a54 17eb 8581 613f 0083 d784 5b08 703f
00000040: 797b 60f6 eaf8 9a3f 9bf5 f5aa c78a ac3f
00000050: 3fd7 2975 1b90 51bf 0000 0000 0000 0000
00000060: e171 7a7f 4940 733f e4b8 4bd2 12a8 603f
00000070: 0000 0000 0000 0000 05b9 937f 9c5d 9d3f
00000080: 0000 0000 0000 0000 d851 f5b0 b136 7cbf
00000090: 0000 0000 0000 0000 0000 0000 0000 0000
000000a0: adb5 a2bd 40b9 973f 0000 0000 0000 0000
000000b0: 0000 0000 0000 0000 0000 0000 0000 0000
000000c0: 6afa 0664 2bc4 a63f 0000 0000 0000 0000
000000d0: 35b9 84f3 e2de 5ebf 07df cebd 5510 92bf
000000e0: a495 b47c 0896 813f 0000 0000 0000 0000
000000f0: 4264 9ea1 9da2 713f 0000 0000 0000 0000
0.0 0.0 0.0 0.0 0.009568623245208569 0.012112461874533867 0.002136956748226175 0.003914220329051643
0.026340171134616484 0.055746307009921746 -0.0010719555035882536 0.0 0.004699980832495205 0.0020332687002940653 0.0 0.028677411352810562
0.0 -0.006888097864550656 0.0 0.0 0.02316762120670084 0.0 0.0 0.0
0.04446540447269316 0.0 -0.001884194976877374 -0.017640437803236455 0.008586946778971712 0.0 0.004305473086696545 0.0

conv1.lin_src.weight f8 [32, 3]
00000000: 3b9d 6dd3 4a1f b6bf 3fde 095d 6222 bbbf
00000010: b006 1413 7d4d d2bf 36e7 3ac2 cbf8 d6bf
00000020: 70d5 910d 722e c93f b547 c28e 6680 d8bf
00000030: 6a9f bec9 9fdb cbbf e427 d263 4a0e d73f
00000040: 8df3 d6a3 9b27 c7bf 8080 2d7d e716 aabf
00000050: e5d4 7bda 4b34 d4bf 7d07 0ff1 f9ee c5bf
00000060: b50c a1f5 cb1c bf3f 642a 7652 d293 d93f
00000070: 93d5 a117 c31f 7cbf 56df f191 d6cd 963f
00000080: 55e5 6222 0a0e bcbf 931d 540f 8985 b53f
00000090: 3a2a beb9 4044 d23f 7972 3549 0d2d cf3f
000000a0: 200a f6fb aed4 8e3f 74a4 c0a9 7d70 d43f
000000b0: 9bd4 633a d9f0 cabf 3c55 259d f45f dabf
000000c0: 78c1 3c7e 28e7 aa3f 0961 12c3 f5b8 c9bf
000000d0: 7196 1627 e354 d83f 2e49 ae00 c350 d03f
000000e0: cb5b 1855 09a9 5f3f f5dc f1e2 5405 a5bf
000000f0: b8dc c371 0eee 55bf 7ef5 ea5d 57d0 d53f
00000100: c588 9588 eb54 bf3f 7f91 4e5e c6bd c8bf
00000110: 79ff 6934 bd23 d53f 944b c9a1 3742 c53f
00000120: a7c3 7356 f623 b83f 5a92 d8d3 10b2 a33f
00000130: c5d4 a48f 00f2 76bf 6d40 2fcf d4a1 d53f
00000140: 9b6b 8308 1595 d03f 18fa be9c 30b8 cc3f
00000150: e159 e5a0 32f1 cabf e98b 75cc 79bc c6bf
00000160: 8971 333f 6ba5 d93f 3067 8b3c 8370 c13f
00000170: b253 0193 d072 d03f c327 1adb 0dc3 c0bf
00000180: 56a5 1c3f f043 c8bf 3790 7491 cd29 dabf
00000190: bf27 0c36 badc d83f bb58 95cd de65 923f
000001a0: 53ab 12d2 ff07 9e3f b5b6 4e8e ff7d cd3f
000001b0: f6da aa68 413e d9bf 3c5c 9bf6 85e6 cb3f
000001c0: 8930 d291 4d23 a43f 6cb0 6f16 58fd a6bf
000001d0: 764b 34fd b1df b33f d60f ec01 c274 d33f
000001e0: d381 4b4d 7763 bb3f f07d 2539 c6d6 b2bf
000001f0: 8480 e820 d2e4 cb3f 66e2 18ac 27ae c5bf
00000200: 379e a2fd eb8e ca3f e7b1 9642 276b d53f
00000210: 73aa e979 e1d9 cbbf c21c 626d bafc cc3f
00000220: 2b15 de2a 67a8 dabf 4fad 7311 3c98 d7bf
00000230: c262 814f 1ae8 c9bf 89cb d8a6 c7d5 bfbf
00000240: 51e0 b85a be79 cb3f f8ef 9d89 e5a6 b33f
00000250: 918e eb57 7bbf ab3f ba77 8acd e5ce d3bf
00000260: 6f89 2692 9b8f d23f a65c 393e 6646 c83f
00000270: 5ccc 92d6 210a d23f 674c 1000 71da d93f
00000280: 895d 8ec3 4f36 d7bf 5fea ab1e 2091 b13f
00000290: 3bdd b90e 4b82 d5bf 2541 7356 7a42 d23f
000002a0: 54f7 bb51 e112 aa3f ed04 ae3e 5ef4 d2bf
000002b0: b79f 4a2d 02db d3bf b177 5bf2 d4f8 cabf
000002c0: 48ec 6ea6 47b2 cbbf 3264 9b29 f8ad cabf
000002d0: c96f 5fbf 640b b73f afcf 2cab cf2a c7bf
000002e0: 3eab cc7b b578 bf3f 9e3e 50e3 aaec cebf
000002f0: 2522 5f4e b892 d3bf 6e53 5edb e33e bf3f
-0.08641498243161021 -0.10599341174553788 -0.2859795271216212 -0.35893529861242557 0.19672990477162555 -0.38283695164966086 -0.21763989783107301 0.36024722812783083
-0.18089623928053947 -0.05095599558876618 -0.3156919129972507 -0.17135547895855643 0.12153315302662089 0.39964731266869635 -0.0068662281793100575 0.02226958528305486
-0.10958922709950987 0.08406883835060901 0.28541582240055485 0.24356237482688295 0.015054099144213018 0.31936589791673176 -0.2104751143557778 -0.41210666033051147
0.05254484692557332 -0.20095703148832225 0.3801811105462099 0.25492930475697306 0.0019323912750956903 -0.04105630178758616 -0.0013384953554671907 0.34084114238415697
0.12238952717374037 -0.19329146962003205 0.33030634039459233 0.16608329200479643 0.09429874048852459 0.03846790872583901 -0.005601885024863755 0.338002397850693
0.2590992530000961 0.22437102941144427 -0.2104857717155957 -0.17762682422025414 0.4007213704296864 0.1362461133601811 0.25700773578619895 -0.13095257948253733
-0.18957331735263477 -0.4088014526807941 0.3884721305663525 0.017966729448141133 0.02932738990481749 0.23040766190154263 -0.3944247743742574 0.21797251263953565
0.03933184056322243 -0.04490161203270379 0.0776320689367774 0.3040013331194563 0.10698648106654866 -0.07358969588448594 0.21792055708738556 -0.1693772878950483
0.2074866283849006 0.33466512205884985 -0.21758669331332534 0.22646265355090206 -0.4165285032871277 -0.3686666651180603 -0.20239571458912137 -0.12435577224168361
0.21465281896394342 0.07676539048946995 0.05419526527637431 -0.30950303146698455 0.2900151183368029 0.1896484187916247 0.28186841921269035 0.4039576054212319
-0.3626899156310733 0.06862068890397087 -0.3360774654206186 0.28530748789218513 0.0509252941392179 -0.2961650478465135 -0.3102422182369042 -0.2107187446007948
-0.2163781702673495 -0.20843412429420166 0.09001760170161711 -0.18099399431377836 0.12293562195251881 -0.24159751986779993 -0.3058300748203087 0.12205337625193888

conv1.lin_dst.weight f8 [32, 3]
00000000: 3b9d 6dd3 4a1f b6bf 3fde 095d 6222 bbbf
00000010: b006 1413 7d4d d2bf 36e7 3ac2 cbf8 d6bf
00000020: 70d5 910d 722e c93f b547 c28e 6680 d8bf
00000030: 6a9f bec9 9fdb cbbf e427 d263 4a0e d73f
00000040: 8df3 d6a3 9b27 c7bf 8080 2d7d e716 aabf
00000050: e5d4 7bda 4b34 d4bf 7d07 0ff1 f9ee c5bf
00000060: b50c a1f5 cb1c bf3f 642a 7652 d293 d93f
00000070: 93d5 a117 c31f 7cbf 56df f191 d6cd 963f
00000080: 55e5 6222 0a0e bcbf 931d 540f 8985 b53f
00000090: 3a2a beb9 4044 d23f 7972 3549 0d2d cf3f
000000a0: 200a f6fb aed4 8e3f 74a4 c0a9 7d70 d43f
000000b0: 9bd4 633a d9f0 cabf 3c55 259d f45f dabf
000000c0: 78c1 3c7e 28e7 aa3f 0961 12c3 f5b8 c9bf
000000d0: 7196 1627 e354 d83f 2e49 ae00 c350 d03f
000000e0: cb5b 1855 09a9 5f3f f5dc f1e2 5405 a5bf
000000f0: b8dc c371 0eee 55bf 7ef5 ea5d 57d0 d53f
00000100: c588 9588 eb54 bf3f 7f91 4e5e c6bd c8bf
00000110: 79ff 6934 bd23 d53f 944b c9a1 3742 c53f
00000120: a7c3 7356 f623 b83f 5a92 d8d3 10b2 a33f
00000130: c5d4 a48f 00f2 76bf 6d40 2fcf d4a1 d53f
00000140: 9b6b 8308 1595 d03f 18fa be9c 30b8 cc3f
00000150: e159 e5a0 32f1 cabf e98b 75cc 79bc c6bf
00000160: 8971 333f 6ba5 d93f 3067 8b3c 8370 c13f
00000170: b253 0193 d072 d03f c327 1adb 0dc3 c0bf
00000180: 56a5 1c3f f043 c8bf 3790 7491 cd29 dabf
00000190: bf27 0c36 badc d83f bb58 95cd de65 923f
000001a0: 53ab 12d2 ff07 9e3f b5b6 4e8e ff7d cd3f
000001b0: f6da aa68 413e d9bf 3c5c 9bf6 85e6 cb3f
000001c0: 8930 d291 4d23 a43f 6cb0 6f16 58fd a6bf
000001d0: 764b 34fd b1df b33f d60f ec01 c274 d33f
000001e0: d381 4b4d 7763 bb3f f07d 2539 c6d6 b2bf
000001f0: 8480 e820 d2e4 cb3f 66e2 18ac 27ae c5bf
00000200: 379e a2fd eb8e ca3f e7b1 9642 276b d53f
00000210: 73aa e979 e1d9 cbbf c21c 626d bafc cc3f
00000220: 2b15 de2a 67a8 dabf 4fad 7311 3c98 d7bf
00000230: c262 814f 1ae8 c9bf 89cb d8a6 c7d5 bfbf
00000240: 51e0 b85a be79 cb3f f8ef 9d89 e5a6 b33f
00000250: 918e eb57 7bbf ab3f ba77 8acd e5ce d3bf
00000260: 6f89 2692 9b8f d23f a65c 393e 6646 c83f
00000270: 5ccc 92d6 210a d23f 674c 1000 71da d93f
00000280: 895d 8ec3 4f36 d7bf 5fea ab1e 2091 b13f
00000290: 3bdd b90e 4b82 d5bf 2541 7356 7a42 d23f
000002a0: 54f7 bb51 e112 aa3f ed04 ae3e 5ef4 d2bf
000002b0: b79f 4a2d 02db d3bf b177 5bf2 d4f8 cabf
000002c0: 48ec 6ea6 47b2 cbbf 3264 9b29 f8ad cabf
000002d0: c96f 5fbf 640b b73f afcf 2cab cf2a c7bf
000002e0: 3eab cc7b b578 bf3f 9e3e 50e3 aaec cebf
000002f0: 2522 5f4e b892 d3bf 6e53 5edb e33e bf3f
-0.08641498243161021 -0.10599341174553788 -0.2859795271216212 -0.35893529861242557 0.19672990477162555 -0.38283695164966086 -0.21763989783107301 0.36024722812783083
-0.18089623928053947 -0.05095599558876618 -0.3156919129972507 -0.17135547895855643 0.12153315302662089 0.39964731266869635 -0.0068662281793100575 0.02226958528305486
-0.10958922709950987 0.08406883835060901 0.28541582240055485 0.24356237482688295 0.015054099144213018 0.31936589791673176 -0.2104751143557778 -0.41210666033051147
0.05254484692557332 -0.20095703148832225 0.3801811105462099 0.25492930475697306 0.0019323912750956903 -0.04105630178758616 -0.0013384953554671907 0.34084114238415697
0.12238952717374037 -0.19329146962003205 0.33030634039459233 0.16608329200479643 0.09429874048852459 0.03846790872583901 -0.005601885024863755 0.338002397850693
0.2590992530000961 0.22437102941144427 -0.2104857717155957 -0.17762682422025414 0.4007213704296864 0.1362461133601811 0.25700773578619895 -0.13095257948253733
-0.18957331735263477 -0.4088014526807941 0.3884721305663525 0.017966729448141133 0.02932738990481749 0.23040766190154263 -0.3944247743742574 0.21797251263953565
0.03933184056322243 -0.04490161203270379 0.0776320689367774 0.3040013331194563 0.10698648106654866 -0.07358969588448594 0.21792055708738556 -0.1693772878950483
0.2074866283849006 0.33466512205884985 -0.21758669331332534 0.22646265355090206 -0.4165285032871277 -0.3686666651180603 -0.20239571458912137 -0.12435577224168361
0.21465281896394342 0.07676539048946995 0.05419526527637431 -0.30950303146698455 0.2900151183368029 0.1896484187916247 0.28186841921269035 0.4039576054212319
-0.3626899156310733 0.06862068890397087 -0.3360774654206186 0.28530748789218513 0.0509252941392179 -0.2961650478465135 -0.3102422182369042 -0.2107187446007948
-0.2163781702673495 -0.20843412429420166 0.09001760170161711 -0.18099399431377836 0.12293562195251881 -0.24159751986779993 -0.3058300748203087 0.12205337625193888

conv2.att_src f8 [1, 1, 32]
00000000: f144 e478 3762 d7bf 94e5 b250 d376 b9bf
00000010: 7e51 d24e 72c2 acbf 5fa6 abb2 df2f a43f
00000020: f5e7 9b1d fdef d6bf 8a53 f6f9 8625 b03f
00000030: 4761 3a83 2e8f d73f c635 39f5 ac27 d6bf
00000040: 508d 3e7a 4870 d9bf 3b9d a053 f2f4 ba3f
00000050: bf78 e31a f951 b4bf 23c8 058c c3fb b3bf
00000060: 6eb7 c29f 99b6 ca3f 28e8 4026 ce25 d23f
00000070: b8a1 6921 bfa2 b6bf 1d99 e7df 8599 793f
00000080: 9bb3 b644 32fb d2bf 02a6 d857 a8e9 c3bf
00000090: b482 07c9 a414 d2bf d50b dfa4 a6b6 d5bf
000000a0: ec58 6a12 171b c5bf e0f8 4f56 9c1a c33f
000000b0: d45e 5d18 f2db c93f dacb bd79 9cd7 c83f
000000c0: c779 daa3 db19 bf3f 5e1f d5f4 5277 d7bf
000000d0: ef1d 6f00 fe2a d43f a805 3fab 7ca9 993f
000000e0: b71d 38cf 009f b7bf 83a6 75a4 43bc c53f
000000f0: 0e94 22f2 72a9 cf3f 81ef 1710 dc64 d73f
-0.3653696709234984 -0.09946938247857978 -0.0561710091798515 0.03942774826084582 -0.3583977498198004 0.06307262041657516 0.3681141168140311 -0.3461716074715152
-0.3974782174866123 0.10530008832630681 -0.07937580973109258 -0.07806036156196731 0.20869751263438324 0.28355745063493254 -0.08842081609475982 0.006249926517261775
-0.29658180914230464 -0.1555681637703828 -0.2825099909951334 -0.3392731294699705 -0.16488922499838254 0.14924959387275916 0.202024709603157 0.19407993263629814
0.12148831129386571 -0.3666579619352798 0.3151240352858328 0.025060604049718244 -0.09226994570791801 0.16980786829235592 0.24735867331506295 0.3655309827006406

conv2.att_dst f8 [1, 1, 32]
00000000: ba7e 51f9 3998 d13f 9b93 c9ac 7890 d13f
00000010: d7de 434f f42b bbbf b400 6806 c17f c33f
00000020: ef49 4bbb 717e c83f 4967 f955 63d1 ae3f
00000030: ae59 078c 6ba7 d03f 191f 3419 3ba8 c8bf
00000040: 7962 a721 3fb9 d2bf eaac fe16 03ef b63f
00000050: 822c be1e 315a d5bf d050 f78f 35c5 a73f
00000060: 3504 1356 63f3 9a3f f40b 6730 a8a5 d3bf
00000070: 13c5 7ad8 3569 c53f 6dec 5120 11e1 cabf
00000080: 8f1d 113f 0179 d23f c9dc a998 4df3 d8bf
00000090: 1525 6280 2622 cebf 7573 bd5a 32c2 ad3f
000000a0: a3f8 af5c 3848 c83f 6fbb debd e16d d4bf
000000b0: 6199 cd3a 33b6 b8bf 873d 4fcc 84f2 c33f
000000c0: d48f 173b c18f c0bf 3cad bdbb 33b3 bb3f
000000d0: 76be ea59 6f8e c03f afb4 f199 5574 cbbf
000000e0: d986 f44f 50ce d23f e3a9 f4ab edeb cd3f
000000f0: 882b 442f 7ec4 903f 3888 425d c4d7 d3bf
0.27491616580480704 0.27444283365030636 -0.10613943991836138 0.15233624279790592 0.1913587727090795 0.06019125389566555 0.2602185122936146 -0.1926339982094241
-0.2925565556193202 0.08958453475377195 -0.3336298752044017 0.04642646200559997 0.02631907666068774 -0.3069859001809043 0.16727326460162625 -0.2099934966862266
0.288635551060417 -0.3898500433783281 -0.23541718739242215 0.05812222821871319 0.1897039845061431 -0.31920665304180934 -0.0965301531374272 0.15583858467151065
-0.12938704858163297 0.10820315679091136 0.12934677019574153 -0.21448774353794905 0.29384239013789465 0.2337624635341192 0.01637456096163306 -0.31004437549029573

conv2.bias f8 [32]
00000000: 8843 7deb 1e46 a6bf fa5d 7a7f d6b4 a33f
00000010: 9622 51f5 c13c ab3f 5fd9 e649 1097 94bf
00000020: 9a4c 702b a5b1 9e3f dd9d 09a9 e223 a13f
00000030: f23c 14dc e828 b33f 9963 300b 8352 a6bf
00000040: 4c3f 2479 ace2 a3bf 82da 728d 192f b33f
00000050: f204 896f 9cc3 a6bf c416 3c3d 2126 a2bf
00000060: b33e bb05 d785 9dbf 1a47 f15a 4163 8c3f
00000070: 2173 7358 1631 ae3f 89c1 cacc e3e9 ad3f
00000080: 7a76 634f 9694 ac3f 6e04 9f3a fa31 ab3f
00000090: feee 8a5c 72f8 aa3f 591b 3b63 345a a1bf
000000a0: 7e12 8a45 0d74 a1bf 8220 bdc4 fd03 ab3f
000000b0: 9c6d 3f8a 7835 a0bf c6ad d0db a021 a4bf
000000c0: d9d9 4aba d7ad ae3f 7388 47de d6bd a4bf
000000d0: 7fbc f10e a4ba a6bf ab56 49f8 8df3 a73f
000000e0: 9d9f 6297 b75c 8dbf 8d87 4f55 eb87 a63f
000000f0: f708 a267 3498 69bf ec1c 8313 8629 a13f
-0.04350372910142314 0.03848905855300795 0.053197919078745645 -0.020107512007336733 0.029974537636075917 0.033476908812015906 0.07484298108123591 -0.04359826575836862
-0.03883875826625047 0.07493743613563633 -0.044461144080296125 -0.035447157597486206 -0.028830871319597672 0.013861189449162082 0.058968256280172555 0.05842506289389166
0.05582112998102402 0.05311567273702954 0.052676748081891475 -0.033891331780572194 -0.03408853029126123 0.05276482607456591 -0.031657950283000974 -0.039319063980964894
0.05992006444050774 -0.04051085914012811 -0.044392706703427535 0.04678004890290074 -0.014337000186358579 0.04400573173894804 -0.0031243346721235815 0.033519925958495594

conv2.lin_src.weight f8 [32, 32]
00000000: 0000 00a0 8592 b8bf 0000 00c0 18a0 b1bf
00000010: 0000 0020 c979 cf3f 0000 00e0 ffe6 c5bf
00000020: e1a1 ad24 df1e d2bf 795b b217 f5db 62bf
00000030: c928 5244 abd1 cb3f b895 b0bd adfe c33f
00000040: 2fba 58d4 eef9 c53f 8dc6 3357 5e17 b43f
00000050: 5bac 1509 7f0f c23f 0000 00e0 a8b3 b2bf
00000060: 7d8c 46c0 d32e 95bf 7ca5 7326 0d7d d0bf
00000070: 0000 0040 20f3 bebf 944e 3ba6 50c4 babf
00000080: 0000 0040 b130 c3bf 7e66 50d7 0128 b0bf
00000090: 0000 00a0 880b b0bf 0000 00a0 4814 cb3f
000000a0: 7c9a d177 01e8 c5bf 0000 0020 8b61 d2bf
000000b0: 0000 0060 6059 d23f 0000 00c0 5d3f a9bf
000000c0: 3e0b 358c f3f4 babf 0000 00c0 4a05 c13f
000000d0: 2f98 89b1 32e7 bebf 4a33 78b5 e9bf b03f
000000e0: 52ad 014a 024e d1bf 0000 0040 b4d2 993f
000000f0: 0832 7628 5152 d13f 0000 0020 6c1f d1bf
00000100: 0000 00e0 4c4a 8e3f 0000 0040 f688 d03f
00000110: 0000 00c0 9dfa 7fbf 0000 0000 3139 a03f
00000120: fce4 0104 4713 c3bf e9e9 aee0 69ee ca3f
00000130: 98f6 0080 4793 bf3f e223 16c1 8d71 cfbf
00000140: e701 7e3c 83d3 8b3f 8276 678c c800 bd3f
00000150: 5bac 1509 6403 c4bf 0000 0080 8552 cabf
00000160: f18c eba2 9828 d33f 833b 3c6c 35ec d2bf
00000170: 0000 0020 9f57 ce3f 8da5 38ed 5654 b63f
00000180: 0000 0060 a8d8 7ebf d229 bd63 6bc2 d33f
00000190: 0000 0080 bb17 d2bf 0000 0060 4575 b1bf
000001a0: 5884 d9a4 2cf3 c9bf 0000 0000 175a c7bf
000001b0: 0000 00e0 14ba b03f 0000 00a0 0bab aebf
000001c0: c8db 5f72 f41e b5bf 0000 00a0 bcad c93f
000001d0: 356e 6af7 1bf2 c63f 7eeb a7d6 8650 d1bf
000001e0: c2c8 a326 904c 5d3f 0000 0000 23b2 cbbf
000001f0: ac71 fa6c ddce c33f 0000 0020 8a88 b83f
00000200: 0000 0000 b14c c2bf 0000 0040 7ba0 a03f
00000210: 0000 0040 2ff9 c63f 0000 00a0 41c2 c63f
00000220: 5f84 812f 6209 ccbf 67d7 747d 50dd c7bf
00000230: dfce 5e90 2951 c93f 4186 fd4a 9a73 b03f
00000240: f429 d32b d384 ccbf dad8 ada8 a9c7 c53f
00000250: a653 eaf6 9483 c63f 0000 0060 f7f3 d13f
00000260: b71e 68de 57e2 b63f 1414 8066 2bf1 d23f
00000270: 0000 00e0 d63f d1bf 9f80 6774 0a47 ca3f
00000280: 0000 0060 4f18 c13f 963a 2739 9b6c bebf
00000290: 0000 00e0 e810 bfbf 0000 0020 becc d2bf
000002a0: 9126 a626 27c8 c2bf 0000 0020 32c1 d03f
000002b0: 0000 00c0 2d66 d03f 0000 0020 02d8 c53f
000002c0: 725b ce89 cde2 d13f 0000 00a0 0e3d a0bf
000002d0: ba29 791b aa28 b53f 0cd7 0fbb ebdb cdbf
000002e0: 2b11 4a83 0922 8ebf 0000 0000 13e8 cabf
000002f0: 4d17 0640 5c10 b93f 0000 0060 668e d2bf
00000300: 0000 0060 d2d0 bf3f 0000 0040 cec7 983f
00000310: 0000 0000 01e8 b43f 0000 0000 0e6f cf3f
00000320: 5878 8479 872f bd3f 8417 22f8 69a7 cf3f
00000330: bc5e d535 fe6d 96bf 43ed 340c 27d5 c8bf
00000340: 134b e525 1457 a53f 7a45 9d52 dd3f d1bf
00000350: 248e d160 1592 c4bf 0000 0000 93ba 8c3f
00000360: 05c4 ec5c 2ec6 c2bf ab4c d332 b0f9 be3f
00000370: 0000 0040 32d0 cdbf bda8 7a1b fa3d 633f
00000380: 0000 0040 2b7b cabf 3900 6438 6acf cfbf
00000390: 0000 0060 9b7e b03f 0000 00a0 402b a5bf
000003a0: 7d92 7455 4595 cabf 0000 00e0 8426 71bf
000003b0: 0000 00c0 e63b c5bf 0000 0040 0dc5 7d3f
000003c0: 775a 7953 a4c6 d1bf 0000 0020 1c02 b3bf
000003d0: c620 52f5 0108 c7bf 0724 f8ef ec23 863f
000003e0: 7200 c4b8 01ee ce3f 0000 00a0 423d d3bf
000003f0: 32e8 b0af 9f33 cfbf 0000 00e0 a0b3 d23f
00000400: 0000 0020 798f bb3f 0000 0080 43e9 c5bf
00000410: 0000 00c0 cd5f cbbf 0000 00a0 3b39 c5bf
00000420: 5e5b f80d 3601 c33f 120d 9d16 abab d03f
00000430: 9dbb 566a 1547 c0bf b9e2 bab7 e7aa cdbf
00000440: 2d07 7722 795e d2bf 6d47 ca7b 8562 cd3f
00000450: 11e5 2d6b 783e b43f 0000 0060 09ff b3bf
00000460: 9b8a 078e 9fbc babf aae4 46dc b918 c6bf
00000470: 0000 0080 4b2d b53f 63be b954 1c89 c9bf
00000480: 0000 00e0 eb96 d13f 4472 97df 3dea bcbf
00000490: 0000 0040 94de b5bf 0000 0020 a8bf d13f
000004a0: 449b 8bc5 6a96 c1bf 0000 00e0 ba62 b1bf
000004b0: 0000 0040 55a9 a2bf 0000 0060 9f2d c4bf
000004c0: bab8 e456 ebff cebf 0000 00e0 d08e cd3f
000004d0: 3426 28d9 978c b63f b083 0b7f da04 9abf
000004e0: 7fc1 9cca 46ab a53f 0000 0080 bba3 b73f
000004f0: 0591 593d a703 cdbf 0000 0020 28f5 d13f
00000500: 0000 0000 3479 cf3f 0000 00a0 7f12 ca3f
00000510: 0000 00c0 e7ab c73f 0000 0080 a82b d33f
00000520: d281 2b8a 3b7a ccbf 6a8c e245 bf25 b2bf
00000530: b989 e97c f7a6 a9bf bdbd fc00 dce3 a2bf
00000540: f469 0db2 5225 cc3f e8bb a3f8 2b58 cabf
00000550: b730 f198 f05c c93f 0000 00c0 ebaa 5e3f
00000560: e9ec 165a 49aa c5bf ba11 1b7f 6eff a3bf
00000570: 0000 0020 affa c6bf e616 1635 60c9 c6bf
00000580: 0000 0000 47ef 9fbf 363a 71c8 33d9 be3f
00000590: 0000 00c0 4e16 ccbf 0000 0000 ba4d d2bf
000005a0: 7144 99e2 0d7a a5bf 0000 0020 41aa d1bf
000005b0: 0000 0040 9786 d03f 0000 00e0 6cee c13f
000005c0: 2d5e 76f6 6245 bc3f 0000 0000 ec00 cb3f
000005d0: c130 5b29 0b52 d53f e1b2 a837 6444 c1bf
000005e0: bc8b 84bc 541c a4bf 0000 0080 3731 c23f
000005f0: 9c41 4264 8b93 b93f 0000 00a0 7eb9 d03f
00000600: 0000 0040 27c9 c13f 0000 0060 f688 c33f
00000610: 0000 0020 0831 c63f 0000 00e0 e104 c8bf
00000620: d2a0 1b6b 8932 a6bf 5b21 30c6 490e c93f
00000630: 3921 b275 b322 ccbf dfb2 1210 a1d2 a8bf
00000640: 7590 895c e91a c13f bebe b02c f933 d03f
00000650: c229 751b dc78 d03f 0000 0060 75b9 c4bf
00000660: dc9c 4c9b aa2b c3bf 5261 3c62 d44e a63f
00000670: 0000 0000 d59e 83bf 586e d744 09e5 b23f
00000680: 0000 0080 be15 c3bf 7b7d aec2 c5a3 a63f
00000690: 0000 0000 cc7f c23f 0000 0080 f987 cd3f
000006a0: 83f7 e8dc afbc b93f 0000 0060 c446 a83f
000006b0: 0000 0080 055e cd3f 0000 0020 6d95 d3bf
000006c0: 32b0 d836 5a83 9ebf 0000 0080 10f8 d23f
000006d0: e400 d631 0aa6 cd3f a354 193d a1da c33f
000006e0: 4049 bafb adaf a83f 0000 0040 ab83 963f
000006f0: 07ea fdcb ccd4 d1bf 0000 00c0 f811 aebf
00000700: 0000 0020 d409 bd3f 0000 0080 2369 cebf
00000710: 0000 00a0 0399 a23f 0000 0060 616b d3bf
00000720: 7b32 cccb 8eff cfbf c12a 1527 8c33 af3f
00000730: f42e 132a 5b41 babf 61a6 2b2c 536e bbbf
00000740: 44dd 5be4 6665 a93f 6ee1 9708 08f9 bf3f
00000750: a553 ea16 e9b0 ccbf 0000 0060 cf8b af3f
00000760: 880d 9855 8cb4 d23f 2773 1059 f106 ce3f
00000770: 0000 0000 4421 b63f 1b69 1373 6745 9b3f
00000780: 0000 0020 d47a b23f 3a29 df7c 5a17 c53f
00000790: 0000 0080 c388 c33f 0000 00c0 635a 933f
000007a0: c0da 3081 c14d c53f 0000 00a0 9705 cabf
000007b0: 0000 0080 27ac ce3f 0000 0000 7f31 cf3f
000007c0: fda4 3189 53d6 c03f 0000 0060 1874 bfbf
000007d0: 3625 0b31 f69b d13f 1ced e6ef ca8e 7b3f
000007e0: 27a7 fd18 62dc 6fbf 0000 00e0 73f4 c23f
000007f0: 5428 1300 118f d2bf 0000 00c0 01ea c7bf
-0.09598574787378311 -0.06884913146495819 0.2459041029214859 -0.1711120456457138 -0.2831342561899231 -0.002302149483124291 0.21733609043105265 0.15620967638203154
0.17168984764562498 0.07848157528840201 0.14109790748202297 -0.07305388897657394 -0.020686443911142483 -0.2576325297837554 -0.1208973079919815 -0.10455802973165823
-0.14992347359657288 -0.06311046129885686 -0.06267599016427994 0.21155650913715363 -0.1711427531292492 -0.2872035801410675 0.2867051064968109 -0.049311570823192596
-0.10530016110446369 0.13297399878501892 -0.12071530184184164 0.06542835884483825 -0.27038628794862973 0.02521783486008644 0.2706492324003027 -0.26754286885261536
0.014790154062211514 0.25835949182510376 -0.007807365618646145 0.03168633580207825 -0.14902579971002428 0.21040080519544738 0.12334105372516502 -0.24565288475085284
0.013587022098136848 0.11329320361934417 -0.1563534778937051 -0.20564335584640503 0.29935279760520844 -0.2956670338616549 0.23704899847507477 0.08722441951308309
-0.0075308396480977535 0.30874142398957105 -0.28269851207733154 -0.06819566339254379 -0.2027335934572274 -0.18243682384490967 0.06533937901258469 -0.05989872291684151
-0.08250358383507639 0.20061452686786652 0.17926358776900178 -0.2705399605035196 0.0017882735942831717 -0.21637380123138428 0.1547505170937148 0.0958334282040596
-0.1429654359817505 0.03247437626123428 0.17947950959205627 0.17780323326587677 -0.21903636283517167 -0.18644147992898327 0.19778937863667687 0.06426395731752967
-0.22280349388013543 0.17015572296413134 0.17589056068814307 0.28051552176475525 0.08939122371531992 0.2959698201160006 -0.26952144503593445 0.20529299434474965
0.1335543841123581 -0.1188447012457153 -0.12135177105665207 -0.2937465012073517 -0.14673318278464767 0.26179173588752747 0.2562364935874939 0.1706545501947403
0.2794679494631317 -0.03171582892537117 0.0826517407487363 -0.233273950899893 -0.014713358229763237 -0.21020734310150146 0.09790588915902028 -0.2899414002895355
0.12428011745214462 0.024199698120355606 0.08166509866714478 0.2455766201019287 0.11400648800597091 0.2472965680682898 -0.021903965030417125 -0.19400489898712622
0.04167998278230391 -0.26952298229033256 -0.1607081148859929 0.014027737081050873 -0.14667300736758207 0.12099744072775091 -0.23291614651679993 0.002348888865374736
-0.20688381791114807 -0.2485173011155 0.06443186849355698 -0.041345614939928055 -0.20768038437485706 -0.004187125246971846 -0.16589054465293884 0.007268001325428486
-0.27774913932572737 -0.07425094395875931 -0.17993187407069494 0.010810710023195126 0.2416383888412415 -0.30061402916908264 -0.24376293257393084 0.29221364855766296
0.10765797644853592 -0.17118114233016968 -0.21386119723320007 -0.16580910980701447 0.14847446138511605 0.2604778023562214 -0.12716930095981818 -0.2317781111830948
-0.2870161854335603 0.22956913513604196 0.07907822243386799 -0.07811030000448227 -0.10444066255107957 -0.17262957816800412 0.08272239565849304 -0.19949678551664637
0.2748365104198456 -0.11294924458292949 -0.08542753756046295 0.27732279896736145 -0.13740286489265874 -0.0679127499461174 -0.0364481583237648 -0.15764228999614716
-0.2421850370678323 0.23092089593410492 0.08808278133087627 -0.025409139637193767 0.0423223612145902 0.09234210848808289 -0.226673989253989 0.28058817982673645
0.24588632583618164 0.20368953049182892 0.1849336326122284 0.2995396852493286 -0.22248024221973012 -0.07088847595382367 -0.050101980207517945 -0.03689467918445242
0.219889008464477 -0.20581578865628036 0.19814879863623044 0.0018718054052442312 -0.16925923251060418 -0.039058163657986936 -0.17952527105808258 -0.17802050201515057
-0.031186208128929138 0.12050174373255448 -0.21943077445030212 -0.2859940528869629 -0.041946824942564194 -0.276016503572464 0.2582147717475891 0.14008866250514984
0.11043375508449378 0.21096563339233398 0.3331325439328446 -0.1348996421596871 -0.03927864838831094 0.14212697744369507 0.09990760038113539 0.26132169365882874
0.13895121216773987 0.15261726081371307 0.1733713299036026 -0.18764899671077728 -0.0433543151137329 0.1957485406603706 -0.21980899092546638 -0.04848197289661526
0.13363377588678174 0.25317220081613445 0.2573766964093488 -0.16190974414348602 -0.1497700937554559 0.04357017230194295 -0.00958029180765152 0.07380731516553263
-0.14910107851028442 0.0442182350300255 0.14452505111694336 0.23071211576461792 0.1005353845912094 0.047414910048246384 0.22943180799484253 -0.30599525570869446
-0.029797944638787217 0.2963906526565552 0.23162963326831865 0.15510955317828232 0.048215329149700725 0.02198665216565132 -0.27861328049735373 -0.05873086303472519
0.11343122273683548 -0.23758357763290405 0.036323655396699905 -0.30342897772789 -0.24998650504166506 0.06094015099605122 -0.1025597551080713 -0.10715217426663905
0.04960176026900823 0.12489366731450044 -0.2241488801852515 0.0616135410964489 0.29226978644165813 0.23458687638130835 0.08644509315490723 0.02663194312922555
0.07218671590089798 0.16477519128086177 0.15261119604110718 0.018899496644735336 0.16643542106768017 -0.20329566299915314 0.23962873220443726 0.24369800090789795
0.13154071997568187 -0.1228652223944664 0.2751441458645617 0.006727974627604352 -0.003889266583361545 0.1480851024389267 -0.2899820805292894 -0.1868288218975067

conv2.lin_dst.weight f8 [32, 32]
00000000: 0000 00a0 8592 b8bf 0000 00c0 18a0 b1bf
00000010: 0000 0020 c979 cf3f 0000 00e0 ffe6 c5bf
00000020: e1a1 ad24 df1e d2bf 795b b217 f5db 62bf
00000030: c928 5244 abd1 cb3f b895 b0bd adfe c33f
00000040: 2fba 58d4 eef9 c53f 8dc6 3357 5e17 b43f
00000050: 5bac 1509 7f0f c23f 0000 00e0 a8b3 b2bf
00000060: 7d8c 46c0 d32e 95bf 7ca5 7326 0d7d d0bf
00000070: 0000 0040 20f3 bebf 944e 3ba6 50c4 babf
00000080: 0000 0040 b130 c3bf 7e66 50d7 0128 b0bf
00000090: 0000 00a0 880b b0bf 0000 00a0 4814 cb3f
000000a0: 7c9a d177 01e8 c5bf 0000 0020 8b61 d2bf
000000b0: 0000 0060 6059 d23f 0000 00c0 5d3f a9bf
000000c0: 3e0b 358c f3f4 babf 0000 00c0 4a05 c13f
000000d0: 2f98 89b1 32e7 bebf 4a33 78b5 e9bf b03f
000000e0: 52ad 014a 024e d1bf 0000 0040 b4d2 993f
000000f0: 0832 7628 5152 d13f 0000 0020 6c1f d1bf
00000100: 0000 00e0 4c4a 8e3f 0000 0040 f688 d03f
00000110: 0000 00c0 9dfa 7fbf 0000 0000 3139 a03f
00000120: fce4 0104 4713 c3bf e9e9 aee0 69ee ca3f
00000130: 98f6 0080 4793 bf3f e223 16c1 8d71 cfbf
00000140: e701 7e3c 83d3 8b3f 8276 678c c800 bd3f
00000150: 5bac 1509 6403 c4bf 0000 0080 8552 cabf
00000160: f18c eba2 9828 d33f 833b 3c6c 35ec d2bf
00000170: 0000 0020 9f57 ce3f 8da5 38ed 5654 b63f
00000180: 0000 0060 a8d8 7ebf d229 bd63 6bc2 d33f
00000190: 0000 0080 bb17 d2bf 0000 0060 4575 b1bf
000001a0: 5884 d9a4 2cf3 c9bf 0000 0000 175a c7bf
000001b0: 0000 00e0 14ba b03f 0000 00a0 0bab aebf
000001c0: c8db 5f72 f41e b5bf 0000 00a0 bcad c93f
000001d0: 356e 6af7 1bf2 c63f 7eeb a7d6 8650 d1bf
000001e0: c2c8 a326 904c 5d3f 0000 0000 23b2 cbbf
000001f0: ac71 fa6c ddce c33f 0000 0020 8a88 b83f
00000200: 0000 0000 b14c c2bf 0000 0040 7ba0 a03f
00000210: 0000 0040 2ff9 c63f 0000 00a0 41c2 c63f
00000220: 5f84 812f 6209 ccbf 67d7 747d 50dd c7bf
00000230: dfce 5e90 2951 c93f 4186 fd4a 9a73 b03f
00000240: f429 d32b d384 ccbf dad8 ada8 a9c7 c53f
00000250: a653 eaf6 9483 c63f 0000 0060 f7f3 d13f
00000260: b71e 68de 57e2 b63f 1414 8066 2bf1 d23f
00000270: 0000 00e0 d63f d1bf 9f80 6774 0a47 ca3f
00000280: 0000 0060 4f18 c13f 963a 2739 9b6c bebf
00000290: 0000 00e0 e810 bfbf 0000 0020 becc d2bf
000002a0: 9126 a626 27c8 c2bf 0000 0020 32c1 d03f
000002b0: 0000 00c0 2d66 d03f 0000 0020 02d8 c53f
000002c0: 725b ce89 cde2 d13f 0000 00a0 0e3d a0bf
000002d0: ba29 791b aa28 b53f 0cd7 0fbb ebdb cdbf
000002e0: 2b11 4a83 0922 8ebf 0000 0000 13e8 cabf
000002f0: 4d17 0640 5c10 b93f 0000 0060 668e d2bf
00000300: 0000 0060 d2d0 bf3f 0000 0040 cec7 983f
00000310: 0000 0000 01e8 b43f 0000 0000 0e6f cf3f
00000320: 5878 8479 872f bd3f 8417 22f8 69a7 cf3f
00000330: bc5e d535 fe6d 96bf 43ed 340c 27d5 c8bf
00000340: 134b e525 1457 a53f 7a45 9d52 dd3f d1bf
00000350: 248e d160 1592 c4bf 0000 0000 93ba 8c3f
00000360: 05c4 ec5c 2ec6 c2bf ab4c d332 b0f9 be3f
00000370: 0000 0040 32d0 cdbf bda8 7a1b fa3d 633f
00000380: 0000 0040 2b7b cabf 3900 6438 6acf cfbf
00000390: 0000 0060 9b7e b03f 0000 00a0 402b a5bf
000003a0: 7d92 7455 4595 cabf 0000 00e0 8426 71bf
000003b0: 0000 00c0 e63b c5bf 0000 0040 0dc5 7d3f
000003c0: 775a 7953 a4c6 d1bf 0000 0020 1c02 b3bf
000003d0: c620 52f5 0108 c7bf 0724 f8ef ec23 863f
000003e0: 7200 c4b8 01ee ce3f 0000 00a0 423d d3bf
000003f0: 32e8 b0af 9f33 cfbf 0000 00e0 a0b3 d23f
00000400: 0000 0020 798f bb3f 0000 0080 43e9 c5bf
00000410: 0000 00c0 cd5f cbbf 0000 00a0 3b39 c5bf
00000420: 5e5b f80d 3601 c33f 120d 9d16 abab d03f
00000430: 9dbb 566a 1547 c0bf b9e2 bab7 e7aa cdbf
00000440: 2d07 7722 795e d2bf 6d47 ca7b 8562 cd3f
00000450: 11e5 2d6b 783e b43f 0000 0060 09ff b3bf
00000460: 9b8a 078e 9fbc babf aae4 46dc b918 c6bf
00000470: 0000 0080 4b2d b53f 63be b954 1c89 c9bf
00000480: 0000 00e0 eb96 d13f 4472 97df 3dea bcbf
00000490: 0000 0040 94de b5bf 0000 0020 a8bf d13f
000004a0: 449b 8bc5 6a96 c1bf 0000 00e0 ba62 b1bf
000004b0: 0000 0040 55a9 a2bf 0000 0060 9f2d c4bf
000004c0: bab8 e456 ebff cebf 0000 00e0 d08e cd3f
000004d0: 3426 28d9 978c b63f b083 0b7f da04 9abf
000004e0: 7fc1 9cca 46ab a53f 0000 0080 bba3 b73f
000004f0: 0591 593d a703 cdbf 0000 0020 28f5 d13f
00000500: 0000 0000 3479 cf3f 0000 00a0 7f12 ca3f
00000510: 0000 00c0 e7ab c73f 0000 0080 a82b d33f
00000520: d281 2b8a 3b7a ccbf 6a8c e245 bf25 b2bf
00000530: b989 e97c f7a6 a9bf bdbd fc00 dce3 a2bf
00000540: f469 0db2 5225 cc3f e8bb a3f8 2b58 cabf
00000550: b730 f198 f05c c93f 0000 00c0 ebaa 5e3f
00000560: e9ec 165a 49aa c5bf ba11 1b7f 6eff a3bf
00000570: 0000 0020 affa c6bf e616 1635 60c9 c6bf
00000580: 0000 0000 47ef 9fbf 363a 71c8 33d9 be3f
00000590: 0000 00c0 4e16 ccbf 0000 0000 ba4d d2bf
000005a0: 7144 99e2 0d7a a5bf 0000 0020 41aa d1bf
000005b0: 0000 0040 9786 d03f 0000 00e0 6cee c13f
000005c0: 2d5e 76f6 6245 bc3f 0000 0000 ec00 cb3f
000005d0: c130 5b29 0b52 d53f e1b2 a837 6444 c1bf
000005e0: bc8b 84bc 541c a4bf 0000 0080 3731 c23f
000005f0: 9c41 4264 8b93 b93f 0000 00a0 7eb9 d03f
00000600: 0000 0040 27c9 c13f 0000 0060 f688 c33f
00000610: 0000 0020 0831 c63f 0000 00e0 e104 c8bf
00000620: d2a0 1b6b 8932 a6bf 5b21 30c6 490e c93f
00000630: 3921 b275 b322 ccbf dfb2 1210 a1d2 a8bf
00000640: 7590 895c e91a c13f bebe b02c f933 d03f
00000650: c229 751b dc78 d03f 0000 0060 75b9 c4bf
00000660: dc9c 4c9b aa2b c3bf 5261 3c62 d44e a63f
00000670: 0000 0000 d59e 83bf 586e d744 09e5 b23f
00000680: 0000 0080 be15 c3bf 7b7d aec2 c5a3 a63f
00000690: 0000 0000 cc7f c23f 0000 0080 f987 cd3f
000006a0: 83f7 e8dc afbc b93f 0000 0060 c446 a83f
000006b0: 0000 0080 055e cd3f 0000 0020 6d95 d3bf
000006c0: 32b0 d836 5a83 9ebf 0000 0080 10f8 d23f
000006d0: e400 d631 0aa6 cd3f a354 193d a1da c33f
000006e0: 4049 bafb adaf a83f 0000 0040 ab83 963f
000006f0: 07ea fdcb ccd4 d1bf 0000 00c0 f811 aebf
00000700: 0000 0020 d409 bd3f 0000 0080 2369 cebf
00000710: 0000 00a0 0399 a23f 0000 0060 616b d3bf
00000720: 7b32 cccb 8eff cfbf c12a 1527 8c33 af3f
00000730: f42e 132a 5b41 babf 61a6 2b2c 536e bbbf
00000740: 44dd 5be4 6665 a93f 6ee1 9708 08f9 bf3f
00000750: a553 ea16 e9b0 ccbf 0000 0060 cf8b af3f
00000760: 880d 9855 8cb4 d23f 2773 1059 f106 ce3f
00000770: 0000 0000 4421 b63f 1b69 1373 6745 9b3f
00000780: 0000 0020 d47a b23f 3a29 df7c 5a17 c53f
00000790: 0000 0080 c388 c33f 0000 00c0 635a 933f
000007a0: c0da 3081 c14d c53f 0000 00a0 9705 cabf
000007b0: 0000 0080 27ac ce3f 0000 0000 7f31 cf3f
000007c0: fda4 3189 53d6 c03f 0000 0060 1874 bfbf
000007d0: 3625 0b31 f69b d13f 1ced e6ef ca8e 7b3f
000007e0: 27a7 fd18 62dc 6fbf 0000 00e0 73f4 c23f
000007f0: 5428 1300 118f d2bf 0000 00c0 01ea c7bf
-0.09598574787378311 -0.06884913146495819 0.2459041029214859 -0.1711120456457138 -0.2831342561899231 -0.002302149483124291 0.21733609043105265 0.15620967638203154
0.17168984764562498 0.07848157528840201 0.14109790748202297 -0.07305388897657394 -0.020686443911142483 -0.2576325297837554 -0.1208973079919815 -0.10455802973165823
-0.14992347359657288 -0.06311046129885686 -0.06267599016427994 0.21155650913715363 -0.1711427531292492 -0.2872035801410675 0.2867051064968109 -0.049311570823192596
-0.10530016110446369 0.13297399878501892 -0.12071530184184164 0.06542835884483825 -0.27038628794862973 0.02521783486008644 0.2706492324003027 -0.26754286885261536
0.014790154062211514 0.25835949182510376 -0.007807365618646145 0.03168633580207825 -0.14902579971002428 0.21040080519544738 0.12334105372516502 -0.24565288475085284
0.013587022098136848 0.11329320361934417 -0.1563534778937051 -0.20564335584640503 0.29935279760520844 -0.2956670338616549 0.23704899847507477 0.08722441951308309
-0.0075308396480977535 0.30874142398957105 -0.28269851207733154 -0.06819566339254379 -0.2027335934572274 -0.18243682384490967 0.06533937901258469 -0.05989872291684151
-0.08250358383507639 0.20061452686786652 0.17926358776900178 -0.2705399605035196 0.0017882735942831717 -0.21637380123138428 0.1547505170937148 0.0958334282040596
-0.1429654359817505 0.03247437626123428 0.17947950959205627 0.17780323326587677 -0.21903636283517167 -0.18644147992898327 0.19778937863667687 0.06426395731752967
-0.22280349388013543 0.17015572296413134 0.17589056068814307 0.28051552176475525 0.08939122371531992 0.2959698201160006 -0.26952144503593445 0.20529299434474965
0.1335543841123581 -0.1188447012457153 -0.12135177105665207 -0.2937465012073517 -0.14673318278464767 0.26179173588752747 0.2562364935874939 0.1706545501947403
0.2794679494631317 -0.03171582892537117 0.0826517407487363 -0.233273950899893 -0.014713358229763237 -0.21020734310150146 0.09790588915902028 -0.2899414002895355
0.12428011745214462 0.024199698120355606 0.08166509866714478 0.2455766201019287 0.11400648800597091 0.2472965680682898 -0.021903965030417125 -0.19400489898712622
0.04167998278230391 -0.26952298229033256 -0.1607081148859929 0.014027737081050873 -0.14667300736758207 0.12099744072775091 -0.23291614651679993 0.002348888865374736
-0.20688381791114807 -0.2485173011155 0.06443186849355698 -0.041345614939928055 -0.20768038437485706 -0.004187125246971846 -0.16589054465293884 0.007268001325428486
-0.27774913932572737 -0.07425094395875931 -0.17993187407069494 0.010810710023195126 0.2416383888412415 -0.30061402916908264 -0.24376293257393084 0.29221364855766296
0.10765797644853592 -0.17118114233016968 -0.21386119723320007 -0.16580910980701447 0.14847446138511605 0.2604778023562214 -0.12716930095981818 -0.2317781111830948
-0.2870161854335603 0.22956913513604196 0.07907822243386799 -0.07811030000448227 -0.10444066255107957 -0.17262957816800412 0.08272239565849304 -0.19949678551664637
0.2748365104198456 -0.11294924458292949 -0.08542753756046295 0.27732279896736145 -0.13740286489265874 -0.0679127499461174 -0.0364481583237648 -0.15764228999614716
-0.2421850370678323 0.23092089593410492 0.08808278133087627 -0.025409139637193767 0.0423223612145902 0.09234210848808289 -0.226673989253989 0.28058817982673645
0.24588632583618164 0.20368953049182892 0.1849336326122284 0.2995396852493286 -0.22248024221973012 -0.07088847595382367 -0.050101980207517945 -0.03689467918445242
0.219889008464477 -0.20581578865628036 0.19814879863623044 0.0018718054052442312 -0.16925923251060418 -0.039058163657986936 -0.17952527105808258 -0.17802050201515057
-0.031186208128929138 0.12050174373255448 -0.21943077445030212 -0.2859940528869629 -0.041946824942564194 -0.276016503572464 0.2582147717475891 0.14008866250514984
0.11043375508449378 0.21096563339233398 0.3331325439328446 -0.1348996421596871 -0.03927864838831094 0.14212697744369507 0.09990760038113539 0.26132169365882874
0.13895121216773987 0.15261726081371307 0.1733713299036026 -0.18764899671077728 -0.0433543151137329 0.1957485406603706 -0.21980899092546638 -0.04848197289661526
0.13363377588678174 0.25317220081613445 0.2573766964093488 -0.16190974414348602 -0.1497700937554559 0.04357017230194295 -0.00958029180765152 0.07380731516553263
-0.14910107851028442 0.0442182350300255 0.14452505111694336 0.23071211576461792 0.1005353845912094 0.047414910048246384 0.22943180799484253 -0.30599525570869446
-0.029797944638787217 0.2963906526565552 0.23162963326831865 0.15510955317828232 0.048215329149700725 0.02198665216565132 -0.27861328049735373 -0.05873086303472519
0.11343122273683548 -0.23758357763290405 0.036323655396699905 -0.30342897772789 -0.24998650504166506 0.06094015099605122 -0.1025597551080713 -0.10715217426663905
0.04960176026900823 0.12489366731450044 -0.2241488801852515 0.0616135410964489 0.29226978644165813 0.23458687638130835 0.08644509315490723 0.02663194312922555
0.07218671590089798 0.16477519128086177 0.15261119604110718 0.018899496644735336 0.16643542106768017 -0.20329566299915314 0.23962873220443726 0.24369800090789795
0.13154071997568187 -0.1228652223944664 0.2751441458645617 0.006727974627604352 -0.003889266583361545 0.1480851024389267 -0.2899820805292894 -0.1868288218975067

linear.weight f8 [1, 32]
00000000: 6e32 be84 eefb bfbf 9bbc ad64 73ef c13f
00000010: e37d 3e3b d3b2 c43f 0329 2e82 c600 b0bf
00000020: 1e65 e3c4 9736 b33f ec08 2076 4dda c93f
00000030: 3ded 3dab cab1 a43f 86bc 87a2 34e7 b4bf
00000040: 307f 04c9 eb7b a3bf 998b d9d5 68d1 a63f
00000050: 48c3 ed1f 199a b8bf 2d05 79e7 ff87 abbf
00000060: e92f bf6c b147 9dbf 0525 ae4a ec92 993f
00000070: 83d9 e176 aa0a b23f 10cb 8c4f 6248 b33f
00000080: bdee 8c49 3792 b63f 4ca0 6283 d677 c43f
00000090: 592d 68d0 da0e c33f bf4f 120d cdf7 9abf
000000a0: 46cc bb10 b985 b3bf 406c 6a04 b5f5 c23f
000000b0: d1e4 10f2 76be 7dbf cf1d bbaa 0f65 a9bf
000000c0: 5773 4b5d 9377 b23f 72ba 6377 8c66 b5bf
000000d0: 6ead ba76 658d b8bf 10f8 bd06 504e 9f3f
000000e0: f75b ebd8 4e1c c0bf ab7d 3f77 0c53 b23f
000000f0: 32b9 8cf0 e7d3 8b3f b175 b0a8 2741 983f
-0.12493792286677216 0.14011995712232736 0.161707309654033 -0.06251183202963166 0.07505177075235678 0.20197456615284837 0.040418942836334605 -0.08165291755698165
-0.038054817474629465 0.04456641779395127 -0.09610135106573836 -0.05377196980090058 -0.02859379984128899 0.024974529321785805 0.07047524835966183 0.07532324258935952
0.08816857858340206 0.15990716376586744 0.14889083076591694 -0.02633591072351726 -0.07625919970068748 0.14812338557826088 -0.007261719351896193 -0.04959916075818748
0.07213707950309121 -0.08359601893219251 -0.09590753697073293 0.03057217637205417 -0.12586389152303898 0.07157972251251603 0.013587772396559037 0.023686046286561516

linear.bias f8 [1]
00000000: afb3 0b14 ca3c b6bf
-0.08686507214925031
