models/baseline_0.01.pt (torch, 1191 bytes, 1 tensors)

linear.weight f4 [1, 32]
00000000: bf0b 6dbd 90b9 bdbd 1004 c9b9 02cc b93d
00000010: 91e4 0c3d 1b4e 8bbc 518a d43d 6840 3bbc
00000020: 36cb 1b3e aa80 543d 356c 25be 29a2 dcbd
00000030: 2860 66bd 0a32 e43c 932f 073e 1aef 66bd
00000040: cdd3 8cbd 00b0 25bd 705e a5bd 2256 81bd
00000050: 8f9d 7a3d b68b 943d ac63 e23d 46a7 80bd
00000060: 0442 45bd 1788 a2bd f31e d13c 57c6 83bd
00000070: 4281 653d 3ba6 8d3c 01be ca3c f1a6 153e
-0.05787253 -0.09263909 -0.00038340734 0.090721145 0.034397665 -0.017005017 0.10377944 -0.01142893
0.15214238 0.051880516 -0.16154559 -0.10773117 -0.056244045 0.027855892 0.13201742 -0.05638037
-0.06876335 -0.04045105 -0.08074653 -0.06315257 0.061185416 0.0725321 0.11054167 -0.06281905
-0.04815866 -0.07936113 0.025527453 -0.06434315 0.056031473 0.017291179 0.024748804 0.14614464
