models/baseline_0.01_750_out_of_1000.pt (torch, 1191 bytes, 1 tensors)

linear.weight f4 [1, 32]
0	0xbd616862	-0.055031188
1	0xbd8f516c	-0.06997952
2	0x3b7bc376	0.0038416064
3	0x3dd19c8a	0.102349356
4	0x3d939a05	0.07207111
5	0x3c30fd92	0.010802643
6	0x3dc195dd	0.09452412
7	0x3b5afd1e	0.003341503
8	0x3e1e8437	0.15480123
9	0x3d1cfb49	0.03832558
10	0xbe26b7c4	-0.16281039
11	0xbdef1987	-0.11674791
12	0xbd6307df	-0.05542743
13	0x3cfe2098	0.031021401
14	0x3e0340f3	0.12817745
15	0xbd97d1be	-0.07413052
16	0xbd904966	-0.0704525
17	0xbd4f8daf	-0.05067223
18	0xbdbe48e8	-0.092912495
19	0xbd490a90	-0.04908234
20	0x3d337bed	0.043819357
21	0x3d9b6447	0.07587486
22	0x3dce3668	0.10068971
23	0xbd85c8a7	-0.06532412
24	0xbcf64468	-0.030061916
25	0xbda58f5e	-0.08083986
26	0x3cc1533e	0.023599263
27	0xbd8417e6	-0.06449871
28	0x3d70a253	0.058748554
29	0x3ccb02ba	0.024781574
30	0x3d958247	0.07300239
31	0x3e14ef11	0.14544322
