models/baseline_0.05_250_out_of_500.pt (torch, 40839 bytes, 12 tensors)

conv1.att_src f8 [1, 1, 64]
0	0x40044370cfb6dbb7	2.5329300143889344
1	0x3fd60833c2d804f9	0.34425062205998774
2	0xbf982d9a9db397e4	-0.023611465335214535
3	0x3fc82cd378636fd3	0.1888679826578242
4	0x3ffb95e4a36b3673	1.7240949996516093
5	0x4002517fb3e9e54c	2.2897943549875546
6	0x3fc1ed04dd9b69ab	0.14004574604662187
7	0x3fa82a6461f39199	0.047198426205599726
8	0x3ff686cdc8114bc2	1.4079110922946119
9	0xbfe111ef2db0933a	-0.5334392444970952
10	0x3fe801b3c174aad0	0.750207784503198
11	0x3ffff8831e83cd39	1.9981719200121246
12	0xbfd62cef1751ba0f	-0.3464925506331448
13	0x3fdf6e4e6a80616f	0.49110756302390873
14	0x3fe92b468ad139d4	0.7865326606059235
15	0x3fe48ad1ec14d3b9	0.6419458018268563
16	0x4001ec9c62a7595c	2.240532656414116
17	0xbf8c38a84d66569b	-0.013779940473607246
18	0x3fe37dd56df5c1e2	0.6091105601936386
19	0x4001a19881f71edb	2.2039041665592385
20	0x3fffaf9fd99025fa	1.9803770540769379
21	0xbfe50f2bc8b97ee3	-0.6581019325639911
22	0xbfcc450b4f0fd160	-0.2208570610088243
23	0xbfb4e8d8c3ea3858	-0.08167795928076893
24	0x3fd495f89a961093	0.32165351005847603
25	0xbfd1690a7b8bddce	-0.2720361906535488
26	0x3fe695b7e7bc6877	0.7057761694043297
27	0x3fe56fe6e7854876	0.669909908474678
28	0x3fcb0e15f3ce20f0	0.21136736301946923
29	0xbfc09683fd2c7870	-0.12959337102887813
30	0x3ff7836d102ff000	1.4695864326777155
31	0x3ffdb376aa7eda7b	1.8563143405896472
32	0x3ffb80e012b69770	1.7189636927591572
33	0x3fde407a1682f7af	0.4726853580322041
34	0xbfc1b44cff32c82d	-0.13831484280450593
35	0x3ffd618c9ff6d6dd	1.836315750942439
36	0x3fe3921f6a2a06a5	0.6115872453230692
37	0x3fd3c47990e77cbb	0.30886687422566766
38	0x3fe3694705273abc	0.6066012478493898
39	0xbfd5a07f26f32986	-0.33792094043442267
40	0x3fe47aa27f3c9f84	0.639970062741654
41	0x3ff3a6672b150f09	1.2281257326985175
42	0x400412e3c6a82186	2.5092235107478613
43	0x3fcd2c7e8c9f1b7b	0.2279203592899782
44	0x3f6f6dc3e2431e85	0.0038365197998223043
45	0x3fec28821cc404ef	0.8799448549108585
46	0x3fc27aa725cfb1a5	0.14436807008986566
47	0x3fea15e906fd3ac1	0.8151745926387194
48	0x3ff927d684bf076d	1.5722260651968682
49	0x3f9fa3ea641ae5e8	0.03089872585289824
50	0x3fe44299b4480c48	0.6331299325105499
51	0xbfcd30e934182a94	-0.22805514377281055
52	0x3fb03e9c8e88790f	0.06345537643253273
53	0x3ff70f134fd671ab	1.4411805266055164
54	0xbfcc947460d2ae4d	-0.22328047492679773
55	0x3fe361a095fb1a42	0.6056673936189514
56	0x3fe6157e4d8e0114	0.6901237025013267
57	0x3fff212e20ea8c22	1.945600632265958
58	0x3fea6eea20428c6f	0.8260393743588689
59	0x3ff392e89c6379a5	1.223366366284247
60	0x3fde4344690efb4a	0.472855665775502
61	0x3ff3c967ae5f8b4f	1.2366711436704525
62	0x3fd79a4b619ecd35	0.3687923863719392
63	0x3fe3f138bbf0c246	0.6231959982597537

conv1.att_dst f8 [1, 1, 64]
0	0xbfe90e2e5040d230	-0.7829810683675245
1	0xbfd69dcb80426107	-0.3533810379535826
2	0x3fe0646c202de27c	0.5122585896015859
3	0xbfb164bc32e6632a	-0.06794334643053604
4	0xc0000de42584349b	-2.0067828112574495
5	0x3fcdb19a1e865be8	0.23198248377295205
6	0x3fe0602409811252	0.5117359338406209
7	0xbfe705875fa005be	-0.719424902694463
8	0x3fdef6e68cece4a0	0.48381961595766576
9	0x3ffa3820b0b61228	1.6387030508786982
10	0xbfe53e129205727c	-0.6638272144296731
11	0xbfe6f174a9a73837	-0.7169745744265644
12	0xbfe6d0cb04dec31c	-0.7129874320145038
13	0x3fa22be3982711f4	0.03549109680492171
14	0xbfe3c836102d2b8f	-0.6181898418375215
15	0xbfe4709dac6e699a	-0.6387470596121603
16	0x3fc39c7100497527	0.15321171297083788
17	0xbfcf9eaf5b4b5d62	-0.24703018148168626
18	0xbfe67f941232c2dd	-0.703073535483863
19	0xbfe31581c3d5d264	-0.5963753533274709
20	0xbfd8422921be5e62	-0.37903812690044536
21	0x3ff608e55acdb764	1.377171854688151
22	0x3fd2057136c07a5f	0.28158216807233843
23	0xbfc22c9046513808	-0.1419849723192217
24	0xbfeda98541712e66	-0.9269434240499776
25	0xbfd124f242b454a2	-0.2678800250444714
26	0x3fd6d84094ffdf62	0.3569489913056626
27	0xbff0efe3d7ce5a99	-1.0585668973850828
28	0x3fe45d3bf6a1f38c	0.6363811318438919
29	0x3fdce7453d897c7a	0.4516156292865571
30	0xbff3e21d6ea40671	-1.2427038499739889
31	0x3fd3e040ecccae95	0.31056235432581875
32	0xbfca14a1221486d8	-0.20375456012793935
33	0xbfcc05a95c1d4abd	-0.21892277715467925
34	0x3fee5c6c1598e22b	0.9487820073910077
35	0xbff2f60393e67df0	-1.1850620057447223
36	0xbfefafa705ecc1fe	-0.9901919475287853
37	0xbfeadf0ce189acfd	-0.8397278218302798
38	0x3fd21a3ae54571f9	0.28285095586559766
39	0xbfc77bd5ce6fb447	-0.18346664981746327
40	0xbfdaaa70558304d8	-0.4166527590824223
41	0xbff538d9d10cffb5	-1.3263796011014908
42	0xbfdb17dde4ae31fc	-0.4233317120749971
43	0xbff36a95ca2791ab	-1.2135217568075898
44	0x3ff08e119185ef79	1.0346847233294894
45	0xbff55945f89a8773	-1.3342952452735204
46	0xbfec0f07846a907f	-0.8768346391921255
47	0x3fa6690512690efc	0.04376998758064407
48	0xbfe496e388ce5616	-0.6434190437309464
49	0x3feb3cdc892cfac0	0.851179378434459
50	0xbfc54f3467121809	-0.16647963555095682
51	0xbfe871599d1eb3d1	-0.7638366764782579
52	0x3fe726904a1b2364	0.723457474458979
53	0xbfe24ccc433f2f41	-0.5718747437872268
54	0xbfd0054608a37f2a	-0.25032187312716536
55	0xbfea1b0f2ea24212	-0.8158031378571329
56	0x3fd7fa50caeae47e	0.3746530515305223
57	0xbfb9d2be928d5c82	-0.1008719547074737
58	0x3fde1e45aad89b5a	0.4705976646823068
59	0xbff8fa225ad9115c	-1.561067919611637
60	0xbfecfe1ba28ea1be	-0.9060190367645686
61	0xbfd4b5eec226c038	-0.32360428772063043
62	0xbfeaa02fe28aeb57	-0.8320540833150102
63	0x3fb16234197227f8	0.0679047166942438

conv1.bias f8 [64]
0	0x4053a19d843e4c90	78.52523904880422
1	0x4053bcbf7048eccf	78.94918448564134
2	0x4053bd03ed35be0e	78.95336466072351
3	0x4053b4856d72d135	78.82064377033824
4	0x405374e32220c600	77.82636311722308
5	0x4053b9365dc2d063	78.89394325280004
6	0x4053882ed4012304	78.12785816298498
7	0x40539558a370eb29	78.33353506114203
8	0x405398868e4709ce	78.3832126325353
9	0x40539bd055cba732	78.43459076774596
10	0x4053b2634da24bc6	78.78731098984926
11	0x4053986dfebdea79	78.38171356722331
12	0x4053b3672778151d	78.80317103125385
13	0x4053c55796b041fe	79.08347098553347
14	0x4053c690f506afe8	79.10259748127976
15	0x40540bfae3183ee9	80.18718793266056
16	0x4053cc9a5263fe5f	79.19691905751232
17	0x4053794cf9e1eef2	77.89532324851805
18	0x405390534b3dca3d	78.2550838569086
19	0x4053beb6aed8a479	78.97990008503429
20	0x4053b64c565e9944	78.8484092639747
21	0x405393af17dad7e4	78.3075618397848
22	0x4053c92837fa6f10	79.14307975250654
23	0x4053dd4be8c983a5	79.45775813750386
24	0x4053c0eb0b88afae	79.01434601162211
25	0x40538838c8354bb7	78.12846570210137
26	0x4053ce1f7c3ffc0b	79.22067171333781
27	0x4053c7905ad073c7	79.11818571430841
28	0x4053dc50b2fcaf78	79.44242548633872
29	0x405396bc1ab4cf12	78.35523097664944
30	0x405388888862b322	78.13333329809805
31	0x4053e9c3291c75d9	79.65253665713625
32	0x4053995efd8d30f9	78.39642275608266
33	0x40538fea85c5d0c5	78.24868912046357
34	0x4053d1a585e552f5	79.27572772402694
35	0x405389b37e574fb4	78.15158041502474
36	0x4053b9db4d6df397	78.90401015984968
37	0x4053c821e0b1caf8	79.12706773150046
38	0x4053bd649a53d270	78.95926531015152
39	0x4053c767afec8a94	79.11570356464136
40	0x40539b2657f6a9a2	78.42421530807636
41	0x4053d2873064e175	79.28950128413801
42	0x4053a87db3400c7e	78.632672131107
43	0x4053bf52a6398d62	78.98941951389637
44	0x40535abd58e47f51	77.41780683817093
45	0x4053d11d095e3b45	79.2673972530584
46	0x4053a363c620bb5e	78.55296471783137
47	0x4053b72d8f2a858e	78.86215571548948
48	0x405357530caebde1	77.3644439417326
49	0x4053e70f2ae568ae	79.61030075457776
50	0x4053ec0b5f710036	79.68819414172398
51	0x4053d580e54be9af	79.33599216855394
52	0x4053b95743eab8be	78.89595125124012
53	0x4053d13e1afbd5b2	79.26941561310994
54	0x40538b65f99f7fa6	78.17809906555212
55	0x4053bd2ac9926e86	78.95573653507208
56	0x4053af9e9279a525	78.74405347709087
57	0x405381d22f038a32	78.02845359178244
58	0x405372f00f26af6e	77.79590204980715
59	0x4053bbd91a6b3679	78.93512592763899
60	0x4053a2582c16d95c	78.53663160544733
61	0x4053a38b72f8398b	78.5553862976141
62	0x40538792614ff8ed	78.11830933389474
63	0x4053bc573df16f3c	78.94282482698048

conv1.lin_src.weight f8 [64, 3]
0	0x4052e29a73c727b8	75.54067701767678
1	0xc03afba89e8c3a75	-26.98304167674583
2	0xc050ba589e7a6cef	-66.91165887790315
3	0x405333302f3ce7c6	76.79981594989576
4	0xc03b8e545f6aec06	-27.555974925617214
5	0xc050c903da4c2012	-67.14086015161618
6	0x4053070938e44643	76.10993788044384
7	0xc03b67cd03970bf9	-27.405472015740063
8	0xc050df7dc0798417	-67.49205028406901
9	0x4053241c63a4e022	76.56423274136662
10	0xc03be81a5ff14833	-27.90665244713473
11	0xc050e2b1fefc9d54	-67.54211401624099
12	0x4052ccd89c655468	75.20072088141899
13	0xc0393867a129287e	-25.22033126120413
14	0xc0504dda2dc90f53	-65.21644158015015
15	0x4052b6055cc090ca	74.8440772896312
16	0xc03a6b6fd835deb7	-26.41967536273179
17	0xc0509dd2db5ce98f	-66.46599468301268
18	0x4052f2c53c70bcbc	75.79328833589074
19	0xc03ab7872092d278	-26.716905628056764
20	0xc050f658766fcfb0	-67.8491493312747
21	0x4052df6bc7220456	75.49095323869673
22	0xc039ccf442e8bb45	-25.800602132624835
23	0xc050865e4fa7fbcd	-66.09950629620216
24	0x4052e9a4dc9c9d56	75.65068736357111
25	0xc039ed2ade159794	-25.926435356399068
26	0xc050ec5df24883cf	-67.69323403436213
27	0x40526efc210e3dc2	73.7341387404513
28	0xc03d43aa1837b1fb	-29.264314187619657
29	0xc050b0f25c4a54c0	-66.76479251154797
30	0x4052f464576a6b6d	75.81862435715239
31	0xc03b053f11bcdde3	-27.020493610963864
32	0xc050ad7b98b9e9ed	-66.71066873698847
33	0x4052ac1a9689b793	74.6891228051084
34	0xc03b3fc498d4d32d	-27.249093582114416
35	0xc0508ed4a75d5c7d	-66.23172935597718
36	0x405303c4c7c64bcf	76.0588855205999
37	0xc039baa4f7ac7657	-25.72907970390801
38	0xc050bc5d33d3886e	-66.94318862588418
39	0x4053061417902721	76.09497632100512
40	0xc03b4cdce3f0ddd4	-27.30024551992922
41	0xc050f606acf3fd44	-67.84415744616587
42	0x40533e172900226a	76.97016358388069
43	0xc03a0740d7dce920	-26.028333178933394
44	0xc050e66e68daf43b	-67.60048886663655
45	0x40533f37859ae507	76.98776378752164
46	0xc03b002d2e591a15	-27.00068940806712
47	0xc051111e13f1c24a	-68.26746080979606
48	0x4052f259c2e5a877	75.78672859599634
49	0xc03c9081373f8223	-28.564471676831214
50	0xc0510cce7550c9e3	-68.20010121240152
51	0x4052cfc94acaa3c7	75.24666089810408
52	0xc039464c22248c12	-25.27459920303597
53	0xc050ac4c73368e84	-66.69216614082148
54	0x4052d8bc91558258	75.38650925970558
55	0xc03a20431157fdf0	-26.12602337263337
56	0xc050984c5c84b50b	-66.37966072997749
57	0x4052ec2717f131d5	75.6898860793511
58	0xc03c2afcdf79c21d	-28.167921035028588
59	0xc050a53e8862752a	-66.58194169631011
60	0x4052c706f93b478c	75.10980063237201
61	0xc03b1f419bb3835a	-27.12209485180515
62	0xc050ffca7c6086a0	-67.99673375536304
63	0x40529d8d1d8409da	74.46173799414046
64	0xc03be87571420e46	-27.908042029024976
65	0xc050b8c34098678f	-66.88691725619559
66	0x405320eca9ffa19e	76.51444482769008
67	0xc03b868b5405187b	-27.525563479656267
68	0xc05100b618df818f	-68.01111432863966
69	0x4052d05ea4457a48	75.25577647004059
70	0xc03a8b7f62977f02	-26.544912492739066
71	0xc050e329adf65f66	-67.54941891727285
72	0x40531b3558eda49c	76.4251310654385
73	0xc03a930f00c7841e	-26.574447678289395
74	0xc050b94d0f1004ec	-66.895328298229
75	0x4052d5e2eeae7d9b	75.3419758514414
76	0xc0398742826ae243	-25.528358603567778
77	0xc05072572335ca94	-65.78656845334109
78	0x405305c5b489cadf	76.09019196945472
79	0xc03b0dc085c9799c	-27.053718911827318
80	0xc051305007156393	-68.75488450135008
81	0x40530a5de7239832	76.161981377373
82	0xc03a0543cc044e3f	-26.02056574921721
83	0xc050b6538df86813	-66.84884976633502
84	0x4053319d755aa34d	76.77523549891812
85	0xc03bc32ebed6b039	-27.762432029165414
86	0xc0510cdd966f7799	-68.20102463613001
87	0x4052f2210648ea49	75.78326565857527
88	0xc03cd58595bcde65	-28.83406959401181
89	0xc050cc0220ecdeeb	-67.18762992031013
90	0x4052defd6ed74213	75.48421832104968
91	0xc03ae9153c44553a	-26.910480276758996
92	0xc0508567ad4df3a5	-66.08445294010615
93	0x40530ee11bf53be9	76.23248957584987
94	0xc03c97bf6af6cec5	-28.592764554267678
95	0xc0511caf33f84a26	-68.44819354292903
96	0x4052c892aedf3f22	75.13395282555987
97	0xc03b5a650d26078b	-27.35310442141012
98	0xc050dd2f11f1cc72	-67.4559979306521
99	0x4052d4b0c24ec33a	75.32328851405774
100	0xc03941a7c3b2e7d2	-25.256466132333863
101	0xc050bd1335ef1281	-66.95429752680685
102	0x40532a62840083b3	76.66226291704406
103	0xc03cbcc3d4a44dbb	-28.7373631383068
104	0xc0513b8d61cf4772	-68.93050427667711
105	0x4052bedd9ae3e799	74.9822756982452
106	0xc03a925c928ab9c6	-26.571725043171476
107	0xc0508586877d6fb3	-66.08633601426736
108	0x405341cb741d6932	77.02804282066498
109	0xc03b82db98cad8a3	-27.511163281939513
110	0xc050a2a00a9a8cd2	-66.54101815312177
111	0x40530451629b3982	76.06746735724121
112	0xc03aea14d0faf167	-26.91438013197458
113	0xc050c5b314a11c39	-67.08905521138594
114	0x40532f88f47d4ce8	76.7427340720784
115	0xc03cd842d75b6b65	-28.844769916362015
116	0xc050d5fb3d34019b	-67.34345941618669
117	0x4052f1b8f2fc6391	75.77691340110165
118	0xc03af2d136d3df13	-26.94850485489503
119	0xc050a49cac3f2c6e	-66.57206255120556
120	0x40532842a4463048	76.6290674863277
121	0xc03c4e89fe2091a6	-28.306793101264383
122	0xc050a4e8643d53a8	-66.57668405522293
123	0x405334476c5f1bc7	76.81685933387699
124	0xc03b6895673a1059	-27.40852971236777
125	0xc050e7f52055e294	-67.62433632266249
126	0x4052a68f437a6054	74.60249411536034
127	0xc03aca78eb76ca82	-26.790907589437218
128	0xc0508ee51cb20a2f	-66.23273389231393
129	0x40530f43ee99e6b2	76.2385212424222
130	0xc039f060b3ae9738	-25.93897555363148
131	0xc05098d75d81dfcb	-66.38814485247637
132	0x4052958dfac336ba	74.33679074348302
133	0xc03bf5f0030ab809	-27.96069354068462
134	0xc05066f01389c25f	-65.60840309575131
135	0x4053437345dab303	77.05391069753027
136	0xc03bdd58edb51c6c	-27.864638191906508
137	0xc050dc4ce181136e	-67.4421924362666
138	0x4052f308e7f2520b	75.7974185816203
139	0xc03a18d43472fd7e	-26.09698798949602
140	0xc050aa9905ec1310	-66.66558979086062
141	0x4052c400b4de9d1f	75.06254312266945
142	0xc03a89056cc71738	-26.535239027601364
143	0xc050ef6e3d689040	-67.74110350810315
144	0x4052a0fff9a43a52	74.51562348401902
145	0xc039a92d5727907e	-25.660848090323718
146	0xc050937860b78886	-66.3042222778623
147	0x4053618ad5954c4a	77.52409877376445
148	0xc03d8924ab11e8ab	-29.535715762970238
149	0xc0517acd563cb384	-69.91878276756148
150	0x40533c671775d7e2	76.94379221447119
151	0xc03b51f9f293e566	-27.32022014723534
152	0xc0510fbe7586d7cf	-68.24599970024359
153	0x40532dd8b06bd2f2	76.71635065583885
154	0xc03a5c6562ee97d8	-26.360922034502295
155	0xc050d93c09e711a9	-67.39428947034197
156	0x405320a9a907e91d	76.51035524151344
157	0xc03b7334cc364192	-27.450024379011275
158	0xc050f689e899a87d	-67.85216727262191
159	0x405327c833acbde4	76.62159435147584
160	0xc03b0657196f0dc4	-27.024766530621278
161	0xc050de1a7a7d9645	-67.47036611809115
162	0x4052dac377b852b0	75.41818039894383
163	0xc03aa4c3f959ee7d	-26.643615326362568
164	0xc050a65dc0267124	-66.5994720817003
165	0x405336049af99690	76.84403108953325
166	0xc03b47543d5cd3fa	-27.278629145777792
167	0xc050bf5193febc9b	-66.98935413242945
168	0x405302a8bb8b6a03	76.0415486203638
169	0xc03c0a45e0123920	-28.04012871212865
170	0xc050dbbf0a858697	-67.43353522338508
171	0x40526ae2143b02a1	73.67004876864168
172	0xc03a32488a9cb117	-26.19641939473612
173	0xc050a2ba988afb15	-66.54263890812247
174	0x4052e7d9906dd4e9	75.62265406347036
175	0xc03b9582047c86d5	-27.584015159990333
176	0xc050a0de5dd2711b	-66.51357217360457
177	0x405328ba1b3e619e	76.63635903446126
178	0xc03aed5ca85edfd4	-26.927195094263723
179	0xc050b3de9e7a336e	-66.81046258863145
180	0x4052df9110463261	75.49322897772937
181	0xc03a0f5946eabc91	-26.059956009205568
182	0xc05078b7b7b1b184	-65.88621322968362
183	0x4052f4689a805f33	75.8188844922668
184	0xc03a321b96a2f5f6	-26.19573346594367
185	0xc050b9bc90959a4a	-66.90213408097875
186	0x4052c787f3832c67	75.11767280397326
187	0xc039e5dbccea3dbe	-25.897885138690746
188	0xc0506acb6c81d52e	-65.66866600684145
189	0x4052ebc9dbaa8757	75.68419543889227
190	0xc03a8fca6e2c2b02	-26.561682592185214
191	0xc050c41648262e6f	-67.06385997513438

conv1.lin_dst.weight f8 [64, 3]
0	0x4052e29a73c727b8	75.54067701767678
1	0xc03afba89e8c3a75	-26.98304167674583
2	0xc050ba589e7a6cef	-66.91165887790315
3	0x405333302f3ce7c6	76.79981594989576
4	0xc03b8e545f6aec06	-27.555974925617214
5	0xc050c903da4c2012	-67.14086015161618
6	0x4053070938e44643	76.10993788044384
7	0xc03b67cd03970bf9	-27.405472015740063
8	0xc050df7dc0798417	-67.49205028406901
9	0x4053241c63a4e022	76.56423274136662
10	0xc03be81a5ff14833	-27.90665244713473
11	0xc050e2b1fefc9d54	-67.54211401624099
12	0x4052ccd89c655468	75.20072088141899
13	0xc0393867a129287e	-25.22033126120413
14	0xc0504dda2dc90f53	-65.21644158015015
15	0x4052b6055cc090ca	74.8440772896312
16	0xc03a6b6fd835deb7	-26.41967536273179
17	0xc0509dd2db5ce98f	-66.46599468301268
18	0x4052f2c53c70bcbc	75.79328833589074
19	0xc03ab7872092d278	-26.716905628056764
20	0xc050f658766fcfb0	-67.8491493312747
21	0x4052df6bc7220456	75.49095323869673
22	0xc039ccf442e8bb45	-25.800602132624835
23	0xc050865e4fa7fbcd	-66.09950629620216
24	0x4052e9a4dc9c9d56	75.65068736357111
25	0xc039ed2ade159794	-25.926435356399068
26	0xc050ec5df24883cf	-67.69323403436213
27	0x40526efc210e3dc2	73.7341387404513
28	0xc03d43aa1837b1fb	-29.264314187619657
29	0xc050b0f25c4a54c0	-66.76479251154797
30	0x4052f464576a6b6d	75.81862435715239
31	0xc03b053f11bcdde3	-27.020493610963864
32	0xc050ad7b98b9e9ed	-66.71066873698847
33	0x4052ac1a9689b793	74.6891228051084
34	0xc03b3fc498d4d32d	-27.249093582114416
35	0xc0508ed4a75d5c7d	-66.23172935597718
36	0x405303c4c7c64bcf	76.0588855205999
37	0xc039baa4f7ac7657	-25.72907970390801
38	0xc050bc5d33d3886e	-66.94318862588418
39	0x4053061417902721	76.09497632100512
40	0xc03b4cdce3f0ddd4	-27.30024551992922
41	0xc050f606acf3fd44	-67.84415744616587
42	0x40533e172900226a	76.97016358388069
43	0xc03a0740d7dce920	-26.028333178933394
44	0xc050e66e68daf43b	-67.60048886663655
45	0x40533f37859ae507	76.98776378752164
46	0xc03b002d2e591a15	-27.00068940806712
47	0xc051111e13f1c24a	-68.26746080979606
48	0x4052f259c2e5a877	75.78672859599634
49	0xc03c9081373f8223	-28.564471676831214
50	0xc0510cce7550c9e3	-68.20010121240152
51	0x4052cfc94acaa3c7	75.24666089810408
52	0xc039464c22248c12	-25.27459920303597
53	0xc050ac4c73368e84	-66.69216614082148
54	0x4052d8bc91558258	75.38650925970558
55	0xc03a20431157fdf0	-26.12602337263337
56	0xc050984c5c84b50b	-66.37966072997749
57	0x4052ec2717f131d5	75.6898860793511
58	0xc03c2afcdf79c21d	-28.167921035028588
59	0xc050a53e8862752a	-66.58194169631011
60	0x4052c706f93b478c	75.10980063237201
61	0xc03b1f419bb3835a	-27.12209485180515
62	0xc050ffca7c6086a0	-67.99673375536304
63	0x40529d8d1d8409da	74.46173799414046
64	0xc03be87571420e46	-27.908042029024976
65	0xc050b8c34098678f	-66.88691725619559
66	0x405320eca9ffa19e	76.51444482769008
67	0xc03b868b5405187b	-27.525563479656267
68	0xc05100b618df818f	-68.01111432863966
69	0x4052d05ea4457a48	75.25577647004059
70	0xc03a8b7f62977f02	-26.544912492739066
71	0xc050e329adf65f66	-67.54941891727285
72	0x40531b3558eda49c	76.4251310654385
73	0xc03a930f00c7841e	-26.574447678289395
74	0xc050b94d0f1004ec	-66.895328298229
75	0x4052d5e2eeae7d9b	75.3419758514414
76	0xc0398742826ae243	-25.528358603567778
77	0xc05072572335ca94	-65.78656845334109
78	0x405305c5b489cadf	76.09019196945472
79	0xc03b0dc085c9799c	-27.053718911827318
80	0xc051305007156393	-68.75488450135008
81	0x40530a5de7239832	76.161981377373
82	0xc03a0543cc044e3f	-26.02056574921721
83	0xc050b6538df86813	-66.84884976633502
84	0x4053319d755aa34d	76.77523549891812
85	0xc03bc32ebed6b039	-27.762432029165414
86	0xc0510cdd966f7799	-68.20102463613001
87	0x4052f2210648ea49	75.78326565857527
88	0xc03cd58595bcde65	-28.83406959401181
89	0xc050cc0220ecdeeb	-67.18762992031013
90	0x4052defd6ed74213	75.48421832104968
91	0xc03ae9153c44553a	-26.910480276758996
92	0xc0508567ad4df3a5	-66.08445294010615
93	0x40530ee11bf53be9	76.23248957584987
94	0xc03c97bf6af6cec5	-28.592764554267678
95	0xc0511caf33f84a26	-68.44819354292903
96	0x4052c892aedf3f22	75.13395282555987
97	0xc03b5a650d26078b	-27.35310442141012
98	0xc050dd2f11f1cc72	-67.4559979306521
99	0x4052d4b0c24ec33a	75.32328851405774
100	0xc03941a7c3b2e7d2	-25.256466132333863
101	0xc050bd1335ef1281	-66.95429752680685
102	0x40532a62840083b3	76.66226291704406
103	0xc03cbcc3d4a44dbb	-28.7373631383068
104	0xc0513b8d61cf4772	-68.93050427667711
105	0x4052bedd9ae3e799	74.9822756982452
106	0xc03a925c928ab9c6	-26.571725043171476
107	0xc0508586877d6fb3	-66.08633601426736
108	0x405341cb741d6932	77.02804282066498
109	0xc03b82db98cad8a3	-27.511163281939513
110	0xc050a2a00a9a8cd2	-66.54101815312177
111	0x40530451629b3982	76.06746735724121
112	0xc03aea14d0faf167	-26.91438013197458
113	0xc050c5b314a11c39	-67.08905521138594
114	0x40532f88f47d4ce8	76.7427340720784
115	0xc03cd842d75b6b65	-28.844769916362015
116	0xc050d5fb3d34019b	-67.34345941618669
117	0x4052f1b8f2fc6391	75.77691340110165
118	0xc03af2d136d3df13	-26.94850485489503
119	0xc050a49cac3f2c6e	-66.57206255120556
120	0x40532842a4463048	76.6290674863277
121	0xc03c4e89fe2091a6	-28.306793101264383
122	0xc050a4e8643d53a8	-66.57668405522293
123	0x405334476c5f1bc7	76.81685933387699
124	0xc03b6895673a1059	-27.40852971236777
125	0xc050e7f52055e294	-67.62433632266249
126	0x4052a68f437a6054	74.60249411536034
127	0xc03aca78eb76ca82	-26.790907589437218
128	0xc0508ee51cb20a2f	-66.23273389231393
129	0x40530f43ee99e6b2	76.2385212424222
130	0xc039f060b3ae9738	-25.93897555363148
131	0xc05098d75d81dfcb	-66.38814485247637
132	0x4052958dfac336ba	74.33679074348302
133	0xc03bf5f0030ab809	-27.96069354068462
134	0xc05066f01389c25f	-65.60840309575131
135	0x4053437345dab303	77.05391069753027
136	0xc03bdd58edb51c6c	-27.864638191906508
137	0xc050dc4ce181136e	-67.4421924362666
138	0x4052f308e7f2520b	75.7974185816203
139	0xc03a18d43472fd7e	-26.09698798949602
140	0xc050aa9905ec1310	-66.66558979086062
141	0x4052c400b4de9d1f	75.06254312266945
142	0xc03a89056cc71738	-26.535239027601364
143	0xc050ef6e3d689040	-67.74110350810315
144	0x4052a0fff9a43a52	74.51562348401902
145	0xc039a92d5727907e	-25.660848090323718
146	0xc050937860b78886	-66.3042222778623
147	0x4053618ad5954c4a	77.52409877376445
148	0xc03d8924ab11e8ab	-29.535715762970238
149	0xc0517acd563cb384	-69.91878276756148
150	0x40533c671775d7e2	76.94379221447119
151	0xc03b51f9f293e566	-27.32022014723534
152	0xc0510fbe7586d7cf	-68.24599970024359
153	0x40532dd8b06bd2f2	76.71635065583885
154	0xc03a5c6562ee97d8	-26.360922034502295
155	0xc050d93c09e711a9	-67.39428947034197
156	0x405320a9a907e91d	76.51035524151344
157	0xc03b7334cc364192	-27.450024379011275
158	0xc050f689e899a87d	-67.85216727262191
159	0x405327c833acbde4	76.62159435147584
160	0xc03b0657196f0dc4	-27.024766530621278
161	0xc050de1a7a7d9645	-67.47036611809115
162	0x4052dac377b852b0	75.41818039894383
163	0xc03aa4c3f959ee7d	-26.643615326362568
164	0xc050a65dc0267124	-66.5994720817003
165	0x405336049af99690	76.84403108953325
166	0xc03b47543d5cd3fa	-27.278629145777792
167	0xc050bf5193febc9b	-66.98935413242945
168	0x405302a8bb8b6a03	76.0415486203638
169	0xc03c0a45e0123920	-28.04012871212865
170	0xc050dbbf0a858697	-67.43353522338508
171	0x40526ae2143b02a1	73.67004876864168
172	0xc03a32488a9cb117	-26.19641939473612
173	0xc050a2ba988afb15	-66.54263890812247
174	0x4052e7d9906dd4e9	75.62265406347036
175	0xc03b9582047c86d5	-27.584015159990333
176	0xc050a0de5dd2711b	-66.51357217360457
177	0x405328ba1b3e619e	76.63635903446126
178	0xc03aed5ca85edfd4	-26.927195094263723
179	0xc050b3de9e7a336e	-66.81046258863145
180	0x4052df9110463261	75.49322897772937
181	0xc03a0f5946eabc91	-26.059956009205568
182	0xc05078b7b7b1b184	-65.88621322968362
183	0x4052f4689a805f33	75.8188844922668
184	0xc03a321b96a2f5f6	-26.19573346594367
185	0xc050b9bc90959a4a	-66.90213408097875
186	0x4052c787f3832c67	75.11767280397326
187	0xc039e5dbccea3dbe	-25.897885138690746
188	0xc0506acb6c81d52e	-65.66866600684145
189	0x4052ebc9dbaa8757	75.68419543889227
190	0xc03a8fca6e2c2b02	-26.561682592185214
191	0xc050c41648262e6f	-67.06385997513438

conv2.att_src f8 [1, 1, 64]
0	0x3fcb66a526d8b194	0.21406998059081828
1	0x3fe2fa270f1b89bd	0.5930362029142128
2	0x3fea86f14ae59371	0.8289724791362528
3	0xbf9c7843da6414be	-0.027802524761700857
4	0xbfd115332e32c0a2	-0.26691894065425903
5	0xbfc15ace4e850846	-0.13558367570846225
6	0x3fde29b7275063bc	0.4712961086202616
7	0x3fd1fef939106beb	0.2811873490588243
8	0x3fddd7b66aa9004e	0.46629105011016214
9	0x3fe01be29020e81a	0.5034039320955828
10	0x3ff314e035c9935c	1.1925966359205722
11	0x3fe2c1d20b28772a	0.5861597268992444
12	0x3f74a2ccfb71c472	0.005038071357476347
13	0x3febddab852c6940	0.8708093262714911
14	0xbfd43a5294798799	-0.31605972766384977
15	0x3fe6e7ddff9b5915	0.7158040993042812
16	0x3fcfbf851d6471b4	0.24803222594426944
17	0x3fcda112b345263a	0.23147805932448923
18	0x3fe1c5eca744eabf	0.5554106966950129
19	0xbf99d28c99cfeb28	-0.02521724404139572
20	0xbfcdd7812ecde31f	-0.2331391790901529
21	0x3faa8f03655f72bf	0.051872354626288246
22	0x3fdc502d71aa4bf4	0.44239364719504626
23	0x3fe7b2ed70e4a7d9	0.7405917363114397
24	0x3fed7bd44c42e209	0.9213658799627079
25	0x3fe0babff278fef0	0.5227966056627036
26	0x3feaab0dcb262dde	0.833380600715312
27	0x3fe008ec189df589	0.5010891419221234
28	0x3ff1a8b5da8bcea5	1.1036890541990172
29	0x3fe700b984460ed3	0.7188384612531656
30	0xbfb188a33ff634d0	-0.06849117576185226
31	0x3ff441c99e2146ef	1.2660614182427101
32	0x3feb0ffe50485357	0.8457023208635331
33	0x3fd5bb8678eed685	0.339570634935946
34	0x3fda4a129122b97e	0.41077102826502443
35	0x3faff2a8b109143c	0.062398215876364266
36	0x3fe14deddf5a8dca	0.5407628404977285
37	0xbfcfb6501dc430e2	-0.24775124982296065
38	0x3feaa22ff6c32978	0.8322982616021326
39	0x3fe930bd9c753907	0.7871997886484515
40	0xbfa74ff676622741	-0.04553194232091907
41	0x3fbd28c61d4583ee	0.11390341009747804
42	0x3fd12b74cf4d91ce	0.2682773613398951
43	0x3fd470fbcdc5f341	0.31939597220462096
44	0x3fed813d7a1e3a85	0.9220263848418006
45	0x3fe60db41a7c57f1	0.6891727940844686
46	0xbfad88e49af0189c	-0.057685035622897035
47	0xbfd39e816cc11a74	-0.306549411969548
48	0x3fd248f0d1c8f181	0.2857019470864302
49	0x3fdd8f6e8bf9825c	0.4618793837489983
50	0x3fa3de4adb39e3c0	0.038805331479074834
51	0x3fdc81450697f3bf	0.4453899921789421
52	0x3fc640532b49c0cf	0.17383803952862428
53	0x3fe2291d5323ab86	0.5675188659491688
54	0x3fc098a4272d79fc	0.1296582404419978
55	0x3fe9934346445446	0.7992264149094204
56	0x3fea0e3adda133c2	0.814237053747654
57	0x3fe527bc74d61f3f	0.6611006051980225
58	0x3fe5118c909dc28a	0.6583922218834044
59	0x3fd33f66f6f427f4	0.3007447635324063
60	0x3fdd9c2678f39e44	0.46265565692599275
61	0x3fe7e6822204fbed	0.7468882240717655
62	0x3fe7024b08f0e421	0.7190299200657401
63	0x3fdc6e33b37d856f	0.4442261936984186

conv2.att_dst f8 [1, 1, 64]
0	0xbfb9f97662c0aa00	-0.10146274481727602
1	0xbf6bed4b45032d13	-0.0034090490445116777
2	0xbfc1c616cc5047c0	-0.1388576982140517
3	0xbfb099c89a6663f1	-0.06484655160456022
4	0xbfd3c4fc279cedab	-0.30889800899941616
5	0xbfd24704cda07f10	-0.2855846412730765
6	0x3fcedb0585a67d20	0.24105900789161527
7	0xbfccf95801aefe84	-0.22635936815457935
8	0x3fb115c8333fd7c0	0.06673861743169507
9	0xbf8a706770382012	-0.0129097062226862
10	0x3fd3c3c44d7680e3	0.30882365765320524
11	0xbfc5cc78df4687ea	-0.17030249502300815
12	0xbfc854d6e68f65f4	-0.19008909471339985
13	0xbfabbaea159ed4c8	-0.054160418643201036
14	0xbfc414df1cd0e021	-0.1568869486525282
15	0x3fa14d170835345a	0.033791274787838346
16	0x3fc2f75f205abe0f	0.148174181745603
17	0xbf9a53d994fed21e	-0.02571048709769929
18	0xbfafe3d0921fe130	-0.06228496345278456
19	0x3f9f53a132acabc9	0.030592459409642978
20	0x3fb03f1a1b12bf0e	0.0634628597351787
21	0xbfd142552c960c3d	-0.26967362741578765
22	0xbfd404f6abeea96c	-0.31280295171986583
23	0xbfb97ef09b33f060	-0.09959319867260907
24	0x3fbf20baac8bcc05	0.12159315788794352
25	0xbfcd6f37dc653d24	-0.22995661031243586
26	0x3fa47e6e2eb86ca7	0.04002708740537147
27	0x3fcd30e01ae5f8fb	0.22805405915637053
28	0x3fd57cbae6819cca	0.3357379199064324
29	0x3f970d8256ef30cc	0.022512470775652813
30	0x3fcaec0ec41b13b1	0.21032890868641865
31	0x3f9693025ae64309	0.02204517059141423
32	0xbfd3eda6dbd4bc8c	-0.3113801142489556
33	0x3f9238780bba4666	0.017793536868856562
34	0xbfd3cf775bc436fa	-0.3095377346188425
35	0xbf4ead4cd5f34480	-0.0009361863302733836
36	0xbfc166d9b9fc3da8	-0.1359512479907441
37	0xbfb89bb1fa1b275f	-0.09612572055916989
38	0x3fcc332d43e06842	0.22031179250990546
39	0xbfd5a2e8fa7d9730	-0.33806824171039107
40	0xbfcbda717f9bb4ec	-0.2176038621031816
41	0x3fc55595eb902569	0.16667436601737087
42	0x3fb12f0ab173663c	0.06712405044836428
43	0xbfcb05b2abc95a37	-0.21111138713850305
44	0x3fd1a527afc97ac2	0.27570526282026375
45	0x3fae905544aac5e0	0.059694924003803385
46	0x3fa21e09f3e1317c	0.03538542844816825
47	0xbfd62ef45dba9640	-0.34661587861259946
48	0x3fb20f5ae77f4798	0.07054680015360615
49	0xbfc15c3ae991f5ee	-0.1356271400908748
50	0x3fd497249ec3579c	0.3217250395222153
51	0x3fb833527e00bcf1	0.09453311516039144
52	0xbfc329081f3bfda8	-0.14968968892206402
53	0xbfa4d8cc0ca884ff	-0.040716530366134755
54	0xbfd1046317143ea3	-0.26589276555839997
55	0x3fb4f24571309887	0.08182176602767487
56	0x3fd58a5131a6fc1e	0.33656720970970067
57	0x3fcf1860b69d3106	0.24293145100308083
58	0xbfc01e61632b5323	-0.12592713682411114
59	0xbfd20666590dfaac	-0.2816406125711335
60	0x3fc74be95c2cda71	0.18200413704626642
61	0xbf91253d9f601484	-0.01674362454652513
62	0x3fbe63e455b298c1	0.11871172992923375
63	0x3fb0db9b5e3f304b	0.06585093546817793

conv2.bias f8 [64]
0	0x405114e496f5a130	68.32645200717229
1	0x4050d4042691f26c	67.3127533364547
2	0x4050cc4937c5f602	67.19196886379362
3	0x4050e8c8326484e1	67.63721904579462
4	0x4050bc1077833f30	66.93850505654405
5	0x4050dbefe58604a1	67.43651712501243
6	0x4050eac5c9e1547e	67.66832205777061
7	0x4050dd89bfde0a84	67.46153256114673
8	0x4050d2d65513b901	67.29433180738489
9	0x4050c7877711d113	67.11764313449775
10	0x4050cd6c6451b89f	67.20974071484169
11	0x4050d66dbc962b9c	67.35044779458116
12	0x4050e1970785b08b	67.52484310203197
13	0x4050dd20b598531d	67.45512142062621
14	0x4050cd7a4bcbccca	67.21058936025943
15	0x4050b414708a3a7a	66.81374753474111
16	0x4050be4b675bacc2	66.97335227921124
17	0x4050e63e3033f04b	67.59754567215093
18	0x4050c924a5f551c4	67.14286183316204
19	0x4050dae6a2b1ba1e	67.4203268752685
20	0x4050d7209c516b5b	67.36136539412603
21	0x4050cad9983a3c2f	67.16953092276593
22	0x4050d04be58b77d4	67.25463236446313
23	0x4050d01769aaa946	67.2514290014852
24	0x4050bc5e6d9aadc0	66.9432634363684
25	0x4050d3d3a48f25c6	67.30979265193227
26	0x4050c35e60069359	67.05263519899508
27	0x4050e87414a69f84	67.63208500167644
28	0x4050bff62a7334df	66.99939976931226
29	0x4050c6317de471c2	67.09677073773403
30	0x4050e05282296c8a	67.50503591580687
31	0x4050c8d34b065e29	67.13789630529267
32	0x4050cb1406658a5d	67.17309722820342
33	0x4050ef53344abf3a	67.73945338534841
34	0x40510a23603e15c9	68.1584091764736
35	0x4050d8cf8c26108a	67.38766769139525
36	0x4050de3a47e99fdb	67.47230718436133
37	0x4050bb053f8fda7e	66.92219533012573
38	0x4050ce03a378f952	67.21897208036287
39	0x4050e4870f7e4bb5	67.5707434399945
40	0x4050f46704898402	67.8187877028395
41	0x4050c68fb01662e4	67.10252000986253
42	0x4050d1951185713a	67.27472341567491
43	0x4050f678388e0a92	67.85108770247669
44	0x4050c09934c2ee0b	67.00935095821494
45	0x4050ed08d2861059	67.70366347400831
46	0x4050cbc54d0f2cd1	67.18391729814472
47	0x4050f095d666bc0c	67.75914535553619
48	0x4050d53de3504fe5	67.33190234034517
49	0x4050d1903d1500b5	67.27442862559367
50	0x4050c470b4fb0248	67.0693790866145
51	0x4050d34c30e24203	67.30152532668585
52	0x4050f23de66e906d	67.78502808377534
53	0x4050fd28b4cfe5a9	67.95560951521351
54	0x4050f4f78ec9a176	67.82760972681521
55	0x4050d3a3ca447698	67.3068719547831
56	0x4050c3aa6b7619f7	67.05727659734099
57	0x4050dd57626c9f24	67.45845852477629
58	0x4050d88468c1cdae	67.38308161665074
59	0x4050ddf3fdd45771	67.46801706062776
60	0x4050e8b60438b71f	67.63610940493207
61	0x4050e3a655b2355e	67.55702726748629
62	0x4050d51d25dc17a8	67.3299040459957
63	0x4050d86ecc7b2bdb	67.38176261928986

conv2.lin_src.weight f8 [64, 64]
0	0x40525339d6237796	73.30040505851352
1	0x40523b1b24a1da0b	72.92353168302377
2	0x40524d4bbee63a07	73.20774815066407
3	0x4052896d8e6db7af	74.14731178965188
4	0x40523cabdbcaef23	72.94798941438471
5	0x4052916d0b2dd216	74.27228049730942
6	0x40522b1aa1509544	72.67350037450257
7	0x405228ce57cbea6d	72.6375941745152
8	0x40524f68ffdf66ea	73.240783661047
9	0x4052932ef3c5b6ac	74.29974073703733
10	0x40522df0ccfe7d54	72.71782231190201
11	0x4052595d6751077a	73.39632590210923
12	0x40526cc506528193	73.69952543313256
13	0x40525312276fadaa	73.29798303514568
14	0x405274396a7ea1ba	73.81600439421064
15	0x4052af153dbdd132	74.73567145859559
16	0x4052c6bae0a317c7	75.1051560967163
17	0x4051faab96503f42	71.91672284924155
18	0x405265c08f30abf6	73.58987788918589
19	0x40528e38b2b3dcd9	74.22221057476726
20	0x405266a6b10fabd3	73.60392405062093
21	0x405246cb2d9a5cfc	73.10615100931676
22	0x40528e4eecf7a65a	74.22356723961403
23	0x40526543511b0e54	73.58223369257149
24	0x40527332b332723c	73.79996948171987
25	0x405215209bc7ad51	72.33011526584347
26	0x40527b68a0aadc53	73.92826096234903
27	0x40527f3f5c96f8b6	73.98824228995622
28	0x4052ac10005cd591	74.68847664895863
29	0x40523ec29f7afe26	72.98062884341252
30	0x40521a99440506c4	72.41560459605085
31	0x40529f69e02f64e8	74.49083714130722
32	0x405245ea205868bc	73.09241493829444
33	0x40523042904cf619	72.7540627242637
34	0x40527be5658a4735	73.9358762598393
35	0x4052308c1c172436	72.75855161914737
36	0x40520f9e3c165692	72.24403288060628
37	0x4052b82cd5f4250a	74.8777365574098
38	0x40527bf9790494c2	73.93710160682079
39	0x40524734b1c2fe5e	73.11259120981546
40	0x40521131636e6512	72.26863942890876
41	0x4052a2565012b53e	74.53651811434699
42	0x40529881492f1bec	74.38289098358626
43	0x405257b5225992f1	73.37043055293522
44	0x4052495f08a4b296	73.14642540057898
45	0x4052791cb8f2fe13	73.89237807969793
46	0x4052477acabf8677	73.11686962798727
47	0x405293aa453305e8	74.3072674749634
48	0x40521acc6f5f1b44	72.41872772491212
49	0x4052a470e977c843	74.56939160058486
50	0x4052a491d6908392	74.57140125382128
51	0x405270d2f6527363	73.76287611057118
52	0x40522187fbd2054e	72.52392478475414
53	0x40526ffce6fa8976	73.74981092897892
54	0x40524bdbb3562ab9	73.18528445639357
55	0x4052654a83e5fa2a	73.58267304857932
56	0x40528b68d9fbade2	74.17827462747621
57	0x405280355f857301	74.00325763733055
58	0x405214b1b846dd25	72.3233471576719
59	0x405293731f3061cf	74.30390147900401
60	0x4052324d7aebd9f3	72.7859790137516
61	0x40527279d8a16cbf	73.78868690265789
62	0x40524c36ae89e9f5	73.19083751171259
63	0x4052635af1713e05	73.55242572840514
64	0x40530cbed0759647	76.1991463802634
65	0x40531fd34a6a12d4	76.49727115973229
66	0x40533476fbec5a82	76.81976221162225
67	0x4052f6f2ab798033	75.85856139054594
68	0x4052d2e7e63dc46c	75.2954040148922
69	0x40530cd4e191f78c	76.20049323324764
70	0x405303ad1618a40f	76.05743935018857
71	0x4052cb0b01693ca2	75.17254672314678
72	0x4052f3f6c7771dbd	75.81193720467031
73	0x405346bd10b39235	77.10528962646715
74	0x40531581724cee6b	76.33602578652214
75	0x4052f135011ec05c	75.7688601303393
76	0x4052fadf7e009dd6	75.91989088115892
77	0x405332a78783685e	76.79147517998487
78	0x405313f2f39263dc	76.3117035798636
79	0x40536a58c67144a6	77.66166840611785
80	0x40532432d074d750	76.56560145769367
81	0x4052b954c654ae78	74.89579923886947
82	0x4052dd6fc4b34893	75.45994679935602
83	0x40531cea652be445	76.4518063477163
84	0x4053097acc428e25	76.14811998843705
85	0x40533480f608d937	76.82037115921126
86	0x405325b78f2033e1	76.58932855744162
87	0x40532bc1f21fbc41	76.68371251200826
88	0x40531edfab5e25cb	76.48240169710259
89	0x4052c9489ec4bd94	75.1450573846144
90	0x40533c76334e048e	76.94471438044476
91	0x40531cb5053c7fa0	76.4485486117178
92	0x40534737e59f065b	77.11278667955177
93	0x40534e219761ac8e	77.22080025232773
94	0x4052d11b325a203b	75.26728495408399
95	0x40534f33f2e86522	77.23754570669965
96	0x405305c88ec185b9	76.09036606691997
97	0x4052ddf7ccc320f2	75.46824950271164
98	0x4053283c24db9d5f	76.628670896976
99	0x4052e57b73e89ce7	75.58565995899299
100	0x405329e84419d57e	76.65480139277312
101	0x40531b98b75b7298	76.43119605951722
102	0x40532ce15ebfedd6	76.70125550025054
103	0x40532123fa6ac378	76.51782093454483
104	0x4052f1cb32537090	75.77802713535698
105	0x40531581413f5372	76.33601409134079
106	0x40530c4126d2451f	76.19147654089146
107	0x40530960004b2ff9	76.14648444502372
108	0x40530a0e1b9d62d0	76.15711107606626
109	0x405306e91035a2e9	76.10797505605628
110	0x4052f384663142be	75.80495600519768
111	0x40530aa5c4028d22	76.16636753319884
112	0x4052a5bd2724e6a6	74.58966997722254
113	0x4053547e74756afb	77.32021819559661
114	0x40534cf56d3643b1	77.20247965144405
115	0x40532f07054fba0a	76.73480351243794
116	0x405322137c7f27e6	76.53243935029568
117	0x40531bede4b5d7e6	76.4363948608221
118	0x4052e1ef800b6292	75.53024293052502
119	0x4053286e48401420	76.63173109300305
120	0x405313ac18c3c755	76.30737895125397
121	0x4052fb2f52bc5d20	75.92476337809467
122	0x4052c3143c8b149a	75.04811013776853
123	0x40531c834841723a	76.44551283255797
124	0x4052f46f8643fe2e	75.81930691375666
125	0x4052ee4b93eaadf4	75.7233629028122
126	0x4052cd24c36af368	75.20536885685362
127	0x40531966a43838ef	76.39688973894566
128	0x4052db362a9eec27	75.4251810600259
129	0x40530ef47c1aa316	76.2336721668365
130	0x40530132b683c36c	76.0187202727081
131	0x4052fda5d4823a04	75.96324646680301
132	0x4052aaa4f4d5a32c	74.66631813872362
133	0x405317c290aaa4f6	76.37125031151285
134	0x4052ed5cb7970587	75.70878400562479
135	0x4052c9911c990492	75.14948191588545
136	0x4052e7cb59b7580d	75.62178652672465
137	0x40534c62006a52f2	77.19348154433445
138	0x4052d50184c8100e	75.32821769273161
139	0x4053089fade82262	76.13474605244986
140	0x4052fcb66acf6179	75.94863386394526
141	0x4052f593a642caac	75.83713680765749
142	0x40531643326a26ae	76.34785137525861
143	0x4053456d9aa381e0	77.0848147007705
144	0x40534592dc1d9ee0	77.08708861248624
145	0x4052c16747738cdd	75.02192865642742
146	0x4052ddcedc8f1837	75.46575082754212
147	0x4053044eba5dc004	76.06730517535476
148	0x4053038f06d594a2	76.05560465676766
149	0x4053023628616b8e	76.03455552591024
150	0x405310a0396cbb65	76.25977931612358
151	0x40533f32d6029610	76.987477781797
152	0x405314c654bc2e77	76.32460516335583
153	0x4052d62266a0ccb2	75.34584966376386
154	0x40530bff468bfd10	76.18745578451876
155	0x405302a5879671c1	76.04135312740165
156	0x40533b222ae0b096	76.9239604181515
157	0x40532e0a2bcfe34b	76.71937079717206
158	0x4052ab21415d4a13	74.67390474424637
159	0x40533784cd1c9418	76.86748054304951
160	0x4052d1ea727cead5	75.27993452261883
161	0x4052ce90766a64aa	75.22756729497874
162	0x40532159894dfd00	76.52108986488383
163	0x4052bed6bb4809e7	74.98185617480304
164	0x40532481f127dc4d	76.57043103115684
165	0x40531829829ae726	76.37753358008612
166	0x405309d3d62a799f	76.15355447910268
167	0x40530986576316b8	76.14882454563747
168	0x4052cf41e467e22e	75.23839674134135
169	0x405306c97e347cce	76.10604815603003
170	0x4052e36897426fa1	75.55325871932884
171	0x4053029e1e6e64df	76.04090081005732
172	0x4052d4969f2e864d	75.321693225321
173	0x405333e1caffdbe7	76.81065630899649
174	0x4052e702dfc59e43	75.60955042170194
175	0x4053128dc58961d5	76.28990305343844
176	0x40528316878e0c29	74.04825009223772
177	0x4053245d7499a10b	76.56820406916465
178	0x40532b711b9e1923	76.6787785571983
179	0x405319e985e4e59a	76.4048781142541
180	0x4052fb531cfe9569	75.92694783078845
181	0x405314845e2366e1	76.320579084942
182	0x4052be8de0ac22d2	74.97740952310713
183	0x40531536d2d70185	76.33147116657899
184	0x40531060c4cabc42	76.25590629385354
185	0x4052c543b737fbac	75.08225803820704
186	0x4052c6ee163e5aa7	75.10828167046803
187	0x405308cabdd951f1	76.13737436506905
188	0x4052f1b34bf8e149	75.77656840614976
189	0x40530bfb33f1d095	76.18720720877384
190	0x4052caa858835570	75.16652500939904
191	0x4052e6eb10eb7ff4	75.60809729574231
192	0x40527216bfb19b1a	73.78263847679446
193	0x405293f2c4f5b349	74.31169246668027
194	0x40527781e8b8a9a9	73.86730402024718
195	0x405254f489601c94	73.32742533098127
196	0x4052280f522a324c	72.62593511696576
197	0x405270cb155fcf8a	73.76239523273958
198	0x405255ec4f4ab1b4	73.3425482015071
199	0x4052903428cbdf62	74.25318355473931
200	0x405258397744ab76	73.37850743967087
201	0x4052b5c334496524	74.84003932158936
202	0x40528c0f9164b797	74.18845019183787
203	0x40525d5c3b741b5e	73.45875440920415
204	0x405253f314c55684	73.31171149512562
205	0x4052837208881537	74.05383504189818
206	0x4052ac7259673a30	74.69447932320395
207	0x4052da2288716afb	75.4083577258679
208	0x4052936958d3e78a	74.30330486959261
209	0x40526944c4c6d0c1	73.64482230582782
210	0x40527a210ceb35aa	73.90826724023523
211	0x405264d13b7aed72	73.57527052883759
212	0x40528dd813d5187e	74.21631332216381
213	0x40527edf031f270e	73.98236158411257
214	0x4052b0367fcb2a89	74.75332636681027
215	0x4052d71481d6e176	75.36062665924496
216	0x40524d8654a5f00a	73.21132389263963
217	0x4052459e796a88f7	73.08779750255404
218	0x4052ac75df9987ad	74.69469442361033
219	0x4052a761cdad0ae6	74.61534444712342
220	0x405298e068dd795d	74.38869687679603
221	0x4052a6771b377554	74.60101967254496
222	0x4052269e44f4663d	72.60340999476553
223	0x4052e1b250f76602	75.5265085617066
224	0x4052725e5e79a79e	73.78700982933375
225	0x4052777c886fafd6	73.86697588831825
226	0x4052aa383609ab7b	74.65968085235902
227	0x40527df0bf2b7849	73.96781901593307
228	0x4052788bffcce116	73.88354487426508
229	0x4052c28b8139f67f	75.03976469669759
230	0x40528ab434e446e2	74.16724893849053
231	0x40527020fb4b7c87	73.75201303836558
232	0x405267c88112e83e	73.6216128048554
233	0x4052698b3ac84a0e	73.64912290153026
234	0x405286c3aa2c065e	74.10569242762855
235	0x40529209d9e1a299	74.28185126337702
236	0x405239477bc3ea32	72.89498800403888
237	0x4052abea6a57d7eb	74.68618258074245
238	0x40522f85238ab2a3	72.74250114960391
239	0x405298c783c5038e	74.38717741241109
240	0x40520301140fc4dc	72.04694081821384
241	0x4052bdfc84f9272a	74.96853756266924
242	0x4052e3e22080bb28	75.56067669459719
243	0x4052ccca512475f3	75.19984844742412
244	0x40525fca85720148	73.49673591740896
245	0x40529d0b62b540c9	74.45381992054457
246	0x4052650ab8b8b9c4	73.57877939262022
247	0x405271e4e3cc4032	73.7795953268658
248	0x4052a62a375d6710	74.59632667657229
249	0x40528092cd92aa02	74.0089601452128
250	0x40524128a79e96e7	73.01810636985066
251	0x4052b41caa4ca5fd	74.81424958691782
252	0x4052809c643f9ccc	74.00954538547666
253	0x4052636aa407e3d8	73.55338383455762
254	0x40525206fe725b31	73.28167687575912
255	0x405299f967d59d41	74.40584750996369
