models/baseline_0.05_250_out_of_500.pt (torch, 13703 bytes, 12 tensors)

conv1.att_src f8 [1, 1, 32]
6.880187419558822 3.750027436049436 7.02269809300465 2.161112647168694 5.246519157650427 5.622720941119935 8.96007906661327 5.68670947959802
2.9126288121565524 3.619950049253344 8.306885714798412 5.665201952794839 5.179432745624723 6.864141406757596 5.99683826597241 7.5212174895525115
8.54341575160182 2.552532231888379 3.94566756455242 6.923088642190127 7.96345645414789 4.804673801718729 4.146024309027625 6.534763283954997
4.103360458122152 6.153010429645014 2.6823478107974985 4.314384977244551 5.15886791250669 7.939912590098054 8.056965962030196 3.549951816263771
00000000: 4f6c d5d9 4f85 1b40 007b 6762 0e00 0e40
00000010: d18b 3c2b 3e17 1c40 027e 746d f549 0140
00000020: c2c8 9f84 6ffc 1440 ee93 f28e aa7d 1640
00000030: 3d5b c17b 8feb 2140 1ee8 12c5 30bf 1640
00000040: 3acc ac55 104d 0740 d892 155f a8f5 0c40
00000050: 6856 d91f 209d 2040 e9f4 61b3 2aa9 1640
00000060: a028 b937 bdb7 1440 bf92 247c e174 1b40
00000070: eb02 9f2b c3fc 1740 cfec 9e09 ba15 1e40
00000080: ac85 e296 3a16 2140 6292 cf04 966b 0440
00000090: fa1f f527 ba90 0f40 0410 2626 3eb1 1b40
000000a0: c2bd 2654 94da 1f40 d951 b968 fc37 1340
000000b0: 52c7 7e65 8795 1040 cbc0 7efc 9823 1a40
000000c0: 3e56 ed52 d769 1040 c716 1dc4 ae9c 1840
000000d0: c8fa dec4 7275 0540 e879 ae22 ee41 1140
000000e0: 6c66 2245 aea2 1440 7847 2e72 78c2 1f40
000000f0: 4bcf 7fa4 2a1d 2040 5fd4 4923 4d66 0c40

conv1.att_dst f8 [1, 1, 32]
0.04849069224136848 -0.3178095387861806 -0.39789175392093423 -0.017235275432583692 -0.12641981649362638 -0.3565496781850975 -0.13714644162590933 -0.07048029897537617
-0.03831769138377655 -0.00893156608211929 -0.1946867334364425 0.04915189131604004 0.28150134417050215 -0.28348116884343355 -0.033512712072149294 -0.31007060093248184
-0.30176948033108375 0.43170886053688867 -0.13164016812588045 0.07338720861062396 -0.018105816369141024 -0.15062036823451674 0.0059176762181141745 0.1434075651684777
-0.27190540877590536 -0.3311845922482252 0.1521018364378053 0.04092387947001807 -0.1445133302895664 -0.43627672495483477 -0.31559506353412725 -0.04172780373213085
00000000: 9095 aca2 c5d3 a83f 2162 dcd1 fd56 d4bf
00000010: 4210 9cf9 0e77 d9bf f230 48c1 1fa6 91bf
00000020: 7206 b448 862e c0bf 8d13 cdbd b5d1 d6bf
00000030: 16e5 c5bc 038e c1bf 148e 1c33 ff0a b2bf
00000040: 38fd b35e 609e a3bf b351 cc81 b64a 82bf
00000050: 2c8c 89b0 7eeb c8bf 2156 7acb 6f2a a93f
00000060: 9d82 bf36 1e04 d23f c0b8 4d33 8e24 d2bf
00000070: 4946 b304 9428 a1bf 5c30 9d5c 32d8 d3bf
00000080: a4fc 3cf0 3050 d3bf 258f 5933 1ea1 db3f
00000090: 8565 78c4 95d9 c0bf 6f67 ed0c 81c9 b23f
000000a0: 89fd b0c4 548a 92bf 84e0 d639 8747 c3bf
000000b0: 3eae 331d 223d 783f 92e4 32d9 2d5b c23f
000000c0: d712 93f1 e566 d1bf 534b 29dc 2032 d5bf
000000d0: a1b9 94ae 1278 c33f 0ffa e587 f9f3 a43f
000000e0: 8501 b7ad 697f c2bf d9f7 6b36 f5eb dbbf
000000f0: 9e1e 2aa3 b532 d4bf b610 bac0 585d a5bf

conv1.bias f8 [32]
82.37496466766366 82.25491152101031 82.56599582699295 82.09939493795962 81.45559934203595 81.94602580020911 81.53929492456757 81.91567172521182
82.74937712536793 82.29060831129252 82.42123589470856 82.4504563133116 82.13445611973468 82.33674672258377 81.95478900406245 82.27308300437497
82.21942086483288 82.19491024762665 82.02930656638634 82.09093481502349 82.48598706515016 82.16347765381289 82.04512899012782 82.2578157054429
81.064066065409 81.98787744197072 81.9773986187693 82.0556209773013 81.68817098267625 82.54420163997058 82.29519422114872 82.5823082608963
00000000: 5731 ce6b ff97 5440 3a87 6978 5090 5440
00000010: dca6 8f46 39a4 5440 2bfb 957c 5c86 5440
00000020: e887 248a 285d 5440 8144 ccaf 8b7c 5440
00000030: a8fa dbce 8362 5440 076a 945d 9a7a 5440
00000040: d974 79cb f5af 5440 9e3c 9a53 9992 5440
00000050: 2ceb 6587 f59a 5440 ce7c b746 d49c 5440
00000060: 7b40 d7ed 9a88 5440 1422 2042 8d95 5440
00000070: d5c1 5643 1b7d 5440 9238 2331 7a91 5440
00000080: 1ba1 cffd 0a8e 5440 8dcd d468 798c 5440
00000090: fe0b a628 e081 5440 ff25 42e0 d185 5440
000000a0: 55c6 7d69 1a9f 5440 3430 fa6a 768a 5440
000000b0: d52c b464 e382 5440 6fd1 710d 8090 5440
000000c0: c3ed 8da8 1944 5440 1b6e 4e62 397f 5440
000000d0: 43b1 efb2 8d7e 5440 c39e 494b 8f83 5440
000000e0: a529 4efe 0a6c 5440 9b86 1d33 d4a2 5440
000000f0: 5373 4d76 e492 5440 602f de89 44a5 5440

conv1.lin_src.weight f8 [32, 3]
-81.82987598200441 -78.43647553337945 -81.94651681455376 -81.83350007177022 -79.22183436162157 -81.82660826714854 -82.45526666136604 -78.43470681099477
-81.87300572431616 -80.26090979128162 -77.21605729897556 -80.3076584427623 -80.2881712275177 -76.59886625673319 -79.24387005742376 -81.53716671242343
-78.40323042276827 -81.52923466067176 -81.42413507875861 -78.16479311777313 -81.20777271572152 -81.44431432922609 -78.06547070754765 -81.38367814349732
-82.30249388194918 -78.7172396114522 -82.4970414541035 -81.53949878455171 -78.95112712090202 -81.81089797009032 -82.19669699158891 -79.18802085934553
-82.03305864961449 -82.2562856985442 -79.33421460348285 -82.1524933817736 -81.78613743034816 -78.24202225804228 -81.15579627501437 -82.3095337727843
-79.35521256137562 -82.34836037647285 -80.38948649538942 -77.2520100482435 -80.14255941811645 -81.76113298953499 -78.44114560260695 -81.36669992286656
-81.7688169025836 -78.91603722770438 -81.95279569638417 -80.64266818403279 -77.6833095683711 -80.83731805395982 -80.56456858763323 -77.24348571645213
-80.00322145913955 -81.57621406051398 -79.01491186775986 -81.50133506221526 -82.17423139871983 -79.42951103214567 -82.26882139725778 -81.49781278925721
-78.46091414671683 -81.59093022598286 -81.40258365655392 -78.321101315344 -81.6069516416879 -81.48660271599898 -78.1531111243892 -80.63108987488981
-80.4620969178586 -77.50367497966975 -80.48739567371841 -81.77613398948058 -78.4917362284415 -81.31352599328616 -79.65079291637703 -76.98891450746578
-80.02394683075603 -80.76211691215988 -77.15181454000013 -80.02054142301827 -81.07994889356253 -78.21143549474351 -81.23809979923459 -82.45499992350078
-79.15578601684807 -81.94174482647993 -81.82910152145222 -78.70949452620306 -81.93853910555993 -81.15439677262647 -77.35431221580926 -80.66214244421177
00000000: 789c 26b0 1c75 54c0 9c57 1337 ef9b 53c0
00000010: d7e7 42bb 937c 54c0 df5d af10 5875 54c0
00000020: cc12 c088 32ce 53c0 6680 5c26 e774 54c0
00000030: ae61 c716 239d 54c0 8b24 843c d29b 53c0
00000040: 28ca 6653 df77 54c0 b030 fbbe b210 54c0
00000050: 604a fee1 d34d 53c0 2780 09ad b013 54c0
00000060: 8c75 bb65 7112 54c0 35d6 22d3 5326 53c0
00000070: f546 2891 9bcf 53c0 f196 7df0 6062 54c0
00000080: b0a2 f986 ce99 53c0 acdf 0dfb de61 54c0
00000090: b216 7507 255b 54c0 41dc 6ef8 8b8a 53c0
000000a0: 9ac1 ee25 4c4d 54c0 e54a 5ea5 6f5c 54c0
000000b0: d7f0 0cac 3084 53c0 b4a0 c52e 8e58 54c0
000000c0: 8e8d 4c0f 5c93 54c0 4fa5 f840 e7ad 53c0
000000d0: 5f88 f586 cf9f 54c0 68f8 e825 8762 54c0
000000e0: 38a7 4944 dfbc 53c0 917b 99c0 e573 54c0
000000f0: 2486 faae 968c 54c0 b676 a488 08cc 53c0
00000100: 6dbc 06a2 1d82 54c0 836b 21fc 6690 54c0
00000110: 7cf3 a5c5 63d5 53c0 bde4 9973 c289 54c0
00000120: 7060 5e13 5072 54c0 86cc ec4a 7d8f 53c0
00000130: 9f81 f090 f849 54c0 6ec7 bd66 cf93 54c0
00000140: 268f 77cd bbd6 53c0 150b 5289 4b96 54c0
00000150: 99fb c358 ed18 54c0 08de c0ee 2050 53c0
00000160: 01a3 89b1 1f09 54c0 687d 2467 b670 54c0
00000170: 26fe c3ba 3b9c 53c0 160a f402 7857 54c0
00000180: 594d cf4b 3471 54c0 2aba 9b5a a0ba 53c0
00000190: 55ef cc9a fa7c 54c0 6f26 bc79 2129 54c0
000001a0: a84c 0e58 bb6b 53c0 e686 769e 9635 54c0
000001b0: f40e 49e4 2124 54c0 1f4d 1d45 954f 53c0
000001c0: 9669 c7c7 3400 54c0 c959 f0b0 e064 54c0
000001d0: 7516 e850 f4c0 53c0 5f23 a8df 1560 54c0
000001e0: 08dc 739b 268b 54c0 8f15 d71b 7ddb 53c0
000001f0: fb6b a95e 3491 54c0 fa58 2c2a dc5f 54c0
00000200: 679a 0c9e 7f9d 53c0 1db4 02cd d165 54c0
00000210: 67b3 3dee c359 54c0 b906 88ec 8c94 53c0
00000220: 65d3 b24b d866 54c0 11d7 b77f 245f 54c0
00000230: f2f9 9992 cc89 53c0 435f c9c6 6328 54c0
00000240: 3f72 f3fe 921d 54c0 af5f fb35 3c60 53c0
00000250: 47b5 9f7d 311f 54c0 8588 e52d ac71 54c0
00000260: 89da 3a9b 789f 53c0 0ae7 53cf 1054 54c0
00000270: b313 5597 a6e9 53c0 c006 1360 4a3f 53c0
00000280: 29bc 4958 8801 54c0 225d 0386 c630 54c0
00000290: e716 5554 b749 53c0 ea04 f98c 5001 54c0
000002a0: f5cc f6e1 1d45 54c0 c4c8 bd28 888d 53c0
000002b0: 64b9 f006 3d4f 54c0 93c7 ffb7 1e9d 54c0
000002c0: 57e2 e965 f8c9 53c0 25ba 178c 457c 54c0
000002d0: dfec d3ff 0f75 54c0 ecae ba5b 68ad 53c0
000002e0: 6819 5306 117c 54c0 7942 00a3 e149 54c0
000002f0: 57de 240d ad56 53c0 b7cb b38a 602a 54c0

conv1.lin_dst.weight f8 [32, 3]
-81.82987598200441 -78.43647553337945 -81.94651681455376 -81.83350007177022 -79.22183436162157 -81.82660826714854 -82.45526666136604 -78.43470681099477
-81.87300572431616 -80.26090979128162 -77.21605729897556 -80.3076584427623 -80.2881712275177 -76.59886625673319 -79.24387005742376 -81.53716671242343
-78.40323042276827 -81.52923466067176 -81.42413507875861 -78.16479311777313 -81.20777271572152 -81.44431432922609 -78.06547070754765 -81.38367814349732
-82.30249388194918 -78.7172396114522 -82.4970414541035 -81.53949878455171 -78.95112712090202 -81.81089797009032 -82.19669699158891 -79.18802085934553
-82.03305864961449 -82.2562856985442 -79.33421460348285 -82.1524933817736 -81.78613743034816 -78.24202225804228 -81.15579627501437 -82.3095337727843
-79.35521256137562 -82.34836037647285 -80.38948649538942 -77.2520100482435 -80.14255941811645 -81.76113298953499 -78.44114560260695 -81.36669992286656
-81.7688169025836 -78.91603722770438 -81.95279569638417 -80.64266818403279 -77.6833095683711 -80.83731805395982 -80.56456858763323 -77.24348571645213
-80.00322145913955 -81.57621406051398 -79.01491186775986 -81.50133506221526 -82.17423139871983 -79.42951103214567 -82.26882139725778 -81.49781278925721
-78.46091414671683 -81.59093022598286 -81.40258365655392 -78.321101315344 -81.6069516416879 -81.48660271599898 -78.1531111243892 -80.63108987488981
-80.4620969178586 -77.50367497966975 -80.48739567371841 -81.77613398948058 -78.4917362284415 -81.31352599328616 -79.65079291637703 -76.98891450746578
-80.02394683075603 -80.76211691215988 -77.15181454000013 -80.02054142301827 -81.07994889356253 -78.21143549474351 -81.23809979923459 -82.45499992350078
-79.15578601684807 -81.94174482647993 -81.82910152145222 -78.70949452620306 -81.93853910555993 -81.15439677262647 -77.35431221580926 -80.66214244421177
00000000: 789c 26b0 1c75 54c0 9c57 1337 ef9b 53c0
00000010: d7e7 42bb 937c 54c0 df5d af10 5875 54c0
00000020: cc12 c088 32ce 53c0 6680 5c26 e774 54c0
00000030: ae61 c716 239d 54c0 8b24 843c d29b 53c0
00000040: 28ca 6653 df77 54c0 b030 fbbe b210 54c0
00000050: 604a fee1 d34d 53c0 2780 09ad b013 54c0
00000060: 8c75 bb65 7112 54c0 35d6 22d3 5326 53c0
00000070: f546 2891 9bcf 53c0 f196 7df0 6062 54c0
00000080: b0a2 f986 ce99 53c0 acdf 0dfb de61 54c0
00000090: b216 7507 255b 54c0 41dc 6ef8 8b8a 53c0
000000a0: 9ac1 ee25 4c4d 54c0 e54a 5ea5 6f5c 54c0
000000b0: d7f0 0cac 3084 53c0 b4a0 c52e 8e58 54c0
000000c0: 8e8d 4c0f 5c93 54c0 4fa5 f840 e7ad 53c0
000000d0: 5f88 f586 cf9f 54c0 68f8 e825 8762 54c0
000000e0: 38a7 4944 dfbc 53c0 917b 99c0 e573 54c0
000000f0: 2486 faae 968c 54c0 b676 a488 08cc 53c0
00000100: 6dbc 06a2 1d82 54c0 836b 21fc 6690 54c0
00000110: 7cf3 a5c5 63d5 53c0 bde4 9973 c289 54c0
00000120: 7060 5e13 5072 54c0 86cc ec4a 7d8f 53c0
00000130: 9f81 f090 f849 54c0 6ec7 bd66 cf93 54c0
00000140: 268f 77cd bbd6 53c0 150b 5289 4b96 54c0
00000150: 99fb c358 ed18 54c0 08de c0ee 2050 53c0
00000160: 01a3 89b1 1f09 54c0 687d 2467 b670 54c0
00000170: 26fe c3ba 3b9c 53c0 160a f402 7857 54c0
00000180: 594d cf4b 3471 54c0 2aba 9b5a a0ba 53c0
00000190: 55ef cc9a fa7c 54c0 6f26 bc79 2129 54c0
000001a0: a84c 0e58 bb6b 53c0 e686 769e 9635 54c0
000001b0: f40e 49e4 2124 54c0 1f4d 1d45 954f 53c0
000001c0: 9669 c7c7 3400 54c0 c959 f0b0 e064 54c0
000001d0: 7516 e850 f4c0 53c0 5f23 a8df 1560 54c0
000001e0: 08dc 739b 268b 54c0 8f15 d71b 7ddb 53c0
000001f0: fb6b a95e 3491 54c0 fa58 2c2a dc5f 54c0
00000200: 679a 0c9e 7f9d 53c0 1db4 02cd d165 54c0
00000210: 67b3 3dee c359 54c0 b906 88ec 8c94 53c0
00000220: 65d3 b24b d866 54c0 11d7 b77f 245f 54c0
00000230: f2f9 9992 cc89 53c0 435f c9c6 6328 54c0
00000240: 3f72 f3fe 921d 54c0 af5f fb35 3c60 53c0
00000250: 47b5 9f7d 311f 54c0 8588 e52d ac71 54c0
00000260: 89da 3a9b 789f 53c0 0ae7 53cf 1054 54c0
00000270: b313 5597 a6e9 53c0 c006 1360 4a3f 53c0
00000280: 29bc 4958 8801 54c0 225d 0386 c630 54c0
00000290: e716 5554 b749 53c0 ea04 f98c 5001 54c0
000002a0: f5cc f6e1 1d45 54c0 c4c8 bd28 888d 53c0
000002b0: 64b9 f006 3d4f 54c0 93c7 ffb7 1e9d 54c0
000002c0: 57e2 e965 f8c9 53c0 25ba 178c 457c 54c0
000002d0: dfec d3ff 0f75 54c0 ecae ba5b 68ad 53c0
000002e0: 6819 5306 117c 54c0 7942 00a3 e149 54c0
000002f0: 57de 240d ad56 53c0 b7cb b38a 602a 54c0

conv2.att_src f8 [1, 1, 32]
1.1374734690390074 3.066632498148831 2.1916485972361714 2.1357980944683823 -0.7256720021136304 1.7851391954151452 2.910747193269505 1.9322486803113987
-0.22450981775655968 2.0393385248444087 -0.42924494652058554 0.7661627779177729 2.677085385666763 2.565870830888224 1.5773235953151585 0.9761501767862832
2.819713007584679 -0.9906452201287869 2.284368421768629 1.6832757692816338 0.7557554077252404 0.6593360258560466 0.5720995034253844 1.500302731566369
0.38607905502817524 0.5902880517122547 2.200117636593511 0.30118051603283225 0.4167973404180346 1.754049866508623 1.7797702861098397 0.7873293829515525
00000000: 7b71 5961 1733 f23f 3833 839e 7688 0840
00000010: 0aa1 4b0f 7f88 0140 7bce b44f 1d16 0140
00000020: a76d 967d b438 e7bf 53da f11d ee8f fc3f
00000030: 6a21 10d3 3549 0740 6cd3 9a97 7dea fe3f
00000040: a19a 72da bcbc ccbf dc6f 6db7 9050 0040
00000050: 26de d1cb bf78 dbbf 1438 52cd 6784 e83f
00000060: 6d4e 20be ab6a 0540 f366 4349 e786 0440
00000070: 6767 91aa b73c f93f ba03 a94b 9f3c ef3f
00000080: ba74 7db1 c58e 0640 1f8a cc9a 5db3 efbf
00000090: 5717 7cf3 6246 0240 f76b b392 b2ee fa3f
000000a0: cc8f fef6 252f e83f e60a 84dd 4719 e53f
000000b0: bea2 289e a34e e23f 15d5 e26f 3d01 f83f
000000c0: ed0f c1ec 84b5 d83f ad5b aac4 a3e3 e23f
000000d0: f02c 8446 d799 0140 346b a3a4 8a46 d33f
000000e0: 6aef 89c0 ceac da3f bf52 c397 9610 fc3f
000000f0: cbbf 5368 f079 fc3f ed9d de63 cd31 e93f

conv2.att_dst f8 [1, 1, 32]
-0.47052484099598374 -0.11019070042240287 0.32118010373913325 -0.06888038225411203 0.015572468272862303 -0.11569622649450186 -0.2870733695979498 0.2301817039202732
-0.06388188784354872 0.14361065706385162 -0.22762867877283188 0.2487452100188805 0.350200564878611 -0.18435171444104673 0.024096692786381803 -0.08838778849935255
-0.06082910811159682 0.006752001742933521 0.20386986337777077 -0.09856587478205021 -0.2654925587101061 -0.29354187048312536 0.21710310455011786 0.030659971235312188
0.12660087489452307 -0.43475203389083034 -0.04000660978288883 -0.08560142374927375 0.20028301649918545 -0.008689697162103743 -0.0900412661632481 0.13508871509523157
00000000: 6922 0239 141d debf b836 a32e 7535 bcbf
00000010: a7de 6bfe 368e d43f 440d 1e0d 25a2 b1bf
00000020: c57a 994f 75e4 8f3f b182 1095 449e bdbf
00000030: 1e72 7efb 685f d2bf 02d1 3c15 9876 cd3f
00000040: 9d43 183b 905a b0bf d220 b981 d561 c23f
00000050: 2002 7bc1 ef22 cdbf d0ab 080f e2d6 cf3f
00000060: 6770 4ca1 af69 d63f 912f 3e44 d698 c7bf
00000070: 9a4a d6ad cdac 983f a671 f804 95a0 b6bf
00000080: 62e3 f72b fe24 afbf 58e8 b1aa fca7 7b3f
00000090: 537b ec5d 6818 ca3f 05c7 b0f8 9c3b b9bf
000000a0: e570 3f80 d4fd d0bf 07d4 6ed7 63c9 d2bf
000000b0: c58f f3d6 08ca cb3f 8603 02d7 5365 9f3f
000000c0: 4792 a81c 7534 c03f f38e db31 fad2 dbbf
000000d0: df5d 4811 bf7b a4bf d381 7e93 f9e9 b5bf
000000e0: 1474 e7b6 dfa2 c93f 70ae fc68 e7cb 81bf
000000f0: 3d2a 76c5 f10c b7bf 6043 b246 964a c13f

conv2.bias f8 [32]
69.03945113440706 67.81990245777352 68.37437120521733 67.88448795968549 67.5692667022934 67.90527334419014 68.13532437418777 68.00739620967171
68.1875505399505 67.76872430131375 67.88783973287107 67.6808140158442 68.18271154301908 68.11994296327404 68.18488088365496 67.8119144678356
67.49750719907837 68.62185423786367 67.71429487902374 68.03464054979356 68.03089581102128 68.22368169411303 67.87716955870582 67.75813511585115
67.54230880564246 68.73921821256239 68.11456489679696 67.82234194914759 67.96926194395631 67.93790874452385 67.81681080988578 67.87056898783679
00000000: 6104 0d5e 8642 5140 0783 2848 79f4 5040
00000010: 3ebe a4b2 f517 5140 8423 6373 9bf8 5040
00000020: 5343 9bdd 6ee4 5040 2ecf 9bff eff9 5040
00000030: 3e5f 9027 a908 5140 e1a9 f32d 7900 5140
00000040: cfdb fad3 000c 5140 1d72 69c7 32f1 5040
00000050: 5231 be5d d2f8 5040 652d f374 92eb 5040
00000060: 9877 c18b b10b 5140 6e29 4025 ad07 5140
00000070: 083d a116 d50b 5140 34a0 1968 f6f3 5040
00000080: 3c64 6f28 d7df 5040 39a0 b775 cc27 5140
00000090: dd46 de01 b7ed 5040 a51e ff8c 3702 5140
000000a0: de7a 6c32 fa01 5140 7a3b 06cd 500e 5140
000000b0: 0cec c98b 23f8 5040 e921 2649 85f0 5040
000000c0: 4d24 fe2f b5e2 5040 09e4 e759 4f2f 5140
000000d0: ce40 0108 5507 5140 f06d 2040 a1f4 5040
000000e0: 2fa3 3f63 08fe 5040 3117 66b2 06fc 5040
000000f0: a3de d8a0 46f4 5040 efea fc66 b7f7 5040

conv2.lin_src.weight f8 [32, 32]
69.65048281713655 68.89761460064915 70.09279276467701 71.8277009494899 67.93396545255766 69.47911695203432 70.06911785474873 69.61768726514434
71.18097709602495 69.54214089117703 69.39950489595466 70.64254823045887 68.99937073160868 71.34072382732906 69.66441080942695 68.65921582694922
68.63978086638102 70.45665092840247 69.55321854409408 68.88653523932778 68.75970149214403 69.94106227426808 68.54425569579499 69.98899408568751
67.8705251841812 70.25898199770234 69.82125709941897 68.41972714696396 67.81717999929536 70.52952551426608 71.59419961554217 69.19190193871121
77.377766238825 77.95316629503604 77.7948466282023 79.08899085503504 77.7124451576459 77.19072141525274 76.86368473341867 77.02557502230982
77.81781801720561 77.45224378841529 77.64176338698475 77.5542514366936 77.40204793769614 77.63290868732358 78.2138289005357 77.61731189780909
77.44234314355101 78.38456073429205 78.65239886137282 77.72541587700874 78.11529000517974 77.29844054674918 76.89810464477317 78.12347131423525
76.21506834691172 77.32942833850798 78.28561282636942 77.64722062435497 77.1087255234686 77.65646144651407 77.61259941847769 78.53845817853478
77.89202166109581 77.90207001390225 77.93441557373578 79.12382463293783 78.01177912982409 77.34836715345703 77.67833485522857 77.44351410326944
79.01220686218275 77.9000156001697 78.05207460680877 78.30233035599088 78.49283366422094 78.83102032426793 78.45591890921023 77.70475081519582
78.0399585199551 78.28184514544446 78.7154974999048 78.10849173275592 78.57224963921387 77.71119650468691 77.84583578182391 78.71738319031391
76.3645578222167 77.86009709372458 79.59596535437983 77.876698672863 77.41167169503004 78.37015596440271 78.0906852275633 78.79195688678962
77.62920026208334 77.76039058375734 77.61373405476435 79.14381164988673 77.69187950057936 77.58846170240056 76.96877597281623 77.41435486377038
77.6510034593856 77.6997123997514 77.79086458139955 77.640174376744 77.82260607416812 78.18736641067272 78.6464780895919 77.89411713965379
77.69061068182256 78.5758962344148 77.92267300401157 77.26797881364618 77.8224384537105 77.23498002529116 77.1311600982789 78.262344395535
76.61612764366717 77.22293677381904 79.36834137066177 77.77641452284104 77.02341368061653 78.1089210842145 77.84310380065135 79.02642344143126
76.91533049494649 77.37501075431626 77.56841777709734 78.50600621896938 77.48129409936995 76.61599703729065 76.62917139138652 76.91921107614485
77.91918566704474 77.50378561914832 77.10478379810476 77.55242571268928 77.0159403223534 77.80011452872182 77.5704874579132 77.12527024055075
77.16488103802739 78.2203891967548 78.01136895991267 77.13507779357941 77.54497762161887 77.04763003398547 76.78717977437289 77.28802640068618
76.2444570287158 76.49138802074637 78.74989532652806 77.51459497305518 76.81340617704421 77.4459626934736 77.23662826043073 78.11824459979185
77.75606568113987 77.76258215018757 77.32657228392299 78.885741068922 77.64043409998344 77.25041262645509 76.34982845807536 76.79888178362961
78.05919941243972 77.58474361942896 77.54227654772373 77.92113841911345 77.36600153309313 78.23594869334761 77.61191243446966 77.18390561925793
77.58756196757435 78.45356119509559 78.1660146019418 77.04376614390952 77.7550511877713 77.41643660458371 77.29182070808781 78.43641218960006
76.4356910467372 77.08922334991794 78.44018750321345 77.6605293271171 76.93531934790903 77.76968564593955 77.45516929864701 78.20733375031764
77.53026635521455 77.82497351305489 77.73821904471231 78.33509372411964 77.60578299210187 77.53172609780178 77.00007616304099 77.3679429542578
78.07866359944873 78.07991430518689 77.7905476704351 77.90125772140813 77.6122482950882 78.4102706572631 77.80271392600599 77.4714254666049
78.16292152804523 78.27342819245591 78.4245674845762 77.67127658047379 78.35578512020646 77.58895857704826 78.0967953924618 78.13226280108661
76.51053247387269 77.8399088452131 78.56794981825024 77.60088090850269 77.37003657864746 78.02163226614309 77.77763880159789 78.73924899679145
77.41718471597939 77.66884648368932 77.52460706783027 78.54571636671741 77.15198774695652 77.5469849429378 77.00940223175542 77.47995476319404
77.99375266031052 77.76731715808575 77.3198052336256 78.06781546267293 77.21777159128426 78.47809108614597 77.80755203047065 77.50602825279795
77.46108350696025 78.34974582289989 78.2148840262019 77.6894126456056 78.03674057909618 77.65886661155655 77.31802624848996 78.22578039311563
76.29408929893533 77.11009535276874 78.26587215540465 77.64503018356396 77.04069683707195 77.93557063841487 77.47721085498307 78.49338128095779
00000000: 888d ae82 a169 5140 d08c 8284 7239 5140
00000010: f765 1051 f085 5140 583b 670d f9f4 5140
00000020: 0e95 0817 c6fb 5040 95fc 25da a95e 5140
00000030: ca6d 4b6d 6c84 5140 d7bc 2a30 8867 5140
00000040: 2430 f520 95cb 5140 7f5b b56f b262 5140
00000050: e6ad fb7c 9159 5140 1bfb 9c82 1fa9 5140
00000060: b035 a8b0 f53f 5140 29d6 4f6b ced5 5140
00000070: 4066 eab4 856a 5140 2970 9497 302a 5140
00000080: a26d 722b f228 5140 4ecb d0c4 399d 5140
00000090: 309b c0ee 6763 5140 85ea 4cfe bc38 5140
000000a0: c9de 01f3 9e30 5140 c5de 425d 3a7c 5140
000000b0: 7a86 d715 d522 5140 c77d d9ad 4b7f 5140
000000c0: c519 43af b6f7 5040 9898 3a29 9390 5140
000000d0: 30e7 ef79 8f74 5140 085d 40cf dc1a 5140
000000e0: cffa 56ad 4cf4 5040 e88a fbbe e3a1 5140
000000f0: 2903 d35d 07e6 5140 6fb3 111f 484c 5140
00000100: 5352 7252 2d58 5340 1335 34ad 007d 5340
00000110: be5d 64c4 de72 5340 3001 b306 b2c5 5340
00000120: 1812 93b3 986d 5340 124a 98c7 344c 5340
00000130: 9c05 559c 4637 5340 921a 6b05 a341 5340
00000140: 927e 6121 5774 5340 0544 ee8f f15c 5340
00000150: a9b7 bda6 1269 5340 0b97 04db 7863 5340
00000160: 11f5 4527 bb59 5340 2e5a 7093 8168 5340
00000170: 64af 695f af8d 5340 6421 c309 8267 5340
00000180: 55ca 9d59 4f5c 5340 0c47 a0a4 9c98 5340
00000190: cf62 27e7 c0a9 5340 1cf0 b636 6d6e 5340
000001a0: 5f73 54e9 6087 5340 a305 61a6 1953 5340
000001b0: ef6b e78b 7a39 5340 9c28 3af4 e687 5340
000001c0: 0019 07ae c30d 5340 1d11 995a 1555 5340
000001d0: c924 057b 4792 5340 afb9 0d10 6c69 5340
000001e0: 71e2 e55b f546 5340 38f7 de76 036a 5340
000001f0: 42fa 30d4 3467 5340 85c4 4a19 76a2 5340
00000200: ba6e 05e2 1679 5340 651a de83 bb79 5340
00000210: 5e84 fa76 cd7b 5340 0f3a 27be ecc7 5340
00000220: ab57 40fd c080 5340 4fc6 bea5 4b56 5340
00000230: 64bc 98d6 696b 5340 d936 fa88 625c 5340
00000240: 2677 4aff c7c0 5340 9827 08db 9979 5340
00000250: 874c bb30 5583 5340 68e4 6b61 5993 5340
00000260: 988c 3596 8a9f 5340 b1c2 de6f 2fb5 5340
00000270: e62b 81c6 2d9d 5340 1bc6 29a3 1a6d 5340
00000280: d719 2eae 8e82 5340 1a8e 38c0 0992 5340
00000290: 7f9d 06b6 caad 5340 ad04 4f87 f186 5340
000002a0: 9164 f3bc 9fa4 5340 3a2a 583e 846d 5340
000002b0: 192e 672c 2276 5340 4c46 2f9b e9ad 5340
000002c0: fdfa 54ea 5417 5340 a13b aed4 0b77 5340
000002d0: 11a7 de4b 24e6 5340 2a19 c0d4 1b78 5340
000002e0: f2b5 3cd4 585a 5340 db61 a4a2 b097 5340
000002f0: 57a7 69c9 cd85 5340 9e26 f06b afb2 5340
00000300: 1612 2dd1 4468 5340 255b 443d aa70 5340
00000310: e169 336b 4767 5340 0743 c735 34c9 5340
00000320: b7f0 f4c0 476c 5340 92b0 455b a965 5340
00000330: 5d19 f06c 003e 5340 4535 43ca 845a 5340
00000340: 38e9 690a aa69 5340 6e62 8416 c86c 5340
00000350: 402b 7a86 9d72 5340 92f6 f29d f868 5340
00000360: c182 f293 a574 5340 548d afcf fd8b 5340
00000370: 2d18 a3e5 5fa9 5340 ca66 1837 3979 5340
00000380: 8e2c 25f7 326c 5340 df2c e17b dba4 5340
00000390: 6f48 1213 0d7b 5340 6628 9c90 2651 5340
000003a0: 346a e5d4 a274 5340 aff5 a8e9 094f 5340
000003b0: 7929 53ed 6448 5340 26c7 2540 ca90 5340
000003c0: 92ed a3a2 6e27 5340 3a28 9a98 444e 5340
000003d0: 6430 afe7 92d7 5340 78ef 89c6 b071 5340
000003e0: ba21 189c 7f41 5340 f4a2 2390 f886 5340
000003f0: 93bb a469 f575 5340 e232 f2eb b0c1 5340
00000400: e834 5bc6 943a 5340 f25b 1b2d 0058 5340
00000410: 47c6 f4f4 6064 5340 f382 e867 62a0 5340
00000420: 4f23 c485 cd5e 5340 2966 d67e 6c27 5340
00000430: 5f65 1558 4428 5340 708a b15a d43a 5340
00000440: 2fba 1ef0 d37a 5340 fa9b 0906 3e60 5340
00000450: ae80 1ac7 b446 5340 145e 60f1 5a63 5340
00000460: 84cc 8e2a 0541 5340 8a7a 9113 3573 5340
00000470: fca0 d3dd 8264 5340 f694 786d 0448 5340
00000480: b983 3269 8d4a 5340 071d 4adb 1a8e 5340
00000490: edc0 df44 ba80 5340 b975 541d a548 5340
000004a0: ea79 d1e9 e062 5340 9991 d75e 0c43 5340
000004b0: 45c0 4627 6132 5340 3bd5 4806 6f52 5340
000004c0: 26e7 172f a50f 5340 1eb0 bde6 721f 5340
000004d0: 1fb7 f748 feaf 5340 50fd c01f ef60 5340
000004e0: 3c31 c8d8 0e34 5340 22ed 1ba7 8a5c 5340
000004f0: 00f7 dbea 244f 5340 3742 cc51 9187 5340
00000500: eb87 4f61 6370 5340 6ae4 5c25 ce70 5340
00000510: acce 6f8f e654 5340 9fef 4efb afb8 5340
00000520: 03ab 4edf fc68 5340 5348 aec2 0650 5340
00000530: 34a9 e696 6316 5340 cc83 0fe1 2033 5340
00000540: bf17 55ec c983 5340 7e7f 8070 6c65 5340
00000550: 1e77 b1a8 b462 5340 9c4b 8eee f37a 5340
00000560: efba b191 6c57 5340 905d 8cc8 198f 5340
00000570: 0784 c592 2967 5340 dc10 131c c54b 5340
00000580: bcc6 829d 9a65 5340 e5ea 8825 079d 5340
00000590: e77f b5fb 9f8a 5340 dc30 8310 cd42 5340
000005a0: 2892 37c2 5270 5340 d662 b7e5 a65a 5340
000005b0: 1862 c330 ad52 5340 1d7a 642d ee9b 5340
000005c0: 5d39 b35c e21b 5340 fa7b dad5 b545 5340
000005d0: 389a 3408 2c9c 5340 1481 cc1c 466a 5340
000005e0: 76a5 ae45 dc3b 5340 b460 9587 4271 5340
000005f0: 42f5 687e 215d 5340 2a3e c7f4 448d 5340
00000600: 3374 4be2 ef61 5340 c4a8 b45d cc74 5340
00000610: b894 17fb 3e6f 5340 148c f22c 7295 5340
00000620: 3ce3 0626 c566 5340 411f e6cc 0762 5340
00000630: 4b71 733f 0140 5340 2dd5 9a60 8c57 5340
00000640: 26c1 0cd3 0885 5340 a8d0 e350 1d85 5340
00000650: a89c 4155 9872 5340 c9ad dd34 ae79 5340
00000660: e01b 7913 2f67 5340 05dd dbdf 419a 5340
00000670: 540f 3baa 5f73 5340 7464 b8d5 2b5e 5340
00000680: 31b1 6a4e 6d8a 5340 c319 f6d8 7f91 5340
00000690: c94c 191d 2c9b 5340 29ed 0b32 f66a 5340
000006a0: 2cec f32e c596 5340 bec7 507f b165 5340
000006b0: b941 4de5 3186 5340 3d49 65fe 7688 5340
000006c0: 11b5 6590 ac20 5340 ee73 0711 c175 5340
000006d0: dac9 314a 59a4 5340 d4b3 32d5 7466 5340
000006e0: 55e7 e6ad ae57 5340 dee7 4c6c 6281 5340
000006f0: ab3d 89d5 c471 5340 7c34 06db 4faf 5340
00000700: 71e1 8527 b35a 5340 605f 7b61 ce6a 5340
00000710: 37e5 8529 9361 5340 5efc 5604 eda2 5340
00000720: 8ba4 d02a ba49 5340 a054 22cd 0163 5340
00000730: 8879 d10b 9a40 5340 95de 2e94 b75e 5340
00000740: 3016 c2a4 997f 5340 d4e8 6cb9 1b71 5340
00000750: bee0 5eb0 7754 5340 f995 aa16 5784 5340
00000760: 15a4 41f8 ef4d 5340 63e0 5a0b 999e 5340
00000770: 262c b6ee ae73 5340 a127 53c4 6260 5340
00000780: a2c7 6564 825d 5340 21d1 4d3c 6296 5340
00000790: 143e eea8 c08d 5340 cb94 3756 1f6c 5340
000007a0: de69 28f5 5982 5340 f343 ddde 2a6a 5340
000007b0: 2c22 c48a 5a54 5340 9e20 9b2f 738e 5340
000007c0: f941 ec5b d212 5340 55e5 60cd 0b47 5340
000007d0: 5218 a50c 0491 5340 c4d5 ad2c 4869 5340
000007e0: 9411 e8c6 9a42 5340 bec5 ab63 e07b 5340
000007f0: b4dc 659f 8a5e 5340 078b 148f 939f 5340

conv2.lin_dst.weight f8 [32, 32]
69.65048281713655 68.89761460064915 70.09279276467701 71.8277009494899 67.93396545255766 69.47911695203432 70.06911785474873 69.61768726514434
71.18097709602495 69.54214089117703 69.39950489595466 70.64254823045887 68.99937073160868 71.34072382732906 69.66441080942695 68.65921582694922
68.63978086638102 70.45665092840247 69.55321854409408 68.88653523932778 68.75970149214403 69.94106227426808 68.54425569579499 69.98899408568751
67.8705251841812 70.25898199770234 69.82125709941897 68.41972714696396 67.81717999929536 70.52952551426608 71.59419961554217 69.19190193871121
77.377766238825 77.95316629503604 77.7948466282023 79.08899085503504 77.7124451576459 77.19072141525274 76.86368473341867 77.02557502230982
77.81781801720561 77.45224378841529 77.64176338698475 77.5542514366936 77.40204793769614 77.63290868732358 78.2138289005357 77.61731189780909
77.44234314355101 78.38456073429205 78.65239886137282 77.72541587700874 78.11529000517974 77.29844054674918 76.89810464477317 78.12347131423525
76.21506834691172 77.32942833850798 78.28561282636942 77.64722062435497 77.1087255234686 77.65646144651407 77.61259941847769 78.53845817853478
77.89202166109581 77.90207001390225 77.93441557373578 79.12382463293783 78.01177912982409 77.34836715345703 77.67833485522857 77.44351410326944
79.01220686218275 77.9000156001697 78.05207460680877 78.30233035599088 78.49283366422094 78.83102032426793 78.45591890921023 77.70475081519582
78.0399585199551 78.28184514544446 78.7154974999048 78.10849173275592 78.57224963921387 77.71119650468691 77.84583578182391 78.71738319031391
76.3645578222167 77.86009709372458 79.59596535437983 77.876698672863 77.41167169503004 78.37015596440271 78.0906852275633 78.79195688678962
77.62920026208334 77.76039058375734 77.61373405476435 79.14381164988673 77.69187950057936 77.58846170240056 76.96877597281623 77.41435486377038
77.6510034593856 77.6997123997514 77.79086458139955 77.640174376744 77.82260607416812 78.18736641067272 78.6464780895919 77.89411713965379
77.69061068182256 78.5758962344148 77.92267300401157 77.26797881364618 77.8224384537105 77.23498002529116 77.1311600982789 78.262344395535
76.61612764366717 77.22293677381904 79.36834137066177 77.77641452284104 77.02341368061653 78.1089210842145 77.84310380065135 79.02642344143126
76.91533049494649 77.37501075431626 77.56841777709734 78.50600621896938 77.48129409936995 76.61599703729065 76.62917139138652 76.91921107614485
77.91918566704474 77.50378561914832 77.10478379810476 77.55242571268928 77.0159403223534 77.80011452872182 77.5704874579132 77.12527024055075
77.16488103802739 78.2203891967548 78.01136895991267 77.13507779357941 77.54497762161887 77.04763003398547 76.78717977437289 77.28802640068618
76.2444570287158 76.49138802074637 78.74989532652806 77.51459497305518 76.81340617704421 77.4459626934736 77.23662826043073 78.11824459979185
77.75606568113987 77.76258215018757 77.32657228392299 78.885741068922 77.64043409998344 77.25041262645509 76.34982845807536 76.79888178362961
78.05919941243972 77.58474361942896 77.54227654772373 77.92113841911345 77.36600153309313 78.23594869334761 77.61191243446966 77.18390561925793
77.58756196757435 78.45356119509559 78.1660146019418 77.04376614390952 77.7550511877713 77.41643660458371 77.29182070808781 78.43641218960006
76.4356910467372 77.08922334991794 78.44018750321345 77.6605293271171 76.93531934790903 77.76968564593955 77.45516929864701 78.20733375031764
77.53026635521455 77.82497351305489 77.73821904471231 78.33509372411964 77.60578299210187 77.53172609780178 77.00007616304099 77.3679429542578
78.07866359944873 78.07991430518689 77.7905476704351 77.90125772140813 77.6122482950882 78.4102706572631 77.80271392600599 77.4714254666049
78.16292152804523 78.27342819245591 78.4245674845762 77.67127658047379 78.35578512020646 77.58895857704826 78.0967953924618 78.13226280108661
76.51053247387269 77.8399088452131 78.56794981825024 77.60088090850269 77.37003657864746 78.02163226614309 77.77763880159789 78.73924899679145
77.41718471597939 77.66884648368932 77.52460706783027 78.54571636671741 77.15198774695652 77.5469849429378 77.00940223175542 77.47995476319404
77.99375266031052 77.76731715808575 77.3198052336256 78.06781546267293 77.21777159128426 78.47809108614597 77.80755203047065 77.50602825279795
77.46108350696025 78.34974582289989 78.2148840262019 77.6894126456056 78.03674057909618 77.65886661155655 77.31802624848996 78.22578039311563
76.29408929893533 77.11009535276874 78.26587215540465 77.64503018356396 77.04069683707195 77.93557063841487 77.47721085498307 78.49338128095779
00000000: 888d ae82 a169 5140 d08c 8284 7239 5140
00000010: f765 1051 f085 5140 583b 670d f9f4 5140
00000020: 0e95 0817 c6fb 5040 95fc 25da a95e 5140
00000030: ca6d 4b6d 6c84 5140 d7bc 2a30 8867 5140
00000040: 2430 f520 95cb 5140 7f5b b56f b262 5140
00000050: e6ad fb7c 9159 5140 1bfb 9c82 1fa9 5140
00000060: b035 a8b0 f53f 5140 29d6 4f6b ced5 5140
00000070: 4066 eab4 856a 5140 2970 9497 302a 5140
00000080: a26d 722b f228 5140 4ecb d0c4 399d 5140
00000090: 309b c0ee 6763 5140 85ea 4cfe bc38 5140
000000a0: c9de 01f3 9e30 5140 c5de 425d 3a7c 5140
000000b0: 7a86 d715 d522 5140 c77d d9ad 4b7f 5140
000000c0: c519 43af b6f7 5040 9898 3a29 9390 5140
000000d0: 30e7 ef79 8f74 5140 085d 40cf dc1a 5140
000000e0: cffa 56ad 4cf4 5040 e88a fbbe e3a1 5140
000000f0: 2903 d35d 07e6 5140 6fb3 111f 484c 5140
00000100: 5352 7252 2d58 5340 1335 34ad 007d 5340
00000110: be5d 64c4 de72 5340 3001 b306 b2c5 5340
00000120: 1812 93b3 986d 5340 124a 98c7 344c 5340
00000130: 9c05 559c 4637 5340 921a 6b05 a341 5340
00000140: 927e 6121 5774 5340 0544 ee8f f15c 5340
00000150: a9b7 bda6 1269 5340 0b97 04db 7863 5340
00000160: 11f5 4527 bb59 5340 2e5a 7093 8168 5340
00000170: 64af 695f af8d 5340 6421 c309 8267 5340
00000180: 55ca 9d59 4f5c 5340 0c47 a0a4 9c98 5340
00000190: cf62 27e7 c0a9 5340 1cf0 b636 6d6e 5340
000001a0: 5f73 54e9 6087 5340 a305 61a6 1953 5340
000001b0: ef6b e78b 7a39 5340 9c28 3af4 e687 5340
000001c0: 0019 07ae c30d 5340 1d11 995a 1555 5340
000001d0: c924 057b 4792 5340 afb9 0d10 6c69 5340
000001e0: 71e2 e55b f546 5340 38f7 de76 036a 5340
000001f0: 42fa 30d4 3467 5340 85c4 4a19 76a2 5340
00000200: ba6e 05e2 1679 5340 651a de83 bb79 5340
00000210: 5e84 fa76 cd7b 5340 0f3a 27be ecc7 5340
00000220: ab57 40fd c080 5340 4fc6 bea5 4b56 5340
00000230: 64bc 98d6 696b 5340 d936 fa88 625c 5340
00000240: 2677 4aff c7c0 5340 9827 08db 9979 5340
00000250: 874c bb30 5583 5340 68e4 6b61 5993 5340
00000260: 988c 3596 8a9f 5340 b1c2 de6f 2fb5 5340
00000270: e62b 81c6 2d9d 5340 1bc6 29a3 1a6d 5340
00000280: d719 2eae 8e82 5340 1a8e 38c0 0992 5340
00000290: 7f9d 06b6 caad 5340 ad04 4f87 f186 5340
000002a0: 9164 f3bc 9fa4 5340 3a2a 583e 846d 5340
000002b0: 192e 672c 2276 5340 4c46 2f9b e9ad 5340
000002c0: fdfa 54ea 5417 5340 a13b aed4 0b77 5340
000002d0: 11a7 de4b 24e6 5340 2a19 c0d4 1b78 5340
000002e0: f2b5 3cd4 585a 5340 db61 a4a2 b097 5340
000002f0: 57a7 69c9 cd85 5340 9e26 f06b afb2 5340
00000300: 1612 2dd1 4468 5340 255b 443d aa70 5340
00000310: e169 336b 4767 5340 0743 c735 34c9 5340
00000320: b7f0 f4c0 476c 5340 92b0 455b a965 5340
00000330: 5d19 f06c 003e 5340 4535 43ca 845a 5340
00000340: 38e9 690a aa69 5340 6e62 8416 c86c 5340
00000350: 402b 7a86 9d72 5340 92f6 f29d f868 5340
00000360: c182 f293 a574 5340 548d afcf fd8b 5340
00000370: 2d18 a3e5 5fa9 5340 ca66 1837 3979 5340
00000380: 8e2c 25f7 326c 5340 df2c e17b dba4 5340
00000390: 6f48 1213 0d7b 5340 6628 9c90 2651 5340
000003a0: 346a e5d4 a274 5340 aff5 a8e9 094f 5340
000003b0: 7929 53ed 6448 5340 26c7 2540 ca90 5340
000003c0: 92ed a3a2 6e27 5340 3a28 9a98 444e 5340
000003d0: 6430 afe7 92d7 5340 78ef 89c6 b071 5340
000003e0: ba21 189c 7f41 5340 f4a2 2390 f886 5340
000003f0: 93bb a469 f575 5340 e232 f2eb b0c1 5340
00000400: e834 5bc6 943a 5340 f25b 1b2d 0058 5340
00000410: 47c6 f4f4 6064 5340 f382 e867 62a0 5340
00000420: 4f23 c485 cd5e 5340 2966 d67e 6c27 5340
00000430: 5f65 1558 4428 5340 708a b15a d43a 5340
00000440: 2fba 1ef0 d37a 5340 fa9b 0906 3e60 5340
00000450: ae80 1ac7 b446 5340 145e 60f1 5a63 5340
00000460: 84cc 8e2a 0541 5340 8a7a 9113 3573 5340
00000470: fca0 d3dd 8264 5340 f694 786d 0448 5340
00000480: b983 3269 8d4a 5340 071d 4adb 1a8e 5340
00000490: edc0 df44 ba80 5340 b975 541d a548 5340
000004a0: ea79 d1e9 e062 5340 9991 d75e 0c43 5340
000004b0: 45c0 4627 6132 5340 3bd5 4806 6f52 5340
000004c0: 26e7 172f a50f 5340 1eb0 bde6 721f 5340
000004d0: 1fb7 f748 feaf 5340 50fd c01f ef60 5340
000004e0: 3c31 c8d8 0e34 5340 22ed 1ba7 8a5c 5340
000004f0: 00f7 dbea 244f 5340 3742 cc51 9187 5340
00000500: eb87 4f61 6370 5340 6ae4 5c25 ce70 5340
00000510: acce 6f8f e654 5340 9fef 4efb afb8 5340
00000520: 03ab 4edf fc68 5340 5348 aec2 0650 5340
00000530: 34a9 e696 6316 5340 cc83 0fe1 2033 5340
00000540: bf17 55ec c983 5340 7e7f 8070 6c65 5340
00000550: 1e77 b1a8 b462 5340 9c4b 8eee f37a 5340
00000560: efba b191 6c57 5340 905d 8cc8 198f 5340
00000570: 0784 c592 2967 5340 dc10 131c c54b 5340
00000580: bcc6 829d 9a65 5340 e5ea 8825 079d 5340
00000590: e77f b5fb 9f8a 5340 dc30 8310 cd42 5340
000005a0: 2892 37c2 5270 5340 d662 b7e5 a65a 5340
000005b0: 1862 c330 ad52 5340 1d7a 642d ee9b 5340
000005c0: 5d39 b35c e21b 5340 fa7b dad5 b545 5340
000005d0: 389a 3408 2c9c 5340 1481 cc1c 466a 5340
000005e0: 76a5 ae45 dc3b 5340 b460 9587 4271 5340
000005f0: 42f5 687e 215d 5340 2a3e c7f4 448d 5340
00000600: 3374 4be2 ef61 5340 c4a8 b45d cc74 5340
00000610: b894 17fb 3e6f 5340 148c f22c 7295 5340
00000620: 3ce3 0626 c566 5340 411f e6cc 0762 5340
00000630: 4b71 733f 0140 5340 2dd5 9a60 8c57 5340
00000640: 26c1 0cd3 0885 5340 a8d0 e350 1d85 5340
00000650: a89c 4155 9872 5340 c9ad dd34 ae79 5340
00000660: e01b 7913 2f67 5340 05dd dbdf 419a 5340
00000670: 540f 3baa 5f73 5340 7464 b8d5 2b5e 5340
00000680: 31b1 6a4e 6d8a 5340 c319 f6d8 7f91 5340
00000690: c94c 191d 2c9b 5340 29ed 0b32 f66a 5340
000006a0: 2cec f32e c596 5340 bec7 507f b165 5340
000006b0: b941 4de5 3186 5340 3d49 65fe 7688 5340
000006c0: 11b5 6590 ac20 5340 ee73 0711 c175 5340
000006d0: dac9 314a 59a4 5340 d4b3 32d5 7466 5340
000006e0: 55e7 e6ad ae57 5340 dee7 4c6c 6281 5340
000006f0: ab3d 89d5 c471 5340 7c34 06db 4faf 5340
00000700: 71e1 8527 b35a 5340 605f 7b61 ce6a 5340
00000710: 37e5 8529 9361 5340 5efc 5604 eda2 5340
00000720: 8ba4 d02a ba49 5340 a054 22cd 0163 5340
00000730: 8879 d10b 9a40 5340 95de 2e94 b75e 5340
00000740: 3016 c2a4 997f 5340 d4e8 6cb9 1b71 5340
00000750: bee0 5eb0 7754 5340 f995 aa16 5784 5340
00000760: 15a4 41f8 ef4d 5340 63e0 5a0b 999e 5340
00000770: 262c b6ee ae73 5340 a127 53c4 6260 5340
00000780: a2c7 6564 825d 5340 21d1 4d3c 6296 5340
00000790: 143e eea8 c08d 5340 cb94 3756 1f6c 5340
000007a0: de69 28f5 5982 5340 f343 ddde 2a6a 5340
000007b0: 2c22 c48a 5a54 5340 9e20 9b2f 738e 5340
000007c0: f941 ec5b d212 5340 55e5 60cd 0b47 5340
000007d0: 5218 a50c 0491 5340 c4d5 ad2c 4869 5340
000007e0: 9411 e8c6 9a42 5340 bec5 ab63 e07b 5340
000007f0: b4dc 659f 8a5e 5340 078b 148f 939f 5340

linear.weight f8 [1, 32]
79.86895336007166 81.95705674847248 82.3585120601329 81.88063562351007 81.47487729846553 81.91185352935885 82.15392185708284 81.99684236361678
79.07401356480078 81.94869382229861 81.97571538116966 81.78953573509597 79.92658536141293 82.26748213837513 79.59890332136456 81.79290468926135
81.5921718209426 80.72219228094595 81.83871528344648 78.67225519809985 82.02039408991305 82.27110392398286 81.98934315184601 81.95334946165772
81.63200353867398 80.94513190783321 78.81705763478034 82.65920535399091 82.06561756036395 82.01113262555886 78.53598523202784 81.89306531073062
00000000: 74d0 8dee 9cf7 5340 bfc6 f26a 407d 5440
00000010: 835f 91dc f196 5440 c6aa 8455 5c78 5440
00000020: 6da1 c063 645e 5440 a9d5 e7ce 5b7a 5440
00000030: dd93 0fdb d989 5440 17c0 e943 cc7f 5440
00000040: e711 64a3 bcc4 5340 252c 4b66 b77c 5440
00000050: fc14 ed1e 727e 5440 ac50 e4c0 8772 5440
00000060: 230e b02c 4dfb 5340 7625 676d 1e91 5440
00000070: 80ae 986e 54e6 5340 3e4e 4ff3 be72 5440
00000080: eb23 a324 e665 5440 8905 f965 382e 5440
00000090: b643 de82 ad75 5440 e999 aa3a 06ab 5340
000000a0: 544d 0323 4e81 5440 b7d4 45c4 5991 5440
000000b0: d06c f065 517f 5440 aade 75ad 037d 5440
000000c0: e863 f8be 7268 5440 2fa3 8a0a 7d3c 5440
000000d0: 0915 1bac 4ab4 5340 4d2f a76b 30aa 5440
000000e0: 9df3 fe13 3384 5440 69ac 9d65 b680 5440
000000f0: b5ac 0095 4da2 5340 edb1 67fb 2779 5440

linear.bias f8 [1]
45.89294860857203
00000000: ac69 d723 4cf2 4640
