models/baseline_0.01_250_out_of_2000.pt (torch, 1191 bytes, 1 tensors)

linear.weight f4 [1, 32]
0	0x40992d66	4.786792
1	0x3ff4f6e2	1.9137843
2	0x40935a4e	4.6047735
3	0xc0b79af3	-5.7376647
4	0xc0a703a2	-5.2191935
5	0xc0c90363	-6.2816634
6	0x40a1d581	5.0573125
7	0x40cf6786	6.481387
8	0xc0a4765d	-5.1394486
9	0xc0af378f	-5.475532
10	0xc0b7d9d6	-5.7453413
11	0xc0dba975	-6.8644357
12	0xc0c2b838	-6.0849876
13	0xc0915ee1	-4.542832
14	0xc0bbed1f	-5.8726954
15	0x4072d2af	3.794109
16	0xc00e3e40	-2.2225494
17	0x4081edea	4.0602922
18	0x405da14e	3.4629703
19	0x40aa0cec	5.3140774
20	0xbfe84a0f	-1.8147601
21	0x40e5e366	7.1840086
22	0xbfc9582e	-1.5730035
23	0x40c1ad34	6.052393
24	0xc0ecac3e	-7.3960257
25	0x40a8da5e	5.276656
26	0x40a8f785	5.280215
27	0x40b82803	5.7548842
28	0xc044c08a	-3.0742517
29	0xbe8148e7	-0.25250933
30	0x405c17a3	3.4389427
31	0xbfe186bc	-1.7619243
