models/baseline_0.01_1250_out_of_1500.pt (torch, 1191 bytes, 1 tensors)

linear.weight f4 [1, 32]
0	0xc01fb1ac	-2.4952192
1	0x3fbce17b	1.4756311
2	0xbfa12fd1	-1.2592717
3	0xbfe2ea7f	-1.7727813
4	0xc028ef92	-2.6396222
5	0x3f280577	0.6563334
6	0x3f844818	1.0334501
7	0xbd9aafba	-0.075530484
8	0x3ecc6bfb	0.39926133
9	0xbffdb3f2	-1.982054
10	0x3f779c80	0.96723175
11	0x3f3fb923	0.7489187
12	0xbebfdc46	-0.37472743
13	0xbedad00b	-0.4273685
14	0xbff9d76b	-1.9518865
15	0x3cea5e0b	0.028609296
16	0xbe0eee42	-0.13958076
17	0xc00c27a9	-2.1899207
18	0xbeffd1f8	-0.4996488
19	0x3f463c8a	0.77436125
20	0x3eff831b	0.49904713
21	0x3f79d306	0.9758762
22	0x3f365bad	0.71233636
23	0x3ec6d543	0.3883458
24	0xc0129f1f	-2.290962
25	0xbea958bf	-0.3307552
26	0xbe56f21b	-0.20990793
27	0xc0102e49	-2.252825
28	0x3fc6fda6	1.5546157
29	0x3f9652d8	1.1744032
30	0x3ea4bdfb	0.32176194
31	0xc0583eef	-3.3788412
