models/baseline_0.01_1000_out_of_2000.pt (torch, 1191 bytes, 1 tensors)

linear.weight f4 [1, 32]
00000000: 232c 3440 b5fd debe f1d4 98be 7610 d1bf
00000010: f4de d3bf bb8a 31bf 0c95 3840 8401 8b40
00000020: 5b56 c7be 3611 e03d 4b00 4c3f e09d 63c0
00000030: fdd7 63bf cd6b 02c0 446a c9bf f8e5 0c3f
00000040: 978d 63bf 3b27 03be 7629 3f3f 1033 3640
00000050: 9d36 e73f 1dd7 3b40 eaaa 1840 54eb b53e
00000060: fe32 95bf 2891 0840 7d78 9140 7ae7 2a40
00000070: 3b83 46bf 343e c8bf f3d1 383f 87fa 87bf
2.815194 -0.43552938 -0.2984996 -1.6333148 -1.6552415 -0.6935231 2.884097 4.343935
-0.38933071 0.10940783 0.7968795 -3.556511 -0.89001447 -2.0378296 -1.5735555 0.55038404
-0.88887924 -0.12807934 0.7467264 2.8468666 1.8063542 2.9350045 2.3854318 0.35531104
-1.1656187 2.1338596 4.545958 2.6703782 -0.7754399 -1.5643983 0.7219536 -1.062333
