models/baseline_0.0001_100.pt (torch, 13703 bytes, 12 tensors)

conv1.att_src f8 [1, 1, 32]
00000000: ba0c 702f 2f52 d93f 8b78 aa1a 7d0a d13f
00000010: 2f1f c80d 54c9 d33f 10a7 61cc db55 d03f
00000020: ea64 99a2 601a b6bf d257 0f50 1a31 d0bf
00000030: dfdb 2ed6 e0ca d0bf 1089 43e6 9866 d3bf
00000040: e8e7 f3ef b6ce dd3f b32a a723 fdc3 c1bf
00000050: c1e6 f05f bfce bbbf 820d ff94 b3e6 c7bf
00000060: 58c0 04eb 82b8 cfbf 95e6 e46e 5a0e b0bf
00000070: e8de 5e76 0647 d5bf 9c18 1d87 5f52 d13f
00000080: c7ed 41fa 3bc8 a1bf 4dff 930a 33d5 ddbf
00000090: a62f ba14 29e8 cdbf 87b4 5d9b 12e1 c03f
000000a0: 7a62 5dbf 9bbf ccbf 66c9 ff4c 86b2 d63f
000000b0: e4c1 04ec cd94 cebf ae33 b206 9064 a8bf
000000c0: f4f4 55df 7785 c4bf 0f2a e122 e9ca ccbf
000000d0: b34b b5c0 16a1 a73f 3e80 ea86 0b8b da3f
000000e0: 494a 50b2 dee0 d23f 2db6 8ac3 1ae4 c43f
000000f0: 67ac 392f a5e2 d5bf a168 4950 e7f3 c6bf
0.39564113266551326 0.26626517871944405 0.3091631064021269 0.2552403922951365 -0.08633998841959892 -0.2529969961009303 -0.2623827067977213 -0.30313704001140795
0.46574185784231625 -0.13879360428685103 -0.10862346737203678 -0.1867279508133884 -0.24781834102168676 -0.06271901328445957 -0.3324600368464261 0.2706526584119133
-0.034730791377082286 -0.46613765748042085 -0.23364747535776792 0.13186867319328519 -0.22459742397292698 0.3546462776131619 -0.23891614937157535 -0.04764223176707759
-0.1603231277949032 -0.22494234278777056 0.04615088560480931 0.4147366349734546 0.2949749699920728 0.16321119831029432 -0.34195832836002754 -0.17931834621669387

conv1.att_dst f8 [1, 1, 32]
00000000: 51e5 ef35 3885 db3f 6d60 68f9 85eb c4bf
00000010: 8579 929d bbdd a73f 233e 6452 b0d5 d23f
00000020: 5eae b8d5 1bf0 cb3f a9ff 2f2e acc0 d43f
00000030: 6641 d6ff 298e d6bf 9a77 7b11 8f08 c43f
00000040: 9d24 c901 24fa b53f 720c 9dee 094f d3bf
00000050: 676d f091 4a4b bd3f 3a0e c1cd 06bb 813f
00000060: 1ada 21d2 9012 4bbf a34e f78a a6e4 a83f
00000070: 0811 5ba7 ccdb d73f 6a6a ac75 8d70 c83f
00000080: 695d fd7e e397 db3f 86bd 9ff6 4650 d93f
00000090: 79c3 605f 5d45 d7bf d5f7 7d2f 36c3 d03f
000000a0: 052e 5785 9ae2 d4bf 4168 0c44 b84c cf3f
000000b0: 8660 ecae 822a d53f 5157 bc14 af18 9dbf
000000c0: 9226 3e1b 20cf c23f 7f88 0ef1 8dc6 b93f
000000d0: 0d34 d36c 5a9f d33f bfdb d4d1 e18e 9b3f
000000e0: b351 fa2e 4c5d d63f 3b32 e5da 1ba2 b93f
000000f0: b94c b2ff 000e da3f 7f60 a447 e74d d93f
0.43000607745451186 -0.16343760183440584 0.04661356256950725 0.2942925266843039 0.21826503692260507 0.32425980101106205 -0.3524270056159565 0.15651119569423316
0.08584809344860607 -0.3016991453370742 0.11443010390251161 0.00865750613605264 -0.0008261878140405938 0.04861946531641805 0.3727904924710548 0.19093483205581957
0.43114554787958653 0.3955247314870224 -0.36360868753677483 0.26191477430245175 -0.3263307859567422 0.24452880213431352 0.33071963388784587 -0.028414474144560945
0.14694596605504678 0.10068595061469131 0.3066011488670604 0.02691223948678689 0.34944443309475587 0.100129834119067 0.40710473032340705 0.3953798484449251

conv1.bias f8 [32]
00000000: 22a4 927a 3efd ae3f 0eb6 d2ff 78f9 b23f
00000010: 7e31 0d27 5339 9b3f 8d30 df3c cb46 a13f
00000020: c1f5 9fd7 5c92 b03f f123 d4fc 56cd 813f
00000030: bad4 82b6 12b4 a53f e8de 8c2f 38da 943f
00000040: 9709 5f5f 3421 8dbf ec4e e3f5 c49b 9d3f
00000050: ae23 f560 fc07 a43f 4cf6 428e 4c1d abbf
00000060: e954 63d3 3aef 9bbf 41c4 af25 6b79 a63f
00000070: 0ce1 d5f5 c312 b03f f3d9 2db3 92f2 ae3f
00000080: 5e93 f782 8f05 ad3f e4a3 a3c4 3074 a53f
00000090: 3950 3a01 7369 923f b11a 4fae 4776 a4bf
000000a0: 78e5 d5d2 f8d6 b33f ca58 a9de af50 a83f
000000b0: c21e 8646 49dd b03f 52d7 6c66 b2d2 02bf
000000c0: 72e0 7f4a befb 613f 4dc1 0280 0b95 6fbf
000000d0: 4e49 5719 7875 a03f ebb4 713d 389c b43f
000000e0: 477f 9985 1141 af3f 4381 79d3 70a9 b43f
000000f0: 3a53 042e d7ad 7cbf 206f ddfd a896 9c3f
0.06052584882974822 0.07411915059739035 0.026585864313618306 0.033743239575046415 0.06473331703451547 0.008692435827940744 0.042389473704511585 0.020363691236723463
-0.014223488960742254 0.028914525516326714 0.039123427234307825 -0.05295790897933425 -0.02727977671823548 0.043895099974073044 0.0627863383468858 0.0604444354748245
0.0566830489513339 0.041902088168917634 0.017980381917894504 -0.03996490481181548 0.07749896190025207 0.047490592890129316 0.06587655994200772 -3.5902089442192906e-05
0.0021952358838426772 -0.003855249844569786 0.032146218388919054 0.08050872325994234 0.06104330783705208 0.08071046030955124 -0.007001724763786405 0.02791847276181081

conv1.lin_src.weight f8 [32, 3]
00000000: 5a1a 7872 8296 973f d434 e87b 9b14 d93f
00000010: 8390 d5da b3c8 7d3f e27c b664 a3d5 dc3f
00000020: 1bcb da10 17a5 dd3f de69 4260 6404 d2bf
00000030: 9fb4 c3a2 de37 d7bf 2088 2b0c 494f bdbf
00000040: 441f cd6f 6a2b d4bf e146 b5cc 4bad a43f
00000050: 7e80 4995 acca c0bf c0b6 c315 a3d7 d9bf
00000060: 90fe df67 57dd c93f 0d68 4cc7 81b6 c33f
00000070: 5180 45ae 4a8e c33f 02a1 5e02 30f7 c7bf
00000080: 54ad 6440 4c25 d2bf 2e2b 77a1 7623 d5bf
00000090: b6ab f1da 29d6 d2bf db93 e21d 311e d63f
000000a0: cec7 10cc 08a6 c43f aff0 1885 4b2c ca3f
000000b0: 6a8b f9ab d6a0 b03f e41c 30a3 7139 b03f
000000c0: d6a8 41aa 2dac bd3f ed2e 0627 f409 dc3f
000000d0: 55bd 77f4 6601 d13f 4576 bd7c fded dcbf
000000e0: 119c eb63 f3e4 bebf 0da7 d743 7aa7 d0bf
000000f0: 334a 0e71 c9f1 c43f ba79 b720 3ad5 c4bf
00000100: d75e 5f18 b36d d6bf a986 ff20 753c ca3f
00000110: 0738 beb6 b922 d03f 7277 18ee ded5 d53f
00000120: 3edc 7331 c5d1 c33f fa72 0824 bbef dbbf
00000130: 88f4 0cc8 c1b3 aebf 2d7c 724a ae5d dcbf
00000140: 9108 8c15 f77a c63f 5fcd 463d b757 d93f
00000150: c1da 35a8 8107 d83f b431 b7b4 c9fc 6c3f
00000160: 2178 f0ab 7a4b d7bf 5702 fc47 bd74 9f3f
00000170: 3f50 455e 97f7 d63f be31 f6b9 f113 d4bf
00000180: 2852 6e51 03b3 c5bf 0bb1 1308 f789 d43f
00000190: fa9b 3517 1229 7dbf c62a 42a5 1698 673f
000001a0: 878a c4c4 4a59 b9bf 005b c288 1517 b83f
000001b0: b99c 0be9 0a11 c93f 3a79 7c32 cb07 c43f
000001c0: d3e6 2a96 1f89 d03f a06c c02f c45c cdbf
000001d0: 6631 b8dd 9e2f b33f 9a51 e48f 337e c63f
000001e0: 4163 ddd5 a1fa c7bf bc74 0f20 443a d53f
000001f0: adc7 29b1 14d3 c23f 7dcf 9923 31fa d6bf
00000200: 830d dd41 749b 72bf 3546 7349 5636 d1bf
00000210: 208e be49 4548 9f3f 0a20 f333 b587 c63f
00000220: 4168 c0b9 9c3c dcbf a2cd 00cf 45c9 8cbf
00000230: 1da0 c2c4 79c8 b23f f097 df9d 010a ce3f
00000240: 3d48 b563 b80b cd3f 636a afcd 3fa4 d1bf
00000250: b2b1 38d7 8750 d5bf d5c4 761c 8c34 d9bf
00000260: d154 bb7a bc74 9d3f a612 6527 9cec d5bf
00000270: 3336 c8b3 5026 d1bf d6cc 2b03 5ca5 d5bf
00000280: 6324 a802 4116 d33f d757 540e 2672 70bf
00000290: 359a 1b8c d29f d83f a633 e445 cda8 b93f
000002a0: 6346 8ef5 a17d cc3f 2578 953c 0905 d63f
000002b0: 6d92 9b3a f94c d1bf db49 7fa1 2b27 d23f
000002c0: 1c67 1cb0 db1a d93f 1cba 7b78 3ba5 a0bf
000002d0: ebb9 1f87 4f0a c1bf 6951 8615 fa51 b0bf
000002e0: 1a08 7234 1710 d93f befd a3e3 8d34 d83f
000002f0: 061e 675a ee99 d4bf 220c dbc7 3731 d83f
0.02303508590378054 0.39188277340219924 0.007271482999701931 0.45053944430578785 0.4632013001056962 -0.2815180721314884 -0.3627850141045403 -0.11449104830856571
-0.3151498882111705 0.04038464425924616 -0.13118512429628376 -0.4037864410919205 0.20206730434437192 0.15400717002268074 0.15277989873266276 -0.18723106494622505
-0.2835264805641675 -0.3302895142375516 -0.2943215025067575 0.345592765030515 0.16131696666849255 0.20447677611253343 0.06495420168498148 0.06337652429657542
0.1159084835686913 0.4381075268836259 0.2657105815296366 -0.45202576810502065 -0.12068101109944986 -0.26022202134355227 0.16362875004104324 -0.16275717351432012
-0.3504455316556067 0.20497001754033775 0.25211947294235454 0.3411786389495922 0.15483918108631828 -0.4365070201763924 -0.059965186758270284 -0.4432178236983784
0.17562759925937546 0.39597874626197965 0.3754581587485682 0.0035385074204212445 -0.3639818839163827 0.030718762892322306 0.35886177259567725 -0.31371730003663945
-0.16952554203148051 0.3209207133175062 -0.007119246164939414 0.002880138616153746 -0.09901873878383514 0.09410223568771059 0.19583259944122292 0.15648784604213423
0.25836934723666366 -0.22939350444435025 0.07494538224290678 0.17572636152239057 -0.18733618681542377 0.33168128138442987 0.14706667566821122 -0.35902050472872543
-0.004542783861157476 -0.26894147084121595 0.030549128175733853 0.17601647411925142 -0.4411994756679896 -0.014055772189840724 0.07337151578633479 0.23468036850607588
0.22692017429887015 -0.27564997755476933 -0.33304019944878427 -0.39383223323518496 0.028765625945045784 -0.3425665268626211 -0.26796357685893496 -0.33821773824383905
0.2982332731194843 -0.004015110641622819 0.3847547882309386 0.10023196178754165 0.2225840043070547 0.3440573779715826 -0.27032309268387317 0.28364077349865874
0.39226429174742505 -0.032510622460780264 -0.133127156237108 -0.06375086808686138 0.39160709497093793 0.3782076571514742 -0.32189520672224636 0.3780040218081827

conv1.lin_dst.weight f8 [32, 3]
00000000: 5a1a 7872 8296 973f d434 e87b 9b14 d93f
00000010: 8390 d5da b3c8 7d3f e27c b664 a3d5 dc3f
00000020: 1bcb da10 17a5 dd3f de69 4260 6404 d2bf
00000030: 9fb4 c3a2 de37 d7bf 2088 2b0c 494f bdbf
00000040: 441f cd6f 6a2b d4bf e146 b5cc 4bad a43f
00000050: 7e80 4995 acca c0bf c0b6 c315 a3d7 d9bf
00000060: 90fe df67 57dd c93f 0d68 4cc7 81b6 c33f
00000070: 5180 45ae 4a8e c33f 02a1 5e02 30f7 c7bf
00000080: 54ad 6440 4c25 d2bf 2e2b 77a1 7623 d5bf
00000090: b6ab f1da 29d6 d2bf db93 e21d 311e d63f
000000a0: cec7 10cc 08a6 c43f aff0 1885 4b2c ca3f
000000b0: 6a8b f9ab d6a0 b03f e41c 30a3 7139 b03f
000000c0: d6a8 41aa 2dac bd3f ed2e 0627 f409 dc3f
000000d0: 55bd 77f4 6601 d13f 4576 bd7c fded dcbf
000000e0: 119c eb63 f3e4 bebf 0da7 d743 7aa7 d0bf
000000f0: 334a 0e71 c9f1 c43f ba79 b720 3ad5 c4bf
00000100: d75e 5f18 b36d d6bf a986 ff20 753c ca3f
00000110: 0738 beb6 b922 d03f 7277 18ee ded5 d53f
00000120: 3edc 7331 c5d1 c33f fa72 0824 bbef dbbf
00000130: 88f4 0cc8 c1b3 aebf 2d7c 724a ae5d dcbf
00000140: 9108 8c15 f77a c63f 5fcd 463d b757 d93f
00000150: c1da 35a8 8107 d83f b431 b7b4 c9fc 6c3f
00000160: 2178 f0ab 7a4b d7bf 5702 fc47 bd74 9f3f
00000170: 3f50 455e 97f7 d63f be31 f6b9 f113 d4bf
00000180: 2852 6e51 03b3 c5bf 0bb1 1308 f789 d43f
00000190: fa9b 3517 1229 7dbf c62a 42a5 1698 673f
000001a0: 878a c4c4 4a59 b9bf 005b c288 1517 b83f
000001b0: b99c 0be9 0a11 c93f 3a79 7c32 cb07 c43f
000001c0: d3e6 2a96 1f89 d03f a06c c02f c45c cdbf
000001d0: 6631 b8dd 9e2f b33f 9a51 e48f 337e c63f
000001e0: 4163 ddd5 a1fa c7bf bc74 0f20 443a d53f
000001f0: adc7 29b1 14d3 c23f 7dcf 9923 31fa d6bf
00000200: 830d dd41 749b 72bf 3546 7349 5636 d1bf
00000210: 208e be49 4548 9f3f 0a20 f333 b587 c63f
00000220: 4168 c0b9 9c3c dcbf a2cd 00cf 45c9 8cbf
00000230: 1da0 c2c4 79c8 b23f f097 df9d 010a ce3f
00000240: 3d48 b563 b80b cd3f 636a afcd 3fa4 d1bf
00000250: b2b1 38d7 8750 d5bf d5c4 761c 8c34 d9bf
00000260: d154 bb7a bc74 9d3f a612 6527 9cec d5bf
00000270: 3336 c8b3 5026 d1bf d6cc 2b03 5ca5 d5bf
00000280: 6324 a802 4116 d33f d757 540e 2672 70bf
00000290: 359a 1b8c d29f d83f a633 e445 cda8 b93f
000002a0: 6346 8ef5 a17d cc3f 2578 953c 0905 d63f
000002b0: 6d92 9b3a f94c d1bf db49 7fa1 2b27 d23f
000002c0: 1c67 1cb0 db1a d93f 1cba 7b78 3ba5 a0bf
000002d0: ebb9 1f87 4f0a c1bf 6951 8615 fa51 b0bf
000002e0: 1a08 7234 1710 d93f befd a3e3 8d34 d83f
000002f0: 061e 675a ee99 d4bf 220c dbc7 3731 d83f
0.02303508590378054 0.39188277340219924 0.007271482999701931 0.45053944430578785 0.4632013001056962 -0.2815180721314884 -0.3627850141045403 -0.11449104830856571
-0.3151498882111705 0.04038464425924616 -0.13118512429628376 -0.4037864410919205 0.20206730434437192 0.15400717002268074 0.15277989873266276 -0.18723106494622505
-0.2835264805641675 -0.3302895142375516 -0.2943215025067575 0.345592765030515 0.16131696666849255 0.20447677611253343 0.06495420168498148 0.06337652429657542
0.1159084835686913 0.4381075268836259 0.2657105815296366 -0.45202576810502065 -0.12068101109944986 -0.26022202134355227 0.16362875004104324 -0.16275717351432012
-0.3504455316556067 0.20497001754033775 0.25211947294235454 0.3411786389495922 0.15483918108631828 -0.4365070201763924 -0.059965186758270284 -0.4432178236983784
0.17562759925937546 0.39597874626197965 0.3754581587485682 0.0035385074204212445 -0.3639818839163827 0.030718762892322306 0.35886177259567725 -0.31371730003663945
-0.16952554203148051 0.3209207133175062 -0.007119246164939414 0.002880138616153746 -0.09901873878383514 0.09410223568771059 0.19583259944122292 0.15648784604213423
0.25836934723666366 -0.22939350444435025 0.07494538224290678 0.17572636152239057 -0.18733618681542377 0.33168128138442987 0.14706667566821122 -0.35902050472872543
-0.004542783861157476 -0.26894147084121595 0.030549128175733853 0.17601647411925142 -0.4411994756679896 -0.014055772189840724 0.07337151578633479 0.23468036850607588
0.22692017429887015 -0.27564997755476933 -0.33304019944878427 -0.39383223323518496 0.028765625945045784 -0.3425665268626211 -0.26796357685893496 -0.33821773824383905
0.2982332731194843 -0.004015110641622819 0.3847547882309386 0.10023196178754165 0.2225840043070547 0.3440573779715826 -0.27032309268387317 0.28364077349865874
0.39226429174742505 -0.032510622460780264 -0.133127156237108 -0.06375086808686138 0.39160709497093793 0.3782076571514742 -0.32189520672224636 0.3780040218081827

conv2.att_src f8 [1, 1, 32]
00000000: 6e9c 36fd 4e12 cd3f 1462 d79c e4bb d4bf
00000010: b509 aa58 5022 adbf 0e9e c30e 3178 c43f
00000020: 9e0b c596 6ea3 a93f 4799 e15e ee92 d23f
00000030: 9220 6ff6 49e4 c5bf 2b2b 1624 75be c43f
00000040: 7060 d95a a34d c13f 259e 077e 3d0f d43f
00000050: 9e31 dfb1 6495 d43f 4b83 d615 02fe cd3f
00000060: 4d94 9c96 909d ccbf 65c9 474a de8d d6bf
00000070: 8f4d 11ad f45d cabf 4fb5 db50 0c5f d7bf
00000080: 815c 68fa 520c d9bf 9273 3a39 7741 9a3f
00000090: ecd6 c45b b50f d1bf 7c14 7586 5b2a ce3f
000000a0: 49be a430 f603 d93f bafc 5e5b 87f8 d03f
000000b0: dea3 dbcd 60cd d1bf ac6c dad8 7990 d4bf
000000c0: 0774 7200 bc66 bcbf ffbe 4b7e bf91 dcbf
000000d0: ca35 9c24 8735 d2bf c483 cee3 87ba cbbf
000000e0: 146a 1e68 871b d33f 2ee0 4981 4886 adbf
000000f0: 9e90 e4ea 6ebc adbf fe49 9061 43ce d23f
0.22712123264247758 -0.323968079724666 -0.05690241892172613 0.159917957505272 0.050075012115960535 0.2902179647993716 -0.17102932484545313 0.16206230413475828
0.13518182693474357 0.3134301882514328 0.32161824579523024 0.23431421343141276 -0.2235584960373295 -0.35240895513483955 -0.205992302423152 -0.3651762761717991
-0.39137720540879434 0.025640356891574685 -0.26658376657301974 0.23566764893817893 0.3908668017420252 0.26516899035409447 -0.2781602869350176 -0.3213181131083711
-0.11094260226168738 -0.44639575322706543 -0.2845170838853305 -0.21662996886609964 0.2985552326951233 -0.05766512468557071 -0.05807825677246224 0.29383930709551

conv2.att_dst f8 [1, 1, 32]
00000000: d176 26ab a34c d2bf 4976 f514 e745 ccbf
00000010: 4672 9adb 89f9 7ebf 83c7 dcab 0f82 be3f
00000020: 4ee4 e1da 6e3f c1bf 8fca 9276 cc5f c13f
00000030: 6867 5986 1601 8dbf b567 6e5f 98f5 cfbf
00000040: a8b5 a323 75e9 cd3f 97d6 6446 5288 c33f
00000050: a7b6 f67f 57b9 cd3f a591 07bb d8a3 ba3f
00000060: df1c 948e 1f9f ccbf 539b 0099 9d44 d2bf
00000070: 65e5 517a 4843 b1bf 983c 4de5 98c3 d4bf
00000080: 680a 065e 79cd 8c3f e306 0230 3f55 d6bf
00000090: cbbb b9b7 a00d c93f 1c5f 5c89 a87a c8bf
000000a0: c890 d92e 5c9c d4bf fa26 4490 7d5a c6bf
000000b0: 5c3c 3fb7 f698 a33f 83a7 d500 10e6 d6bf
000000c0: e99b 5b28 c9e2 dabf d062 b019 6d59 d83f
000000d0: ac96 ef68 256e d23f 232c 1772 811d d6bf
000000e0: 3817 a5c7 5127 c63f 6b96 505b bdb7 d7bf
000000f0: 4384 25ab eb77 d2bf 6dc1 3ec4 dd3c c43f
-0.2859276934994855 -0.22088325999622985 -0.007562197215204741 0.11917207666263434 -0.13474832236878104 0.13573604383198698 -0.014162231421483276 -0.24968247089128473
0.23368705978593352 0.15259769856645697 0.23221868274906862 0.10406260076667324 -0.22360605680316945 -0.28543796483648015 -0.0674329088814339 -0.3244383086466285
0.014063785726425596 -0.3489530533625908 0.1957283875558161 -0.1912432356555137 -0.32204346251661464 -0.17463655037163744 0.03827639567281757 -0.3577919014120356
-0.4200919050330741 0.3804581404561249 0.28797278640409263 -0.34555088178302834 0.17307493446622302 -0.37058957974873036 -0.2885693713524839 0.15810749132425475

conv2.bias f8 [32]
00000000: 71b7 a64f dcca ab3f 1512 7ea6 83f9 a3bf
00000010: a2f3 02ca 5bfe 903f 7754 87d2 5ff2 b23f
00000020: ca35 6419 6a19 a0bf 1499 d2c4 98f0 9cbf
00000030: 0868 9050 ca6d 993f 8fc5 9489 7e23 a3bf
00000040: c3fb 2a6b 50bd b23f 9a58 9c1b 5fa4 ae3f
00000050: 033e 2555 b7c6 b23f 89a3 6e68 d33e aa3f
00000060: 5bf0 4a59 b2ae a43f 04b8 bee3 ddf9 a83f
00000070: 9b80 1166 2247 ad3f 7a3e 168e 4378 ab3f
00000080: c1c4 21a1 bb8a 96bf 4b96 da57 c1f3 90bf
00000090: 23a9 3689 bca1 9abf 1999 8095 ec43 b33f
000000a0: 2a33 aeee 0d3e ab3f 5c6a 9762 f3ef ad3f
000000b0: 0855 4ae4 d553 8fbf 5be2 2144 4e8a 993f
000000c0: 1b9c e6f7 7052 96bf f47f 6003 d5a2 75bf
000000d0: 97b3 aecf 9e30 af3f 6e37 3bc8 e154 a23f
000000e0: 43c1 dc8e ce41 ab3f 6b0b 7422 2cf2 91bf
000000f0: 422b b25c 1ff0 a83f 5152 7133 56a0 af3f
0.054282078478862135 -0.03901301772478775 0.01659530086975603 0.0740108384118957 -0.031443896865407675 -0.028261553776837436 0.024832879225961363 -0.03738017491776723
0.07320120445636662 0.059847805138063495 0.07334466770884522 0.05126057290846748 0.04039532985686441 0.04878133206453586 0.05718333717300191 0.0536519156404411
-0.02201359911891099 -0.016554852473424735 -0.026007600664948016 0.07525519037207963 0.05320781267719206 0.05847130373486628 -0.015296622304314514 0.024941656979054688
-0.0217988635355618 -0.00528224190023251 0.06091781888185393 0.03580384797315515 0.053236441554306534 -0.017525376894819738 0.048706989350725496 0.06177014711343943

conv2.lin_src.weight f8 [32, 32]
00000000: f743 c2fe 26c7 d03f bc23 041b 6413 acbf
00000010: 1f61 e9ba 2133 d23f 62ff ccc0 3c0f b7bf
00000020: 2c18 7928 025e 953f be73 d5b3 f035 c23f
00000030: e6e2 7029 5b06 c03f 0d42 3f18 1fb9 c03f
00000040: 9c3c 3f1d 41cc d63f 5b42 b57a aef6 ce3f
00000050: 65ea d504 a9f8 c9bf a8c1 3ac1 43b3 b7bf
00000060: 0453 2772 f1d0 cdbf 7859 60bd 32db b33f
00000070: 5534 d6d3 ace7 c13f 2b10 ab1f 023f d83f
00000080: f15a 086b ac42 c7bf 90eb 3fd0 c5fe c23f
00000090: 47e8 6afb ce7c c33f beb7 9bb5 ec29 ce3f
000000a0: c207 d15a 60ee a5bf fbfe f070 e192 903f
000000b0: 7cda d107 1c7a c23f 9a2b 7135 7c18 823f
000000c0: f254 1434 2549 d03f af31 2961 dee2 b33f
000000d0: 185f c077 1f40 c7bf 39ae 42ef 124f d63f
000000e0: 503b f8a6 c863 c3bf be30 4902 795e babf
000000f0: 4992 b4d5 beb9 d13f a204 f0ff 53df d03f
00000100: d071 3ec1 89e1 b73f 51dc 103a 56bb bc3f
00000110: e88f f90f de8f c13f 730d 6b05 7e0a c93f
00000120: 75fc fb8f 6bab a3bf b2a2 e065 0a89 d3bf
00000130: 265b 2753 9562 c5bf 3f78 8acd 73c6 d3bf
00000140: d1db a8d5 4917 b13f fd23 65c2 6725 c33f
00000150: 8697 075f f6b5 cbbf 753d 544c 1638 7b3f
00000160: 2e61 44e5 e5e5 d0bf f874 b760 ace8 cbbf
00000170: 4f1e 750d 8ff4 c0bf 1336 f2a9 8e88 89bf
00000180: 75ac 94bc 3c95 a53f a7fb cfed f997 c0bf
00000190: 5b37 9905 5ee3 c73f 563e 69c7 d470 acbf
000001a0: 42a3 64f8 2b77 c23f 080f 2b6c 5d0b 933f
000001b0: 5f70 ea1b 910e a6bf 3a37 d413 f031 92bf
000001c0: 2c49 65b8 1c8f aabf db40 005d 1df4 53bf
000001d0: 9ad0 0810 fec0 a33f 8836 160b 587d a3bf
000001e0: 7dae 3182 d6ca c9bf 8ebc b389 2e44 c23f
000001f0: 67d7 effd 118e b23f 6549 a24c 1a36 d03f
00000200: 2066 d295 873c c1bf 9312 c426 9bb9 ba3f
00000210: e529 2201 090d c13f 1f01 1d00 4a02 c63f
00000220: 8a74 6a3e b817 b6bf 42c7 85a5 171e a3bf
00000230: 6cc7 0054 f3db af3f 62e7 5931 5a34 b1bf
00000240: d7c4 4025 2f6e cfbf a47e 77a7 4d0f cfbf
00000250: 4b2d 714b ed73 a9bf 6e9f 4e33 34f5 d1bf
00000260: fef6 c2fb 7131 b73f f652 c2f1 9916 d4bf
00000270: 1c05 f381 7011 cdbf 289f 8d80 a296 99bf
00000280: 4fe7 e19b 9faa d2bf ebf4 0782 b5e2 c03f
00000290: dfde 7ced 67d7 b8bf ecc5 0bf9 ec05 86bf
000002a0: d62f 1019 572a c1bf d396 592a 6106 cfbf
000002b0: f372 1974 214b d4bf 9433 4b67 ddba bd3f
000002c0: 2668 a21c 0dcb a2bf 0f36 d613 720a 6a3f
000002d0: 1bd7 a8b4 2c35 873f 7bcf 19ba f32e bcbf
000002e0: c92a 4fc5 cf41 c03f 8157 d140 542c cabf
000002f0: 2bdd 541e 4832 be3f 2435 de71 6730 cdbf
00000300: 7035 8d1c 18a2 d23f 2413 06ce 104e cbbf
00000310: 6da9 6bf8 d823 ca3f ae6c 50b1 7453 c03f
00000320: 148c cd2b 7886 c3bf c24f 9d4f d1e2 ce3f
00000330: 8919 f9f2 dc3e b6bf 5254 4bcd 7e38 cc3f
00000340: 4cad 7db1 a1b2 9a3f 2855 3473 bc9c d0bf
00000350: 9db3 6806 87c7 d33f 9e6d 672b 412d c63f
00000360: 8294 5dff 52c1 d0bf a383 e0d7 a49f a03f
00000370: b7c5 9100 8f84 c83f 4c02 9146 cf71 d43f
00000380: 15e5 1c44 e4c3 b8bf 229b 9693 53a4 cbbf
00000390: e090 f498 c212 cd3f 9060 6414 a691 c0bf
000003a0: 40d4 4910 76c8 b03f f48a 3277 f947 c13f
000003b0: bcf8 a251 db6d cf3f b8b2 65c9 ff6e d23f
000003c0: ce4c a8ad caf9 b43f dc94 034d 8f94 95bf
000003d0: 87d3 4a58 b1b7 c33f a802 e872 b6e2 d03f
000003e0: 9237 8d3b a12c bbbf cd85 adf8 1af7 ca3f
000003f0: d1ee 832f 34ca d33f c49d f42b 7ead c4bf
00000400: 7dc1 66b3 40d4 ccbf ec9d 1202 c648 c83f
00000410: 4b2e 7aef 51a1 ce3f c53f 5c12 641d cc3f
00000420: 9ea8 ad24 f6df c6bf 95dc 34f6 9891 b33f
00000430: d64f 2e84 e924 b83f fe55 c976 3c78 bb3f
00000440: 1573 8d80 8bf9 a4bf 24a1 ac09 60a6 c13f
00000450: b4ac bae3 002a a73f b62b a284 0644 b7bf
00000460: 80a1 98fa 40bf c4bf 76f0 bf6d f4f2 5b3f
00000470: 91c3 eb36 5a03 d3bf 1724 05ee 3162 bd3f
00000480: f36f e5f0 ecbb c3bf 6d3d 8ba1 e48a d0bf
00000490: 6746 a5e5 4e37 cd3f bd16 322e 5c34 d03f
000004a0: c92b e183 95ef c53f 677f a472 d1c9 cdbf
000004b0: 52bc f224 a093 c23f 5d4a 1d91 a1bc b9bf
000004c0: 87eb 2288 8671 c83f 8349 bea0 45da c53f
000004d0: d3d9 f6a6 b43e a33f 9382 8fb8 e72b cc3f
000004e0: 60f4 8ecd 4c6c c73f 42f0 4b6f 995f a13f
000004f0: 2511 ac46 1fab cc3f de53 9ae7 b44a d4bf
00000500: 4143 20c2 a5c4 c93f 5d92 e536 910a c3bf
00000510: 1a62 2ab8 921a c53f 1e4a 8cc0 45e5 bb3f
00000520: 9df4 1add ab07 d2bf bc73 571f d941 c83f
00000530: b6d1 3b0c 0d2f d03f 410f 2916 9d92 cb3f
00000540: c49b a6fc ff78 ca3f be0d 7c2f d247 b83f
00000550: 9bef e901 b435 b1bf a282 754f b8db b93f
00000560: b19e 3193 6ebe cb3f 9b1c 83c0 8640 ccbf
00000570: b62e 6307 8dd8 d13f 40d0 ed56 aada acbf
00000580: 32a0 bb7b c609 c2bf 3a72 07b4 c95a ad3f
00000590: 61ad 63a3 ed09 abbf 7729 e0fb e1c6 d1bf
000005a0: c946 bf48 0fc4 7f3f e02e 1e12 bbbb 8dbf
000005b0: 146b 498e ebc2 cfbf 7bc1 f14c f743 bb3f
000005c0: 2b58 632d 2918 be3f fc91 482e c6ad 733f
000005d0: 4b23 a25b 2a30 cb3f 768d 4dc0 1fbc adbf
000005e0: 11e3 d4f7 3906 c3bf 3ef5 f777 5dc7 b1bf
000005f0: 44e6 0122 4bfa c5bf 3327 5509 6f90 c6bf
00000600: a1b4 14f4 e115 d0bf e8b3 2d77 b12e c2bf
00000610: a8b1 28e7 193d d13f 4691 8310 d362 ae3f
00000620: b15f bf72 a628 c23f 464e 2bfe 8a47 c13f
00000630: 3462 d021 6f39 bcbf f274 7812 dd3d babf
00000640: 8d45 24ee ee15 c8bf 678c d7d3 1a67 d43f
00000650: c627 9642 840d 9fbf 1eab a8e4 52eb c3bf
00000660: e68e 8868 3e44 cebf fc30 3b04 945b cebf
00000670: 0368 f2d6 118a cc3f a168 9e35 5164 c83f
00000680: 0710 9822 3603 d13f 345c eccb 49ef d03f
00000690: aaea bb59 c128 c73f bd71 6ff5 e5cb b53f
000006a0: 275f 0050 9fb5 d0bf 8a07 3404 2a86 233f
000006b0: fc84 3f19 0484 c9bf ee50 84ce d6be d2bf
000006c0: dc68 4d57 9c82 cf3f 43b6 bef4 72c2 c73f
000006d0: c7b7 ffa5 43b5 d13f 5804 9636 5e2d b8bf
000006e0: d9d7 1349 94eb ca3f ded4 d56e 0488 d5bf
000006f0: 8a86 5df3 2d09 c03f 518d 626c c040 a3bf
00000700: a326 4bcd d738 b73f 213a e82f 6f29 a13f
00000710: c447 63a7 0fdb c83f bfb7 255e b38b c7bf
00000720: 1657 d127 c5c8 c73f 5df3 6854 e3a6 92bf
00000730: 8b2d 93a7 5d86 c43f 15cd e8df c301 d0bf
00000740: 9116 8afd 32e7 8abf 409e 997f 0fd8 8d3f
00000750: 36eb 3c51 dea2 97bf 1eb7 8a5a d8a5 c83f
00000760: 0f45 a292 48d9 c2bf b364 eaac 1f56 d2bf
00000770: fba7 9859 5b9a bc3f 7ee5 f27a 18ce c5bf
00000780: 721d a337 6b0a 9fbf bda2 9e7b 0992 95bf
00000790: 0736 bb6a 5ee7 7ebf 63cf 7305 2c7f c0bf
000007a0: ae46 9f11 a7e2 c63f fe09 5638 0a43 d4bf
000007b0: 44d2 b678 0cff cbbf ba66 9b28 86ba 8c3f
000007c0: c8ef 4264 7245 ca3f 4573 7bcc 7423 b33f
000007d0: 9a2f 0340 7e72 bebf 7951 3889 2517 d03f
000007e0: 1fb0 7c08 3826 633f 752f afdc 2b88 cb3f
000007f0: f51c 168c 4fa9 c93f 6400 ecc9 3f6f c13f
0.26215529326242354 -0.054835441873428675 0.28437083485688847 -0.09007625300455183 0.020866426201131258 0.14227112561175476 0.12519397281155092 0.13064945873203762
0.35621669632105024 0.24190312377551745 -0.20290100799668945 -0.09257911174314037 -0.23293893884569894 0.07756344912954727 0.13988266318884493 0.37884572117423215
-0.18172221399500857 0.14840004604760937 0.15224635387659388 0.2356544386634009 -0.04283429249382166 0.01618530513610404 0.14435148603270764 0.008835764294550508
0.25446443639641736 0.07768049118130337 -0.1816443762515909 0.3485762917068516 -0.15148265984358966 -0.10300403886612039 0.2769620024649027 0.2636308669462527
0.09328518836850397 0.11223353307365015 0.13720298557302546 0.19563269867476726 -0.038417207075320293 -0.30523929547284034 -0.16707102356186815 -0.30898757049897435
0.06676160303400926 0.1495790194697121 -0.21649055137748635 0.006645285703839367 -0.2640318621574974 -0.2180381271599925 -0.1324633422575396 -0.012467493592590839
0.04215421487818897 -0.12963794815001714 0.1866261985145979 -0.05554833349435444 0.1442618334633839 0.0185980412741307 -0.043079886110007896 -0.017768622598899976
-0.05187310934947428 -0.0012178694487410744 0.03858179040654015 -0.038065673211446216 -0.2015026221955515 0.14270574306235456 0.07248032045012352 0.2533021686914679
-0.13465971770783458 0.1043946237223941 0.13321030192703556 0.17194485669643542 -0.08629943393539655 -0.03733896155871587 0.06222496414592524 -0.06720508293974839
-0.24555005377764047 -0.24265452076996497 -0.04971257730411568 -0.28059105883084257 0.09059822460673314 -0.31387947663578986 -0.22709471078091148 -0.024988688560738798
-0.29166403029340854 0.13191861008809921 -0.09703683422128105 -0.01075348982837717 -0.13410462116041683 -0.24238218849057222 -0.317085612657862 0.116132581442072
-0.03670540785351788 0.0031788089824604858 0.011331891310969724 -0.11009143155552963 0.12700841078033978 -0.2044778172009352 0.11795473804965144 -0.22803967533074243
0.29114344394914493 -0.21331987437965794 0.20421898012075293 0.1275468698303021 -0.1525411809808196 0.24129692447115586 -0.08689671451529625 0.22047410034307063
0.02607205053156507 -0.2595664143603522 0.3090531885707664 0.17325605983101594 -0.2617995733074353 0.032467986442731765 0.19154536750606407 0.3194463910222438
-0.09673906958495977 -0.21595234590969264 0.22713501423380134 -0.12944484706600123 0.06555879495302097 0.13500898666560313 0.24554006086504454 0.288024851490984
0.08193651904757646 -0.021074523044167445 0.15404335795542698 0.2638374445087188 -0.10614974693200299 0.21066605703803845 0.3092165435807433 -0.16154458185449816
-0.22522743949731341 0.18972087002951754 0.23929809754587192 0.21964693924428338 -0.1787097624867941 0.07644039164448409 0.09431323506424802 0.10730340862331642
-0.04096637672657814 0.1378898665655096 0.045242336081480344 -0.09088173616525705 -0.162086603509362 0.0017058741568680958 -0.29707961428999236 0.11477958737408787
-0.15417253267776196 -0.25847736144802164 0.22825037205852824 0.25319580565733785 0.17137402476723043 -0.23272150132924738 0.145130174676043 -0.1005345324786417
0.19096452376637904 0.1707236323241653 0.03758778131616549 0.22008987914798137 0.18299255406410264 0.033932490192427625 0.22397223425662918 -0.3170597326036936
0.20131370524225115 -0.14875998669153292 0.1648734473462959 0.10896717024687816 -0.28171822159112897 0.18950952558853185 0.25287176317877014 0.21541179258394474
0.20681762539353887 0.09484590205470675 -0.06722569510196623 0.101008910559822 0.21674902140806787 -0.22071918869025783 0.27884221764973505 -0.056355784522481134
-0.14092331926008367 0.057333281732756494 -0.05281012172221256 -0.2777638396952606 0.007755336478980809 -0.014518224230207932 -0.2481359905967443 0.10650582912945154
0.11755616529566797 0.004804395812730618 0.21240739321026533 -0.05807589743087764 -0.14862751580383152 -0.06944832018776467 -0.1717008510639052 -0.17628276782698435
-0.2513356097795825 -0.1420499641348265 0.2693543202792861 0.05934772087656141 0.1418655453005591 0.1349958172855727 -0.1102513749650676 -0.10250646305981428
-0.18816935184490227 0.31879301727003057 -0.03032499939357771 -0.15561901249869775 -0.23645763496562394 -0.2371697445545421 0.22296355243162233 0.1905614387331456
0.26582101229018956 0.26460499681838034 0.18093125230355628 0.08514249078820675 -0.2610853463424853 0.00014895689864863018 -0.19934130890673163 -0.2928978935972414
0.24617342245875917 0.18562161398351593 0.27668849192457085 -0.09444226105371578 0.21031430786359698 -0.3364268381477141 0.12528013594696957 -0.037603390913569464
0.09071110498475803 0.03351924381069105 0.19418521569474312 -0.1839508256629738 0.18581451839661928 -0.018214752222991282 0.16035051996582825 -0.2501077353110344
-0.013136289942177444 0.014572259027047285 -0.023082231243488148 0.1925611917590055 -0.14725596580368758 -0.28650657545365305 0.11173029839906683 -0.17035203936920235
-0.030313182135413404 -0.02106489960684387 -0.007544869247522629 -0.12888098016957902 0.1787918888135684 -0.31659179212161337 -0.21872096914525418 0.01402764140532341
0.20524434943751957 0.07475976936571012 -0.11893452704242549 0.2514127578772541 0.002337560119391582 0.21509311938859424 0.20047945346980325 0.13620755538431972

conv2.lin_dst.weight f8 [32, 32]
00000000: f743 c2fe 26c7 d03f bc23 041b 6413 acbf
00000010: 1f61 e9ba 2133 d23f 62ff ccc0 3c0f b7bf
00000020: 2c18 7928 025e 953f be73 d5b3 f035 c23f
00000030: e6e2 7029 5b06 c03f 0d42 3f18 1fb9 c03f
00000040: 9c3c 3f1d 41cc d63f 5b42 b57a aef6 ce3f
00000050: 65ea d504 a9f8 c9bf a8c1 3ac1 43b3 b7bf
00000060: 0453 2772 f1d0 cdbf 7859 60bd 32db b33f
00000070: 5534 d6d3 ace7 c13f 2b10 ab1f 023f d83f
00000080: f15a 086b ac42 c7bf 90eb 3fd0 c5fe c23f
00000090: 47e8 6afb ce7c c33f beb7 9bb5 ec29 ce3f
000000a0: c207 d15a 60ee a5bf fbfe f070 e192 903f
000000b0: 7cda d107 1c7a c23f 9a2b 7135 7c18 823f
000000c0: f254 1434 2549 d03f af31 2961 dee2 b33f
000000d0: 185f c077 1f40 c7bf 39ae 42ef 124f d63f
000000e0: 503b f8a6 c863 c3bf be30 4902 795e babf
000000f0: 4992 b4d5 beb9 d13f a204 f0ff 53df d03f
00000100: d071 3ec1 89e1 b73f 51dc 103a 56bb bc3f
00000110: e88f f90f de8f c13f 730d 6b05 7e0a c93f
00000120: 75fc fb8f 6bab a3bf b2a2 e065 0a89 d3bf
00000130: 265b 2753 9562 c5bf 3f78 8acd 73c6 d3bf
00000140: d1db a8d5 4917 b13f fd23 65c2 6725 c33f
00000150: 8697 075f f6b5 cbbf 753d 544c 1638 7b3f
00000160: 2e61 44e5 e5e5 d0bf f874 b760 ace8 cbbf
00000170: 4f1e 750d 8ff4 c0bf 1336 f2a9 8e88 89bf
00000180: 75ac 94bc 3c95 a53f a7fb cfed f997 c0bf
00000190: 5b37 9905 5ee3 c73f 563e 69c7 d470 acbf
000001a0: 42a3 64f8 2b77 c23f 080f 2b6c 5d0b 933f
000001b0: 5f70 ea1b 910e a6bf 3a37 d413 f031 92bf
000001c0: 2c49 65b8 1c8f aabf db40 005d 1df4 53bf
000001d0: 9ad0 0810 fec0 a33f 8836 160b 587d a3bf
000001e0: 7dae 3182 d6ca c9bf 8ebc b389 2e44 c23f
000001f0: 67d7 effd 118e b23f 6549 a24c 1a36 d03f
00000200: 2066 d295 873c c1bf 9312 c426 9bb9 ba3f
00000210: e529 2201 090d c13f 1f01 1d00 4a02 c63f
00000220: 8a74 6a3e b817 b6bf 42c7 85a5 171e a3bf
00000230: 6cc7 0054 f3db af3f 62e7 5931 5a34 b1bf
00000240: d7c4 4025 2f6e cfbf a47e 77a7 4d0f cfbf
00000250: 4b2d 714b ed73 a9bf 6e9f 4e33 34f5 d1bf
00000260: fef6 c2fb 7131 b73f f652 c2f1 9916 d4bf
00000270: 1c05 f381 7011 cdbf 289f 8d80 a296 99bf
00000280: 4fe7 e19b 9faa d2bf ebf4 0782 b5e2 c03f
00000290: dfde 7ced 67d7 b8bf ecc5 0bf9 ec05 86bf
000002a0: d62f 1019 572a c1bf d396 592a 6106 cfbf
000002b0: f372 1974 214b d4bf 9433 4b67 ddba bd3f
000002c0: 2668 a21c 0dcb a2bf 0f36 d613 720a 6a3f
000002d0: 1bd7 a8b4 2c35 873f 7bcf 19ba f32e bcbf
000002e0: c92a 4fc5 cf41 c03f 8157 d140 542c cabf
000002f0: 2bdd 541e 4832 be3f 2435 de71 6730 cdbf
00000300: 7035 8d1c 18a2 d23f 2413 06ce 104e cbbf
00000310: 6da9 6bf8 d823 ca3f ae6c 50b1 7453 c03f
00000320: 148c cd2b 7886 c3bf c24f 9d4f d1e2 ce3f
00000330: 8919 f9f2 dc3e b6bf 5254 4bcd 7e38 cc3f
00000340: 4cad 7db1 a1b2 9a3f 2855 3473 bc9c d0bf
00000350: 9db3 6806 87c7 d33f 9e6d 672b 412d c63f
00000360: 8294 5dff 52c1 d0bf a383 e0d7 a49f a03f
00000370: b7c5 9100 8f84 c83f 4c02 9146 cf71 d43f
00000380: 15e5 1c44 e4c3 b8bf 229b 9693 53a4 cbbf
00000390: e090 f498 c212 cd3f 9060 6414 a691 c0bf
000003a0: 40d4 4910 76c8 b03f f48a 3277 f947 c13f
000003b0: bcf8 a251 db6d cf3f b8b2 65c9 ff6e d23f
000003c0: ce4c a8ad caf9 b43f dc94 034d 8f94 95bf
000003d0: 87d3 4a58 b1b7 c33f a802 e872 b6e2 d03f
000003e0: 9237 8d3b a12c bbbf cd85 adf8 1af7 ca3f
000003f0: d1ee 832f 34ca d33f c49d f42b 7ead c4bf
00000400: 7dc1 66b3 40d4 ccbf ec9d 1202 c648 c83f
00000410: 4b2e 7aef 51a1 ce3f c53f 5c12 641d cc3f
00000420: 9ea8 ad24 f6df c6bf 95dc 34f6 9891 b33f
00000430: d64f 2e84 e924 b83f fe55 c976 3c78 bb3f
00000440: 1573 8d80 8bf9 a4bf 24a1 ac09 60a6 c13f
00000450: b4ac bae3 002a a73f b62b a284 0644 b7bf
00000460: 80a1 98fa 40bf c4bf 76f0 bf6d f4f2 5b3f
00000470: 91c3 eb36 5a03 d3bf 1724 05ee 3162 bd3f
00000480: f36f e5f0 ecbb c3bf 6d3d 8ba1 e48a d0bf
00000490: 6746 a5e5 4e37 cd3f bd16 322e 5c34 d03f
000004a0: c92b e183 95ef c53f 677f a472 d1c9 cdbf
000004b0: 52bc f224 a093 c23f 5d4a 1d91 a1bc b9bf
000004c0: 87eb 2288 8671 c83f 8349 bea0 45da c53f
000004d0: d3d9 f6a6 b43e a33f 9382 8fb8 e72b cc3f
000004e0: 60f4 8ecd 4c6c c73f 42f0 4b6f 995f a13f
000004f0: 2511 ac46 1fab cc3f de53 9ae7 b44a d4bf
00000500: 4143 20c2 a5c4 c93f 5d92 e536 910a c3bf
00000510: 1a62 2ab8 921a c53f 1e4a 8cc0 45e5 bb3f
00000520: 9df4 1add ab07 d2bf bc73 571f d941 c83f
00000530: b6d1 3b0c 0d2f d03f 410f 2916 9d92 cb3f
00000540: c49b a6fc ff78 ca3f be0d 7c2f d247 b83f
00000550: 9bef e901 b435 b1bf a282 754f b8db b93f
00000560: b19e 3193 6ebe cb3f 9b1c 83c0 8640 ccbf
00000570: b62e 6307 8dd8 d13f 40d0 ed56 aada acbf
00000580: 32a0 bb7b c609 c2bf 3a72 07b4 c95a ad3f
00000590: 61ad 63a3 ed09 abbf 7729 e0fb e1c6 d1bf
000005a0: c946 bf48 0fc4 7f3f e02e 1e12 bbbb 8dbf
000005b0: 146b 498e ebc2 cfbf 7bc1 f14c f743 bb3f
000005c0: 2b58 632d 2918 be3f fc91 482e c6ad 733f
000005d0: 4b23 a25b 2a30 cb3f 768d 4dc0 1fbc adbf
000005e0: 11e3 d4f7 3906 c3bf 3ef5 f777 5dc7 b1bf
000005f0: 44e6 0122 4bfa c5bf 3327 5509 6f90 c6bf
00000600: a1b4 14f4 e115 d0bf e8b3 2d77 b12e c2bf
00000610: a8b1 28e7 193d d13f 4691 8310 d362 ae3f
00000620: b15f bf72 a628 c23f 464e 2bfe 8a47 c13f
00000630: 3462 d021 6f39 bcbf f274 7812 dd3d babf
00000640: 8d45 24ee ee15 c8bf 678c d7d3 1a67 d43f
00000650: c627 9642 840d 9fbf 1eab a8e4 52eb c3bf
00000660: e68e 8868 3e44 cebf fc30 3b04 945b cebf
00000670: 0368 f2d6 118a cc3f a168 9e35 5164 c83f
00000680: 0710 9822 3603 d13f 345c eccb 49ef d03f
00000690: aaea bb59 c128 c73f bd71 6ff5 e5cb b53f
000006a0: 275f 0050 9fb5 d0bf 8a07 3404 2a86 233f
000006b0: fc84 3f19 0484 c9bf ee50 84ce d6be d2bf
000006c0: dc68 4d57 9c82 cf3f 43b6 bef4 72c2 c73f
000006d0: c7b7 ffa5 43b5 d13f 5804 9636 5e2d b8bf
000006e0: d9d7 1349 94eb ca3f ded4 d56e 0488 d5bf
000006f0: 8a86 5df3 2d09 c03f 518d 626c c040 a3bf
00000700: a326 4bcd d738 b73f 213a e82f 6f29 a13f
00000710: c447 63a7 0fdb c83f bfb7 255e b38b c7bf
00000720: 1657 d127 c5c8 c73f 5df3 6854 e3a6 92bf
00000730: 8b2d 93a7 5d86 c43f 15cd e8df c301 d0bf
00000740: 9116 8afd 32e7 8abf 409e 997f 0fd8 8d3f
00000750: 36eb 3c51 dea2 97bf 1eb7 8a5a d8a5 c83f
00000760: 0f45 a292 48d9 c2bf b364 eaac 1f56 d2bf
00000770: fba7 9859 5b9a bc3f 7ee5 f27a 18ce c5bf
00000780: 721d a337 6b0a 9fbf bda2 9e7b 0992 95bf
00000790: 0736 bb6a 5ee7 7ebf 63cf 7305 2c7f c0bf
000007a0: ae46 9f11 a7e2 c63f fe09 5638 0a43 d4bf
000007b0: 44d2 b678 0cff cbbf ba66 9b28 86ba 8c3f
000007c0: c8ef 4264 7245 ca3f 4573 7bcc 7423 b33f
000007d0: 9a2f 0340 7e72 bebf 7951 3889 2517 d03f
000007e0: 1fb0 7c08 3826 633f 752f afdc 2b88 cb3f
000007f0: f51c 168c 4fa9 c93f 6400 ecc9 3f6f c13f
0.26215529326242354 -0.054835441873428675 0.28437083485688847 -0.09007625300455183 0.020866426201131258 0.14227112561175476 0.12519397281155092 0.13064945873203762
0.35621669632105024 0.24190312377551745 -0.20290100799668945 -0.09257911174314037 -0.23293893884569894 0.07756344912954727 0.13988266318884493 0.37884572117423215
-0.18172221399500857 0.14840004604760937 0.15224635387659388 0.2356544386634009 -0.04283429249382166 0.01618530513610404 0.14435148603270764 0.008835764294550508
0.25446443639641736 0.07768049118130337 -0.1816443762515909 0.3485762917068516 -0.15148265984358966 -0.10300403886612039 0.2769620024649027 0.2636308669462527
0.09328518836850397 0.11223353307365015 0.13720298557302546 0.19563269867476726 -0.038417207075320293 -0.30523929547284034 -0.16707102356186815 -0.30898757049897435
0.06676160303400926 0.1495790194697121 -0.21649055137748635 0.006645285703839367 -0.2640318621574974 -0.2180381271599925 -0.1324633422575396 -0.012467493592590839
0.04215421487818897 -0.12963794815001714 0.1866261985145979 -0.05554833349435444 0.1442618334633839 0.0185980412741307 -0.043079886110007896 -0.017768622598899976
-0.05187310934947428 -0.0012178694487410744 0.03858179040654015 -0.038065673211446216 -0.2015026221955515 0.14270574306235456 0.07248032045012352 0.2533021686914679
-0.13465971770783458 0.1043946237223941 0.13321030192703556 0.17194485669643542 -0.08629943393539655 -0.03733896155871587 0.06222496414592524 -0.06720508293974839
-0.24555005377764047 -0.24265452076996497 -0.04971257730411568 -0.28059105883084257 0.09059822460673314 -0.31387947663578986 -0.22709471078091148 -0.024988688560738798
-0.29166403029340854 0.13191861008809921 -0.09703683422128105 -0.01075348982837717 -0.13410462116041683 -0.24238218849057222 -0.317085612657862 0.116132581442072
-0.03670540785351788 0.0031788089824604858 0.011331891310969724 -0.11009143155552963 0.12700841078033978 -0.2044778172009352 0.11795473804965144 -0.22803967533074243
0.29114344394914493 -0.21331987437965794 0.20421898012075293 0.1275468698303021 -0.1525411809808196 0.24129692447115586 -0.08689671451529625 0.22047410034307063
0.02607205053156507 -0.2595664143603522 0.3090531885707664 0.17325605983101594 -0.2617995733074353 0.032467986442731765 0.19154536750606407 0.3194463910222438
-0.09673906958495977 -0.21595234590969264 0.22713501423380134 -0.12944484706600123 0.06555879495302097 0.13500898666560313 0.24554006086504454 0.288024851490984
0.08193651904757646 -0.021074523044167445 0.15404335795542698 0.2638374445087188 -0.10614974693200299 0.21066605703803845 0.3092165435807433 -0.16154458185449816
-0.22522743949731341 0.18972087002951754 0.23929809754587192 0.21964693924428338 -0.1787097624867941 0.07644039164448409 0.09431323506424802 0.10730340862331642
-0.04096637672657814 0.1378898665655096 0.045242336081480344 -0.09088173616525705 -0.162086603509362 0.0017058741568680958 -0.29707961428999236 0.11477958737408787
-0.15417253267776196 -0.25847736144802164 0.22825037205852824 0.25319580565733785 0.17137402476723043 -0.23272150132924738 0.145130174676043 -0.1005345324786417
0.19096452376637904 0.1707236323241653 0.03758778131616549 0.22008987914798137 0.18299255406410264 0.033932490192427625 0.22397223425662918 -0.3170597326036936
0.20131370524225115 -0.14875998669153292 0.1648734473462959 0.10896717024687816 -0.28171822159112897 0.18950952558853185 0.25287176317877014 0.21541179258394474
0.20681762539353887 0.09484590205470675 -0.06722569510196623 0.101008910559822 0.21674902140806787 -0.22071918869025783 0.27884221764973505 -0.056355784522481134
-0.14092331926008367 0.057333281732756494 -0.05281012172221256 -0.2777638396952606 0.007755336478980809 -0.014518224230207932 -0.2481359905967443 0.10650582912945154
0.11755616529566797 0.004804395812730618 0.21240739321026533 -0.05807589743087764 -0.14862751580383152 -0.06944832018776467 -0.1717008510639052 -0.17628276782698435
-0.2513356097795825 -0.1420499641348265 0.2693543202792861 0.05934772087656141 0.1418655453005591 0.1349958172855727 -0.1102513749650676 -0.10250646305981428
-0.18816935184490227 0.31879301727003057 -0.03032499939357771 -0.15561901249869775 -0.23645763496562394 -0.2371697445545421 0.22296355243162233 0.1905614387331456
0.26582101229018956 0.26460499681838034 0.18093125230355628 0.08514249078820675 -0.2610853463424853 0.00014895689864863018 -0.19934130890673163 -0.2928978935972414
0.24617342245875917 0.18562161398351593 0.27668849192457085 -0.09444226105371578 0.21031430786359698 -0.3364268381477141 0.12528013594696957 -0.037603390913569464
0.09071110498475803 0.03351924381069105 0.19418521569474312 -0.1839508256629738 0.18581451839661928 -0.018214752222991282 0.16035051996582825 -0.2501077353110344
-0.013136289942177444 0.014572259027047285 -0.023082231243488148 0.1925611917590055 -0.14725596580368758 -0.28650657545365305 0.11173029839906683 -0.17035203936920235
-0.030313182135413404 -0.02106489960684387 -0.007544869247522629 -0.12888098016957902 0.1787918888135684 -0.31659179212161337 -0.21872096914525418 0.01402764140532341
0.20524434943751957 0.07475976936571012 -0.11893452704242549 0.2514127578772541 0.002337560119391582 0.21509311938859424 0.20047945346980325 0.13620755538431972

linear.weight f8 [1, 32]
00000000: e784 b374 822d c63f c4a4 0050 1549 a1bf
00000010: 8120 45c1 e964 913f 6c5d 97b9 76d1 b43f
00000020: f318 6d4d 2978 6dbf 51c9 7263 a4b2 a9bf
00000030: 4261 924f f17d bc3f 95ea f288 b019 9bbf
00000040: 7936 04b4 bcf9 c33f 244e 5351 e372 c03f
00000050: fdae 187b eeef c43f 32af 8f9d 2ec0 bf3f
00000060: af89 5ced 2f45 c53f 6a2a 29ff e14d ce3f
00000070: 0b24 fac7 de9c c63f 6e92 2d3f 9034 cd3f
00000080: a642 da4b d1ce adbf 612a dc69 ccf7 c0bf
00000090: 6127 1f58 0798 a0bf ce32 7842 c436 bd3f
000000a0: e09c 0492 97ba cc3f d520 a176 a96f ce3f
000000b0: f996 5daf 99de b8bf b685 8d7f af75 b83f
000000c0: 7b52 8d3e 89e0 a0bf 2a6b bd76 2e2c 893f
000000d0: b10b 7583 88ea ca3f 564c b35f c9ed c33f
000000e0: e443 db4a e300 cc3f b234 a2fb 8858 bcbf
000000f0: 2962 b2ad 40a8 be3f 3598 26b1 131f b93f
0.17326384256651936 -0.03376070596306982 0.016986515446916876 0.08132116347348067 -0.003597336453284966 -0.05019105638474975 0.11129673187895597 -0.026465185507485407
0.15605887212625527 0.12850610228507364 0.16357213030402554 0.12402621599875088 0.1661739262572843 0.23675179442428212 0.1766622997713799 0.22816660961975138
-0.05821851778921898 -0.13256220978685732 -0.032409886843722154 0.11411692259589332 0.22444433812891074 0.23778265278293156 -0.09714661151300764 0.09554573883135373
-0.03296307457518296 0.012291300772337605 0.21028238695916238 0.1556941716467885 0.21877709536650436 -0.11072593825720636 0.11975483170170577 0.0981304461953137

linear.bias f8 [1]
00000000: 5284 3461 595a be3f
0.11856611846134626
