models/baseline_0.01_500_out_of_5000.pt (torch, 1191 bytes, 1 tensors)

linear.weight f4 [1, 32]
000000 a2 24 1e 3d ab da 81 bd 0c 9b 27 3d 0d 83 1e 3b
       0.038609155 -0.06340536 0.04091935 0.0024187
000010 d4 de 6a be 78 99 4d 3e 0c a0 4c 3e d4 a4 2c be
       -0.22936565 0.20078075 0.19982928 -0.16859752
000020 cb df ed 3d 45 12 7d be 77 38 99 3d 15 bf 7a 3d
       0.11614951 -0.24714 0.07481473 0.061217386
000030 bd 51 eb bd 77 b3 d5 bd 12 b0 21 3d 23 26 e1 3c
       -0.114902 -0.10434621 0.039474554 0.027484005
000040 54 96 a2 3c 27 34 ac 3b b1 0d 1b be 42 fc bf bc
       0.019847073 0.0052552405 -0.15141942 -0.023435716
000050 37 28 84 3d 44 77 cb 3d a3 4a 4b 3d e6 0b bb 3d
       0.06452983 0.099348575 0.049631726 0.09133129
000060 72 17 f4 bd 7d 96 eb 3d cb 79 3f 3c 7d 73 fe bd
       -0.11918534 0.11503313 0.011686753 -0.124243714
000070 00 58 c1 3c de 78 4b 3e da d8 6e bd 90 0b 9f 3d
       0.023601532 0.19870326 -0.058312275 0.07765877
