models/model_0.0001_100.pt (torch, 20539 bytes, 16 tensors)

conv1.att_src f8 [1, 1, 32]
0	0x3fd37e841bb1b0de	0.3045969267320866
1	0xbfbaf06b5eb85797	-0.10523100912572968
2	0x3fc8a6d15a4ef2c1	0.19259087476338801
3	0x3fa7fc1f9f255a13	0.046845424820890845
4	0x3fb97c0d809c12d6	0.09954914464840256
5	0x3fd6906e22330d05	0.35256532039439065
6	0x3fa714a626776c12	0.04507941455423049
7	0xbfd6eb03dd5e8980	-0.3580941831407003
8	0xbfc64626b17e16c8	-0.17401584307315532
9	0x3fd0a015c8fbb4b2	0.25977081897037657
10	0xbfdc651e17342a41	-0.4436717249488176
11	0xbfd031aac5b4e75c	-0.25303143794336846
12	0xbfcfcf48dbf95f85	-0.24851332417415165
13	0x3fd2a51d792c0f02	0.2913278277703598
14	0xbfb4f1df9308f2a9	-0.08181569423409009
15	0xbf975d587f93517a	-0.022817023073757416
16	0x3fbeb7a63bf98474	0.11998976673341294
17	0x3fc3072b94d9efff	0.14865631836062218
18	0xbfd349e05530a644	-0.30138405150737335
19	0x3fc38cd6edd57584	0.1527355824754687
20	0xbfdcf3d89ad6bfe1	-0.45238318558676666
21	0x3fcf046b2a262a68	0.2423223453336789
22	0xbfd2afb43004c453	-0.2919741124088137
23	0xbf934cb705bd117f	-0.018847331738713443
24	0x3fd7fe177cc20605	0.374883529504672
25	0x3fc04132014569a8	0.12698960363452483
26	0x3fcc3020bf677c56	0.22021874757681087
27	0xbfcc1b730a8ab158	-0.21958768858656685
28	0xbfc55b167a2c54c8	-0.1668422791050601
29	0xbfd7b9870e0a49e3	-0.37069870349037454
30	0xbfcddd2081f2c242	-0.2333107599747724
31	0xbfd47df96b81b692	-0.3201888608808555

conv1.att_dst f8 [1, 1, 32]
0	0x3fd964cde28fdf4c	0.3967776024360219
1	0x3fd8473c64156155	0.3793478944185343
2	0x3fcc1e62da506643	0.21967731151453238
3	0x3fcb3ea68a589cc9	0.21284944300825817
4	0xbfd0e132aada5e72	-0.2637449902044643
5	0xbfd63fdf08891335	-0.3476483901361463
6	0x3fc3a50a9f6eaad9	0.15347416672496797
7	0xbfc30a9cdd7fdb54	-0.1487613755741345
8	0x3fd9d69c76edb757	0.40372382749671004
9	0xbfd6bd97c7438e24	-0.3553218313156512
10	0x3fd7d5f69b85c076	0.37243428409329427
11	0xbf960efc5eea6532	-0.021541541379155045
12	0x3fb6b6bcaa5fa192	0.0887258449507782
13	0xbfd1b2e2b9744e35	-0.2765433131291702
14	0xbfd4f4b8a9e2d931	-0.3274366053623395
15	0x3fa3809d5798ef30	0.03809062666229435
16	0x3fd67bac933df51c	0.35129846934417386
17	0xbfafa74eaaedc07c	-0.061823328366586744
18	0x3fa9b1c9a2d447c0	0.050184537054647205
19	0xbfcdab8167100b51	-0.23179643185002388
20	0xbfcb6b1712eb2e6f	-0.21420563148273028
21	0xbfc234a7be91372b	-0.14223191075364502
22	0xbf98a0116da6e831	-0.024048111264825592
23	0xbfd231636d9d5bfe	-0.28426442818221165
24	0x3f8d8a29da7ee311	0.014423682194193018
25	0xbfc06867bb6fe17d	-0.12818619396399447
26	0xbfd12aa6ad55442a	-0.26822821547563314
27	0xbfa7b9f01d1516dd	-0.04634046893128894
28	0xbfd740eacfdf3acc	-0.36333723354338754
29	0xbfbc30f1dead667e	-0.11012183844050047
30	0x3fb020bccf3bc0db	0.06299953517350636
31	0xbfc07e174092ad57	-0.12884798672653616

conv1.att_edge f8 [1, 1, 32]
0	0xbfbfdd33382c7197	-0.12446899529863341
1	0x3f6adc953bbe81a2	0.003279010268627939
2	0x3fc12cc56ddbaf68	0.13417880882422684
3	0xbf829d79a7f3864e	-0.009089422643629021
4	0xbfd8a1589c8ad9b3	-0.38484778678266734
5	0xbfd18f5a3e8969c6	-0.274374543257775
6	0xbfd397ac66b6d2d7	-0.30613241224936644
7	0xbf74e8bebb81dc38	-0.005104775475152805
8	0xbfd43631284a098b	-0.315807618470125
9	0x3fbc7c4e67e61770	0.11127176319686582
10	0xbfd6e1d3ca354ee5	-0.35753340479753454
11	0x3fd398afca3d459f	0.30619425535140893
12	0x3fa04bc13dfe618b	0.031827963655078305
13	0x3fd1d4aa0595fb90	0.2786049894856939
14	0xbfc55eb5456042f9	-0.16695276153088637
15	0x3fd2b6885f42cba4	0.2923909120829029
16	0x3fa4675fb5abbb55	0.0398511800066134
17	0x3fc05cba635be928	0.1278298363830086
18	0x3fd9ab0daef3f8cd	0.4010652740979708
19	0xbfc1eaba183520ec	-0.1399757974816177
20	0xbfc976a0b087b009	-0.19893272990827907
21	0xbfda4fb3694162a2	-0.4111145522961498
22	0xbfcd81c1be3fd9e2	-0.23052236356279737
23	0x3fd9a46dc4a62211	0.4006609363937353
24	0xbfce6efd6691b6ac	-0.23776214130650908
25	0x3f9e6cf306608720	0.02971248365805146
26	0x3fb7171d77db7369	0.09019645858957194
27	0x3f9169983b7642dd	0.017004374150533564
28	0x3fb6c74af016ccd9	0.088978465667242
29	0xbfd03626386f466e	-0.25330501090238655
30	0x3f75bf4b259e2878	0.005309384863617088
31	0xbfd76c9d1f114b96	-0.36600425752583854

conv1.bias f8 [32]
0	0x3faca1dcfc5b7a26	0.05592241840871663
1	0x3f59a561f74c233e	0.0015653092097542422
2	0xbf635b9ac8acf44e	-0.002363016426356646
3	0xbf9012236051b725	-0.015694191697938415
4	0x3fabc5bfe2db894b	0.054243084375928584
5	0xbf9a4b5fb8aea688	-0.025678153655155828
6	0xbfa4a561307062ad	-0.04032424656197029
7	0x3fa7ddfb6cc39a08	0.04661546423612967
8	0xbfa57dd7c974272d	-0.041975730268019575
9	0x3f90b4ebdb3daa6d	0.016315160042191957
10	0x3f8322fba4d8d4d4	0.00934406849692452
11	0x3fa0c064b67b1907	0.032717845225805724
12	0x3f8a0896ac61c673	0.01271169389312663
13	0x3fa75d98ff511760	0.0456359683671923
14	0x3fac26f759243cac	0.05498478854325958
15	0x3f98be405aecc4ab	0.024163251447309502
16	0x3f93565ce67dd1ec	0.01888413578804375
17	0x3fa8e27ba961b001	0.048602928568328714
18	0x3f6ff46ecc2c7337	0.003900734330626678
19	0x3fad8d1fd0d29617	0.057717317811050765
20	0x3fa474e279c2b49b	0.039954259265280366
21	0xbfa788d708be18b0	-0.04596588117333178
22	0x3fa99ec71965c8d4	0.05003950295476192
23	0x3fad36724a0b63f7	0.05705601838935331
24	0x3fac0a00588df7bd	0.05476380425442027
25	0x3fab27067aff5b8a	0.05303211451944552
26	0x3fab7f73eb6008c2	0.05370676277381527
27	0x3fa73989efbee0b9	0.045360861316511465
28	0x3faa2335abf7e063	0.05104987835142152
29	0x3f9fc201c156e0a7	0.031013514924524668
30	0x3fa2ba93fd1162f8	0.03657972778518642
31	0x3fac9140879a3d64	0.05579568534187265

conv1.lin_src.weight f8 [32, 3]
0	0xbfc00ead59d4ec48	-0.1254479111320015
1	0x3faea25fbd053364	0.05983256513955018
2	0x3fcbb39441f10ebc	0.21641782016569333
3	0x3fcbaf437190a939	0.21628611607713724
4	0xbfbcee9fe53b393c	-0.11301612230747521
5	0xbfd3759d96acf30a	-0.3040536853257413
6	0x3fb751e0847208ae	0.09109309419185038
7	0x3fd0744af8675c1d	0.25709795244387285
8	0x3fc6023b6ca91eaa	0.17194311910337962
9	0x3fd8bf4942016595	0.3866751808723959
10	0x3fd0a5663d701feb	0.2600951766949026
11	0x3fbe68ca6c83f931	0.11878647946648326
12	0xbfc2961f529a44e0	-0.1452063706715654
13	0xbfd8b2ca91566e7c	-0.3859125537216881
14	0xbfd988dc72414ff1	-0.3989783397457805
15	0x3fbdf390828fde5b	0.11699774920986654
16	0x3fd5a7fc7b4db9fa	0.3383780674111275
17	0x3fbbef9c2013cdf7	0.10912490637911519
18	0xbfd098e61a958c7e	-0.25933220478163566
19	0x3fc64ec5ae781670	0.17427893656729365
20	0xbfc3a9d0ac286456	-0.15361984640256549
21	0xbfd064124db3b4ff	-0.2561078795250324
22	0xbfceba093b98ef4d	-0.24005237016705863
23	0x3fb33e62ffe9acb5	0.07517069576140296
24	0x3fd692d5e930d346	0.3527121331456339
25	0x3f488aef6eb25a4d	0.0007489842513617812
26	0xbfd0ff97999fba24	-0.2656001091226321
27	0x3fda5e788798640d	0.41201604119993435
28	0xbfa8e9dc7874f0a1	-0.0486592194597233
29	0xbfd06a611b03aee0	-0.2564928783237814
30	0x3fb95bfd09c3112a	0.09905988205270391
31	0xbfdb1dee89e6d4ce	-0.42370189158402816
32	0xbfcadc0b94eff050	-0.20984024784400157
33	0x3fc9a63ab0bd4d59	0.2003854144082691
34	0x3fd48fec5955ffe0	0.3212843773289915
35	0x3fcb8f12eadf96f7	0.21530376881053545
36	0xbfd31e03d5af1144	-0.29870696895183735
37	0x3faefd38d9e4678a	0.060525681112451116
38	0x3fd226c17f449d59	0.2836154692508522
39	0x3fc5232b29f2b119	0.16513576076739225
40	0x3fc6b24653ef24ea	0.17731551264140616
41	0xbfd87af48ae11b74	-0.38250459253725144
42	0x3fd62c7a7bd6f822	0.3464647492763807
43	0xbfd78f7927af45c3	-0.36813191295103936
44	0x3fd65df66d9c12c7	0.34948502258366115
45	0xbfbfc06860c99942	-0.12402965891815135
46	0x3fcba57116574ddc	0.21598638144369786
47	0x3f9d8ce9f58ef8bf	0.028857856381130583
48	0x3fd6a799be9bed73	0.3539795266549028
49	0x3fd69197b826fd27	0.35263627036688877
50	0xbfd355dfb83bc6b7	-0.30211632720520804
51	0x3fcc5e184ac72fb7	0.2216215481879524
52	0x3fd09252a66a3f43	0.25893083812205847
53	0x3fd999d84668171c	0.40001494289059436
54	0x3fc46bfaa105596d	0.1595452581629603
55	0x3fd7ba92993dcf1f	0.3707624908922628
56	0xbf8398c57273ca15	-0.009568731837565495
57	0x3fd426064e819be6	0.31482083956365015
58	0xbfcc9ca7bb6b5055	-0.22353073741271837
59	0x3fd8f760b8cc4343	0.390098743883801
60	0x3fd4fb42812c238e	0.32783568014615916
61	0x3fb0a18b1ebd429a	0.0649649572417367
62	0xbfdbc90c7a9d2aac	-0.4341460416223224
63	0x3fa5a8a0c0ff4e7e	0.04230215412067383
64	0x3fcf76239b6394c9	0.24579281890252094
65	0x3fd5fb96a436a541	0.3434807399413167
66	0xbfd68ce1bf5aa522	-0.3523487442676744
67	0xbfd13954e02ac0e6	-0.2691242398386876
68	0xbfd0ad3a2943b805	-0.2605729487394231
69	0xbfae270d50b42192	-0.05889169321204969
70	0xbfd66ad7c448c4d0	-0.3502711693609628
71	0xbfdba3216f4303dd	-0.4318317019024656
72	0xbfd1149769b55191	-0.26688180277894796
73	0xbfd46be27f6a7430	-0.3190847629828708
74	0x3fb061fc6951b4ea	0.06399514743107529
75	0xbfb0f669e41a8724	-0.06625997370659015
76	0xbfc158eb3651322f	-0.13552608635144867
77	0xbfdd7f5f48de3808	-0.46089918247241757
78	0xbfda3ac3e1ff34dc	-0.40983674116143987
79	0xbfd93e882b04baf0	-0.394441644678337
80	0x3fd4865ef1d9e400	0.3207013475253575
81	0xbfbc19ab65df0b22	-0.10976668583957097
82	0x3fd5f3f2e7c7d510	0.3430144561273929
83	0xbfd58cc8f4d46b67	-0.3367178336063063
84	0xbfdb65ba77af3e60	-0.42808400810188196
85	0x3fd2d39537ef26d6	0.29416399442980656
86	0x3fdc903310753a1b	0.4463012371751646
87	0x3fd38f6bb925438c	0.3056287105619553
88	0xbfca3213f27a7a65	-0.20465325679556937
89	0x3fd52db27b5d2c93	0.3309141354299722
90	0x3f867498903a23ae	0.01096457662721825
91	0x3fd71ce1df746016	0.361137836663603
92	0x3fd0011792d67697	0.25006665553687796
93	0xbfd176d47071114b	-0.27287779789573524
94	0xbfdc090612f466f3	-0.4380507645706608
95	0x3fdc60726aea8995	0.4433866542914527

conv1.lin_dst.weight f8 [32, 3]
0	0xbfc00ead59d4ec48	-0.1254479111320015
1	0x3faea25fbd053364	0.05983256513955018
2	0x3fcbb39441f10ebc	0.21641782016569333
3	0x3fcbaf437190a939	0.21628611607713724
4	0xbfbcee9fe53b393c	-0.11301612230747521
5	0xbfd3759d96acf30a	-0.3040536853257413
6	0x3fb751e0847208ae	0.09109309419185038
7	0x3fd0744af8675c1d	0.25709795244387285
8	0x3fc6023b6ca91eaa	0.17194311910337962
9	0x3fd8bf4942016595	0.3866751808723959
10	0x3fd0a5663d701feb	0.2600951766949026
11	0x3fbe68ca6c83f931	0.11878647946648326
12	0xbfc2961f529a44e0	-0.1452063706715654
13	0xbfd8b2ca91566e7c	-0.3859125537216881
14	0xbfd988dc72414ff1	-0.3989783397457805
15	0x3fbdf390828fde5b	0.11699774920986654
16	0x3fd5a7fc7b4db9fa	0.3383780674111275
17	0x3fbbef9c2013cdf7	0.10912490637911519
18	0xbfd098e61a958c7e	-0.25933220478163566
19	0x3fc64ec5ae781670	0.17427893656729365
20	0xbfc3a9d0ac286456	-0.15361984640256549
21	0xbfd064124db3b4ff	-0.2561078795250324
22	0xbfceba093b98ef4d	-0.24005237016705863
23	0x3fb33e62ffe9acb5	0.07517069576140296
24	0x3fd692d5e930d346	0.3527121331456339
25	0x3f488aef6eb25a4d	0.0007489842513617812
26	0xbfd0ff97999fba24	-0.2656001091226321
27	0x3fda5e788798640d	0.41201604119993435
28	0xbfa8e9dc7874f0a1	-0.0486592194597233
29	0xbfd06a611b03aee0	-0.2564928783237814
30	0x3fb95bfd09c3112a	0.09905988205270391
31	0xbfdb1dee89e6d4ce	-0.42370189158402816
32	0xbfcadc0b94eff050	-0.20984024784400157
33	0x3fc9a63ab0bd4d59	0.2003854144082691
34	0x3fd48fec5955ffe0	0.3212843773289915
35	0x3fcb8f12eadf96f7	0.21530376881053545
36	0xbfd31e03d5af1144	-0.29870696895183735
37	0x3faefd38d9e4678a	0.060525681112451116
38	0x3fd226c17f449d59	0.2836154692508522
39	0x3fc5232b29f2b119	0.16513576076739225
40	0x3fc6b24653ef24ea	0.17731551264140616
41	0xbfd87af48ae11b74	-0.38250459253725144
42	0x3fd62c7a7bd6f822	0.3464647492763807
43	0xbfd78f7927af45c3	-0.36813191295103936
44	0x3fd65df66d9c12c7	0.34948502258366115
45	0xbfbfc06860c99942	-0.12402965891815135
46	0x3fcba57116574ddc	0.21598638144369786
47	0x3f9d8ce9f58ef8bf	0.028857856381130583
48	0x3fd6a799be9bed73	0.3539795266549028
49	0x3fd69197b826fd27	0.35263627036688877
50	0xbfd355dfb83bc6b7	-0.30211632720520804
51	0x3fcc5e184ac72fb7	0.2216215481879524
52	0x3fd09252a66a3f43	0.25893083812205847
53	0x3fd999d84668171c	0.40001494289059436
54	0x3fc46bfaa105596d	0.1595452581629603
55	0x3fd7ba92993dcf1f	0.3707624908922628
56	0xbf8398c57273ca15	-0.009568731837565495
57	0x3fd426064e819be6	0.31482083956365015
58	0xbfcc9ca7bb6b5055	-0.22353073741271837
59	0x3fd8f760b8cc4343	0.390098743883801
60	0x3fd4fb42812c238e	0.32783568014615916
61	0x3fb0a18b1ebd429a	0.0649649572417367
62	0xbfdbc90c7a9d2aac	-0.4341460416223224
63	0x3fa5a8a0c0ff4e7e	0.04230215412067383
64	0x3fcf76239b6394c9	0.24579281890252094
65	0x3fd5fb96a436a541	0.3434807399413167
66	0xbfd68ce1bf5aa522	-0.3523487442676744
67	0xbfd13954e02ac0e6	-0.2691242398386876
68	0xbfd0ad3a2943b805	-0.2605729487394231
69	0xbfae270d50b42192	-0.05889169321204969
70	0xbfd66ad7c448c4d0	-0.3502711693609628
71	0xbfdba3216f4303dd	-0.4318317019024656
72	0xbfd1149769b55191	-0.26688180277894796
73	0xbfd46be27f6a7430	-0.3190847629828708
74	0x3fb061fc6951b4ea	0.06399514743107529
75	0xbfb0f669e41a8724	-0.06625997370659015
76	0xbfc158eb3651322f	-0.13552608635144867
77	0xbfdd7f5f48de3808	-0.46089918247241757
78	0xbfda3ac3e1ff34dc	-0.40983674116143987
79	0xbfd93e882b04baf0	-0.394441644678337
80	0x3fd4865ef1d9e400	0.3207013475253575
81	0xbfbc19ab65df0b22	-0.10976668583957097
82	0x3fd5f3f2e7c7d510	0.3430144561273929
83	0xbfd58cc8f4d46b67	-0.3367178336063063
84	0xbfdb65ba77af3e60	-0.42808400810188196
85	0x3fd2d39537ef26d6	0.29416399442980656
86	0x3fdc903310753a1b	0.4463012371751646
87	0x3fd38f6bb925438c	0.3056287105619553
88	0xbfca3213f27a7a65	-0.20465325679556937
89	0x3fd52db27b5d2c93	0.3309141354299722
90	0x3f867498903a23ae	0.01096457662721825
91	0x3fd71ce1df746016	0.361137836663603
92	0x3fd0011792d67697	0.25006665553687796
93	0xbfd176d47071114b	-0.27287779789573524
94	0xbfdc090612f466f3	-0.4380507645706608
95	0x3fdc60726aea8995	0.4433866542914527

conv1.lin_edge.weight f8 [32, 10]
0	0xbfa43bd55440efa3	-0.03951899198042887
1	0x3fc4938fd2bef04b	0.16075322904896647
2	0xbfd773d68fb52196	-0.36644519838275735
3	0xbfceb943a345eb83	-0.2400288150054984
4	0xbfcefd65e6dac2eb	-0.24210809490389038
5	0x3fab02ade9bd3c86	0.05275481680166032
6	0xbfccd02ca83014b7	-0.22510297977729518
7	0xbfcd21d9fd07811c	-0.2275955663199135
8	0xbfca2f170b540a6f	-0.20456207326067807
9	0x3fc45192cb652f5d	0.1587394230976952
10	0xbfd3ba4eae183634	-0.30824629784987967
11	0xbfc3af2ad329d2c1	-0.15378318129264382
12	0x3fd129b8b802399e	0.26817148179625316
13	0xbfd1d32a6dae7df3	-0.27851353369803106
14	0x3fd02af8c9794a64	0.2526227920072073
15	0xbfd37964f934a035	-0.3042843278549328
16	0x3fd7728838516eaf	0.3663654851895712
17	0xbfb8410d59406f23	-0.09474261692997436
18	0xbfc3374fd06576ad	-0.15012548137285844
19	0xbfd679fef3fe2586	-0.3511960394613073
20	0x3f980f8c2aed855a	0.023496809120279273
21	0x3fd044c999c4519d	0.25419845596595697
22	0x3fc366f10264a143	0.1515790235218991
23	0xbfd0730d5ebd4f0f	-0.2570222306433018
24	0x3fb56b2fbd10bb04	0.08366678586819992
25	0x3fd58aa2398cdb86	0.33658652897013785
26	0xbfc41dc94e5b714d	-0.1571590073207382
27	0xbf78b99b8902d5d5	-0.006036384162304971
28	0xbfa6277e3e787d1d	-0.04327005875188148
29	0xbfcc7c8ab70ca163	-0.22255071580844818
30	0x3fd7b43a0c9bba69	0.37037516814499455
31	0xbfcb12d58266c68d	-0.21151226870783937
32	0x3fd0cc92489afb7d	0.2624860486065968
33	0x3fa691fa689bcf7a	0.044082474965676036
34	0x3fc717c470806844	0.18041282170526263
35	0xbf5b48005673c343	-0.0016651156709565774
36	0xbfd259eda4bdeeca	-0.2867387875373707
37	0xbf9d120264739062	-0.02838901270014594
38	0x3fa3b64d8d672fcf	0.03850023604499563
39	0xbfd53aebfff0ae8a	-0.33172130579144066
40	0xbfd618d8b427f0e6	-0.3452665099464539
41	0x3fd46f0832247a46	0.3192768563912164
42	0x3fc5931b7732cd76	0.16855185814129542
43	0xbf97c256b9c25c0f	-0.023202281082003447
44	0xbfd5ed827932eb7a	-0.34262143932181
45	0xbfd6b3067e5f1dac	-0.35467684117289866
46	0x3fca44156b166f3d	0.20520274857414647
47	0x3fbc9df45bbbac04	0.1117851947744129
48	0xbfd2aa94b214e772	-0.2916614283636739
49	0x3f953de530ff8df6	0.020743924251190614
50	0x3fd5713f95db188d	0.33503713259086326
51	0xbf76d826f456d589	-0.005577232518978356
52	0xbfc89e518052adf9	-0.19233149305124167
53	0x3fd79cacfaf5e06c	0.36893772609574316
54	0x3fd5d1dd1cb2f91a	0.3409340648903637
55	0xbfd31686c55879c9	-0.2982499053195196
56	0xbfcfca9ecaa81157	-0.2483709802182925
57	0x3fa7b623f2f8a36f	0.04631149617154661
58	0xbf82e368ff215f36	-0.009222812925301232
59	0xbfc9ec862d8c58fb	-0.2025306436923485
60	0x3fa37114f4a4cf2c	0.037972121108764106
61	0x3fb269ae958a2ed5	0.07192507887719597
62	0x3fabb756f5ae8e9e	0.05413314580007732
63	0x3fd21142a2e86593	0.28230348500218233
64	0x3fc32e8a3dd8a4a8	0.1498577882751182
65	0x3fce67db23514657	0.2375444338272696
66	0x3fd3f0bb028b67a2	0.3115680241440889
67	0x3fc21a3fd2df368e	0.1414260654113843
68	0xbfd4c8110eb5f484	-0.3247110980663097
69	0xbfa12bec5c88f86a	-0.033538233085423766
70	0x3fd366a5690e2254	0.3031400228433416
71	0xbfaff69b4a57070e	-0.06242833406896696
72	0x3fbf1eee0585da49	0.12156570086322306
73	0x3fbd566e8f7daef4	0.11460009577939073
74	0xbfd1cdaf78d47ccc	-0.2781790428143267
75	0x3fc94e8e3a30874f	0.1977098259094938
76	0xbfa7c4483415d58e	-0.04641938815886269
77	0xbfd6ea19638fd0dc	-0.35803827975111147
78	0xbfd25dcbbe8912fc	-0.2869748459527697
79	0xbfc0b38d90981052	-0.13047952232602938
80	0xbfd2270b6e481bb2	-0.2836330964059314
81	0x3fa35a2205a5b614	0.03779703444420704
82	0x3fd24c544cf2fd27	0.2859087707001486
83	0x3f961990958765ef	0.021581896902579997
84	0xbfd3bb5805b67db5	-0.30830956037422236
85	0x3fc870b4c387ab98	0.19093951747285298
86	0x3fd2cae2afc3661a	0.29363314785368433
87	0xbfd26085e4520fee	-0.28714129731110816
88	0x3fc75090dd89dade	0.1821461755495965
89	0xbfc65f6bfca49b7a	-0.17478704296192032
90	0xbf3d5c0f40905bf6	-0.00044799206131201864
91	0xbfb37268318f9973	-0.07596446237548608
92	0x3fc52adb755592c9	0.1653703997536893
93	0xbfb06cf3a53eb691	-0.0641624716215239
94	0xbfc5dd4c7b3f265e	-0.17081600206283815
95	0x3fbd7f514cf9be2b	0.11522396210943302
96	0x3fc5b71053d7b96d	0.1696491631877949
97	0x3fc17b2d3616c58b	0.1365715517145357
98	0xbfc67bbab5d1e873	-0.17565091970374488
99	0xbfd76144a7a680ca	-0.36531177875623355
100	0xbfd3cae1455a40bd	-0.3092578103323936
101	0xbf54032adbf275fd	-0.0012214582964483738
102	0x3fc56fd4af74a16f	0.16747530524413487
103	0xbfc1c9028c2c680c	-0.13894683689505916
104	0x3fd6a5207e3af885	0.3538285477369601
105	0xbfd16038472eaaad	-0.27149779273410496
106	0xbfc5c5e1fd93fe1a	-0.17010140306227656
107	0x3fac76d8acbea21d	0.055594225966448564
108	0xbfd07dc08d89cfed	-0.2576753027162784
109	0x3fb20c2377d6754a	0.0704977195332123
110	0xbfd6dd98331538fa	-0.357275056729932
111	0x3fc1b4289b673e5e	0.13831050479938062
112	0xbfd66d9e5f02d706	-0.35044059065272426
113	0xbfd804b486fc8caa	-0.3752871816852329
114	0x3fba950e28f10b31	0.10383690356779308
115	0x3fd024f9441bc67b	0.25225669528217737
116	0xbfd60ffad013c444	-0.3447253257755316
117	0x3fb2fd06a6e0d661	0.07417337011505644
118	0x3fa4454519d2dcf9	0.03959098758917352
119	0x3fd21c75a95b8fe5	0.28298703707537093
120	0xbfc9da5abafff510	-0.20197614794589258
121	0xbfa533cf06af8c15	-0.041410893980149556
122	0x3fb7812a176674cc	0.09181464263243128
123	0x3fab3e2e155f4a8a	0.0532087708558225
124	0x3fbdbf402c5e2865	0.11619950373838746
125	0x3fd0039016e799dc	0.25021745907579684
126	0x3f6e7493c109d554	0.0037176976987277986
127	0x3fcaad205aeff308	0.2084083980588718
128	0xbf95d98347ca845e	-0.021337558037547992
129	0xbfca156b1b592ad4	-0.20377863726965606
130	0x3fa42387fdf9ebc5	0.03933358168884341
131	0x3fb0d95c82b3e300	0.06581667128547153
132	0x3fb21d028799e53e	0.07075515566420607
133	0xbfd6db9f5d38e666	-0.35715469459282756
134	0xbfd3c23f6c81ec7d	-0.3087309417384814
135	0x3fb1f836529d6e68	0.07019366757361356
136	0x3fb19512e8afd655	0.06868093663055082
137	0x3fcf33600cebe952	0.24375534659322767
138	0xbfd55b76cd7bbe71	-0.3337075239823895
139	0xbfc9e7f49f6cf436	-0.20239122185185615
140	0x3fa8ce2fd218b2d0	0.04844808044103888
141	0x3f9badf48174a088	0.02703077354559061
142	0xbfadc4327de9d7b6	-0.058137491102498925
143	0x3fcd98ff9ad7c994	0.23123164234818872
144	0xbfd1bb261342f0a2	-0.277047652063411
145	0xbfc29c78f2951005	-0.14540016026342087
146	0xbfd0efcc85a9bf7e	-0.26463616421732883
147	0x3fd72080a1dc05dd	0.3613587933214982
148	0x3fa3a67967a4b51b	0.03837947263887483
149	0xbfb5ee5d9a406c5b	-0.08566842094335085
150	0xbfc17059c1488021	-0.13624116838127612
151	0xbfd2bc100f4802cf	-0.29272843830407863
152	0xbf85f175bcb7d839	-0.010714454480858492
153	0x3fae4b32a9b7c870	0.05916746446372734
154	0xbfc5e7a923923b6d	-0.17113222348094884
155	0xbfc16b9d24bf10e5	-0.13609661382918783
156	0xbfcc598cecfe86e7	-0.22148286411270776
157	0xbfd204627f261eb5	-0.2815176240623985
158	0x3f9eb7e40550ff93	0.029998362373816766
159	0x3fd6f9111d69f864	0.358951834415967
160	0x3fb89a05e5d72a94	0.0961002050527589
161	0xbfc4c8a4c1ace27a	-0.16237315613559017
162	0xbfd2cfb9e4119a10	-0.2939285971864658
163	0xbfcb865985127dda	-0.21503752706210727
164	0x3fa12d26c1beb19c	0.03354760279703159
165	0x3fd46ce9728d2bf9	0.31914745508828407
166	0x3fbf48b480748376	0.12220314155685039
167	0x3fba4c49b53794ec	0.10272656130071639
168	0x3fc9cffd74ff59f8	0.20165985310332224
169	0x3fb7b20af6defa05	0.09256046797870716
170	0x3fd0cfafc7af4ff0	0.2626761865660674
171	0x3fd7c0cece1c9403	0.3711430561837121
172	0x3fd4b23008bdbaff	0.32337571004511284
173	0xbfcae8af9eadd4e7	-0.2102260136413527
174	0xbfc828feaee9583a	-0.1887510637340613
175	0xbfabc4c2d490f954	-0.054235542724642954
176	0xbfbb75672cde75a4	-0.10726017804559845
177	0x3fd0c93c8093e704	0.26228249126835146
178	0x3fac333d797c6c16	0.05507843120559401
179	0x3fd027ea75a80083	0.2524362706171887
180	0xbfa2aa6ea10ca5ea	-0.03645654407439365
181	0xbfb57960d8173db1	-0.08388333583501752
182	0xbfceb6c6b97a9140	-0.23995288902836798
183	0xbf66ca889ec6fc23	-0.002782122455954121
184	0x3fb49ca4d590c647	0.08051519598009192
185	0xbfcd89e042116b09	-0.2307701418493127
186	0xbf94fba2f5aeb78c	-0.020491167302388244
187	0xbfcd88ea75f7db18	-0.23074084053197264
188	0xbfd64f720e755340	-0.3485989705271102
189	0xbfd2f5042fd92114	-0.2962046115176389
190	0x3fb13969d9107459	0.06728231000347885
191	0xbfb224147a5f6cf9	-0.07086303699127318
192	0xbfcdf41f0b77de9a	-0.23401248989079165
193	0xbfd78bf72c8f71dd	-0.36791781760783043
194	0xbfd71375808ae374	-0.3605626826570678
195	0xbfc070a4815a7a73	-0.1284375793083715
196	0xbfd363232f95107f	-0.3029258694334728
197	0x3fc46054f3f76d9b	0.15918981468608426
198	0x3fd61b88ea7e1cbe	0.34543059253378405
199	0xbfcd262c3d85a980	-0.22772744182595872
200	0x3fd48fe5e0ac46c1	0.3212828344413588
201	0x3fd2bad7dbf627d8	0.2926540039121597
202	0xbfbe8fbf48402609	-0.11938090814523873
203	0xbfc1293081d35354	-0.13406950320372835
204	0xbfce66a6005a0e54	-0.23750758187462628
205	0xbfb9983e5b8667ca	-0.09997930273530567
206	0xbfa17d37766d7c08	-0.034158452230933334
207	0xbfb3d33cd9215fe8	-0.07744198132547775
208	0xbfd26fbc26c8b166	-0.2880697611569957
209	0xbfbf7289dbb9dfb8	-0.12284146894842152
210	0x3fd6a20f87607414	0.35364139767062963
211	0xbfce050ef8bf3313	-0.23452937265246784
212	0x3f9f0d3e6173e753	0.030323958108943682
213	0x3fd2f841c60a86f0	0.29640240039780874
214	0xbfd88776d3ca2a4a	-0.3832680767306199
215	0xbfd1305c6d41b6dc	-0.2685767237625052
216	0xbfc3d18eef12cc76	-0.15483271287448347
217	0x3fcfe594dbeb5404	0.2491937707733599
218	0xbfceffa99fdefa2a	-0.24217720323754693
219	0xbfcfb252755e6015	-0.2476294587220315
220	0xbfd2467ce1630504	-0.28555223474911906
221	0x3fc4b5be80a32567	0.16179639130704546
222	0x3fcd6fc385c960db	0.22997325928259368
223	0x3fd782dc4a0a5eee	0.3673620913555017
224	0x3fc69ff91cc3adb7	0.17675699142942644
225	0xbfd6bbcfd3e30116	-0.3552131241995239
226	0x3fad322964bc720d	0.057023328349007675
227	0x3fc687a97abf3b2d	0.17601507657533358
228	0x3fa9020e26d736fa	0.048843805543226496
229	0x3fd551611ea30220	0.33309200279112083
230	0xbfa58469868841ac	-0.04202584998359113
231	0x3f92846e27f5aed3	0.018083306492754424
232	0x3fc53c0eb116d814	0.16589530608115466
233	0xbfd2a46764ef1775	-0.2912844167407152
234	0xbfb3bee2bdf1ab4b	-0.07713143479638267
235	0xbfd206df6377e100	-0.28166947091769146
236	0x3fd373938f4e10b9	0.3039292239630061
237	0xbfc4b0d1c27e5ce4	-0.16164609905965854
238	0xbfb0a000109077e4	-0.06494141010668347
239	0x3fbea22c0812f342	0.1196620483123754
240	0x3f8f3344ee0351f7	0.015234507096843137
241	0x3fab2e4cfaa71dad	0.053087621304764944
242	0xbfd47ce1180858a6	-0.32012202593740324
243	0xbfc8ca1876f9bee4	-0.19366746720651584
244	0xbfd8df74556ead30	-0.38863857596398343
245	0xbfc8163c887a4772	-0.18817860282848248
246	0xbfc2031541d258ce	-0.140719086780058
247	0xbfd4fa9cdd45c4c8	-0.3277961884369458
248	0x3fbc7e1a0f71edd7	0.1112991607387167
249	0x3fceb5d2bb6dc413	0.23992380286975443
250	0x3fc129638283f538	0.13407558319878787
251	0xbfce03e6bf0b5cae	-0.23449405983294497
252	0x3fc0422250cecb01	0.12701825090115196
253	0x3fcb3f308761ff9b	0.21286589251030538
254	0x3fb59f5ede0ef212	0.08446305199954221
255	0x3fc4f28b77bd0ba0	0.16365187975506235

conv2.att_src f8 [1, 1, 32]
0	0x3fc7594c92d657b6	0.18241269273556576
1	0xbf81ad07b577a020	-0.008630809998933897
2	0xbfdb42d037af3721	-0.42595296323712445
3	0x3fcf2bb7e8932514	0.24352167946043635
4	0x3fda9cfccda58699	0.41583175738024064
5	0xbfb95b72354a1b76	-0.09905160714161618
6	0xbfd5b5999265975c	-0.33920897766653524
7	0x3fdb6e220dd78552	0.42859698631044296
8	0x3fd8c4ac996954c2	0.38700404149615164
9	0xbfc06526b7304b5c	-0.12808689064749046
10	0x3fdbbc59ee1534af	0.43337105036045903
11	0x3fb47911c3f4f4df	0.07997237238028586
12	0xbf82dad199481449	-0.009206426134378403
13	0x3fb1f52d5a79ff40	0.07014735659504101
14	0xbfcd22573d91a90e	-0.2276104975347341
15	0xbfbfd3c50c1a4c8d	-0.1243250994250948
16	0xbfcaad40451e0a79	-0.20841220259542917
17	0x3fd96eeb7bedb90b	0.39739501097109614
18	0x3fd941fd161dac0f	0.3946526256538058
19	0xbfcaa62b2ef6c4ee	-0.20819606583749056
20	0x3fb5f9c74551bae5	0.08584256594052027
21	0xbfbcee6805dbd78f	-0.11301279204403002
22	0xbfd7eaf557d064e5	-0.37371572089757726
23	0x3fb9ab5d6bec7c8a	0.10027107128961368
24	0xbfb1c844bb17c9fb	-0.06946210448931105
25	0x3fb228412bb679bb	0.07092673604208859
26	0x3fae41bffe7c704b	0.05909538251418719
27	0x3fd91046e56649fa	0.3916184654455318
28	0xbfd0438950b352c2	-0.25412209397226715
29	0x3fc94dd1319c07c7	0.1976872913583618
30	0x3fd4b4716bd21fc1	0.32351336984038076
31	0x3fd04f31ab6664b3	0.2548336194827911

conv2.att_dst f8 [1, 1, 32]
0	0x3fda29a61466667a	0.40879203788936247
1	0x3fd74516aac7910a	0.36359183004084683
2	0x3fdb17058b6ccb5d	0.42328013053627506
3	0xbfb74529e0bbd4b1	-0.09089910256064361
4	0x3fc0cf330b0a206c	0.13132322348633652
5	0x3fca13af26a154a7	0.2037257135986341
6	0xbfb2662b9afbf242	-0.07187149556916331
7	0x3faa5b9beec9233c	0.051480172060627244
8	0xbfd287f4f2e7d3be	-0.289548146450496
9	0x3fd01e61a9c132ea	0.2518543393860414
10	0xbfd94ac1ad14ca01	-0.39518777754270223
11	0x3fad612d85adbd32	0.05738203293628387
12	0x3fcd0421c3f6ba7a	0.2266885954718026
13	0x3fd66a6ca0d35ed4	0.350245625549616
14	0xbfd61f567e068d4c	-0.34566271121203296
15	0x3fbc62f90a6e789e	0.11088520531345344
16	0x3fc9a4217f0c79b8	0.2003213758807314
17	0x3fd17286d24c1f79	0.2726151517567739
18	0xbfb0444719f94aad	-0.06354183563352463
19	0x3fc35d66ec43f1ae	0.1512879041328125
20	0xbfc8090cbe62edbc	-0.18777617737019436
21	0xbfd37f56d535219f	-0.3046471674065518
22	0x3fb36c3aaf06a5cb	0.0758701970395556
23	0x3fd8dfb008b02ecf	0.38865280960520193
24	0x3fd73c7c4ae075c4	0.3630667430132599
25	0x3fca3b8170db94c1	0.20494096766120687
26	0x3fd5b01383e467ae	0.33887184028719275
27	0x3fd701a4c18fed26	0.3594753160720806
28	0xbfb30e5ca3850d97	-0.07443789474660033
29	0x3f83126972c5e257	0.009312461676686796
30	0xbfd0aedb61f4fd69	-0.260672422085881
31	0x3fc342f790a02801	0.15048117219731696

conv2.att_edge f8 [1, 1, 32]
0	0x3fc17f2298d08acf	0.1366923566975715
1	0xbfd8bdfdf43599db	-0.3865961918694702
2	0x3fc7f9d6089e5d44	0.18731189175444218
3	0xbfd1ef12cf0273e4	-0.28021688667086964
4	0xbfd35fe2780df9df	-0.3027273342521805
5	0x3fa6e479a6bbf2d1	0.04471187744454642
6	0x3fd031ec79cf14dd	0.2530471028843076
7	0xbfcb8fb6758f60f1	-0.21532326450574815
8	0xbfce67c02f6868d4	-0.237541220806469
9	0xbfd18164c2a5dcac	-0.27352255829414207
10	0x3fb862a34994c3e5	0.09525509401716155
11	0xbfd7983a6a23dea2	-0.36866627087827386
12	0xbfbd799da63bbc32	-0.11513696011000787
13	0xbfdabbbf102915a6	-0.41770912721798437
14	0xbfc6a5e7ad0a6531	-0.17693801831482284
15	0xbfc19dd1a40707a9	-0.1376287508883796
16	0xbfaf43fe8d5104b3	-0.061065630674883485
17	0xbfd606ba0cd903f5	-0.3441605687585814
18	0xbfd927f54b2ed64a	-0.39306385366521523
19	0xbfda216e34cf73c1	-0.4082904353834316
20	0x3fc124805c3af085	0.1339264345496113
21	0x3fb63f7a12f9e15b	0.08690607989581649
22	0xbfa9e5beec778c2a	-0.05058094631728978
23	0xbfbe5491ca62bdc0	-0.11847792807633706
24	0x3fd4678af0de9149	0.31881974718477984
25	0xbfc1efabb250b4e0	-0.14012666899490167
26	0x3fb9e14294955d84	0.10109344604039988
27	0x3fcee799b086596b	0.24144288176894277
28	0xbfd42b5a34ade0c2	-0.31514601845220735
29	0xbfc5a3e4f2c0a558	-0.1690641579928449
30	0x3f9f01efc23281f9	0.030280824878561294
31	0xbfd025231952d908	-0.2522666690159814

conv2.bias f8 [32]
0	0xbfa18eb498a17a40	-0.034291881210027686
1	0x3fa5ef9bd9144111	0.04284369492427421
2	0xbfa05929efcb6e8c	-0.031930265924271145
3	0x3fb235f4918e1102	0.0711357932432897
4	0xbfa4814618156a6f	-0.04004878086080487
5	0x3fb29d515b3f8579	0.07271297910440024
6	0xbfa23fdbbabcf6ef	-0.03564345030325266
7	0x3fb0f3cbcf023926	0.06622003368304216
8	0x3fac6ce7c2e67e3a	0.055518381635235106
9	0xbf9babd5d42eb885	-0.027022687030403354
10	0x3fb0469d1393542a	0.0635774777213817
11	0xbfa25fdc15984434	-0.03588760150535855
12	0xbf8db88f9aab8283	-0.014512178332951159
13	0xbfa08608acd644e1	-0.03227259740664024
14	0x3fac3d3eeb7d01d6	0.0551547682248416
15	0x3faba3e8e2620bd8	0.05398490680183671
16	0x3fadbfeca997bd4e	0.05810489244674476
17	0x3fab1796a73e0e64	0.05291434089215555
18	0x3facccd5d03a10d1	0.05625026861983574
19	0x3fb0a395c1473742	0.0649961087103437
20	0x3facf20a0e8f32b7	0.05653411319471984
21	0x3face51a627d40ac	0.05643541767369817
22	0x3fab69c81154d37f	0.05354142390789373
23	0xbf944bcf66120fa5	-0.019820442776577036
24	0xbfa151b4237e1a1f	-0.033826474506941866
25	0xbfa347e80ca451fb	-0.03765797762222075
26	0x3fab263170cf24ba	0.05302576543869848
27	0x3facb3cca4e8510b	0.056059260492618966
28	0xbfa39f2746e247cd	-0.03832361927301484
29	0x3fad6fa054657805	0.057492265989580495
30	0xbf9a678c4efbd137	-0.025785629578380678
31	0xbfa3bdb9aeeaeb53	-0.03855686435914287

conv2.lin_src.weight f8 [32, 32]
0	0x3f7fe6e8e73c8da5	0.007788572100057155
1	0xbfbb192478c954cb	-0.10585239361656133
2	0x3fc78d1f7f60e5a5	0.18399423331883927
3	0x3f94ce1b9136bbe1	0.020317488420626865
4	0xbfc6c70eebbfc297	-0.17794977675614085
5	0xbfa3c533d5bca688	-0.03861391052334989
6	0x3fd020234c5deac5	0.25196154077245253
7	0xbfd0a78c93b03a7a	-0.26022638724035796
8	0xbfc7116d5bfb0da6	-0.1802193354725265
9	0x3f901915d97b7aa5	0.015720693015164006
10	0xbf9722cb5a409044	-0.022593667396123132
11	0xbfd185df52c38cb3	-0.2737959202042461
12	0x3fc3ba4e4fd98659	0.15412310503875196
13	0x3fa52044a4253b86	0.04126181129196653
14	0xbfcd0eeb20f8a7b8	-0.2270177756302567
15	0xbfaee74f418163af	-0.06035850214602278
16	0x3fd1d66dd055f90c	0.27871270509048496
17	0x3fca2efa3fff58f1	0.20455864071727306
18	0xbfcabbb078c73812	-0.2088528241860677
19	0x3f9cf63162583758	0.028282901408651057
20	0xbf9d8d75e0331382	-0.028859941300442234
21	0xbfb7ccea614f8c20	-0.09297051311254778
22	0x3fb301747215e4f1	0.07424094949046257
23	0xbfce71f58a94ef6f	-0.2378527571362343
24	0x3fc78ba64f8f9357	0.18394926914984452
25	0xbfd3897a2950cb7c	-0.30526594195105594
26	0x3fd0e0bb98dad306	0.26371660163140154
27	0x3f83b04008bc9953	0.009613514200805062
28	0xbfd41039bc681969	-0.3134903278263637
29	0xbfd1a98d84ca12e5	-0.2759736820956234
30	0xbfb7086e27452734	-0.08997238596671481
31	0x3fce70740e3cac8a	0.23780680365721124
32	0x3fa43c3536e15849	0.039521849583863906
33	0x3fb14883a3d1a51c	0.06751272916303147
34	0x3fa86bb5da081eb1	0.04769676481742858
35	0x3fd2961d25411de8	0.2904122222721228
36	0xbfc5e5f5f85b67cb	-0.17108034731682972
37	0x3fb84001f8cc4a2e	0.09472668003244486
38	0xbfd11e0de3fe3039	-0.26745936646398466
39	0xbfc7e83663bec08d	-0.18677406187407933
40	0xbfd17897dac41685	-0.27298542369712947
41	0xbfd07125a8852a7a	-0.2569059510903241
42	0xbfc8a9c2e3169955	-0.19268070305151733
43	0x3f91647a0bbe9261	0.01698485085184343
44	0xbfc1c843eb82fd76	-0.138924112316072
45	0x3fc4fe81b3f5979b	0.1640169266422021
46	0xbfc5e9e74756a388	-0.17120066626855768
47	0xbfc1bd1963abfc4a	-0.13858334891117102
48	0xbfcf8fb940bff181	-0.24657359754190725
49	0x3fb8e0cc057998ab	0.09718012937227864
50	0x3fd4dcd38c5d479d	0.3259781714197006
51	0xbfd079a7809d15ca	-0.2574251895897218
52	0xbfcd921fa9cc66e3	-0.23102184096278852
53	0xbf9ecd77412160ca	-0.03008066496872245
54	0xbfc93a4cd95e32da	-0.19709168065710153
55	0x3fcc7cd8eb1c4251	0.2225600383758484
56	0x3fbfedf70ae6cdba	0.12472480789329313
57	0xbfd2031f1673c264	-0.2814405173549288
58	0xbfb382ebd7a411d9	-0.07621644987745614
59	0x3fa5f9f066f2a4fe	0.04292250878035907
60	0xbf99b1fd83b6f268	-0.025093041576598557
61	0x3fb23fe2f1417245	0.07128733053236498
62	0xbfafb1e36f8c697a	-0.06190405594516597
63	0xbfc70595a522153b	-0.17985792697087696
64	0xbfc69ed4a45b518d	-0.17672212624769337
65	0xbfc65897636b161b	-0.17457859377297855
66	0xbfce0aa3cfd9bac6	-0.23469970368338106
67	0x3fd04ff0e8134c92	0.2548792139397814
68	0xbfd13a5a3d09663c	-0.26918655357949084
69	0xbfd0b3c5e20fd6c5	-0.2609724719653566
70	0x3fb4999a442d021d	0.08046878971527645
71	0xbfd2c1767ddebd32	-0.29305803577422573
72	0xbfd41b2aa444c560	-0.31415811578616193
73	0x3f9155e8e4fe6d2d	0.016929282166171667
74	0x3fc86ac007dc1d23	0.19075775512485746
75	0xbfd46731943bb505	-0.3187984416570802
76	0x3fc4a0233d856b13	0.1611370134731592
77	0x3fbccd1c74074263	0.11250474770282319
78	0xbf94b5badad5f0e3	-0.020224494558974803
79	0xbfd30581270b3481	-0.2972109681402984
80	0xbfc37b7578f9e1d3	-0.15220516593013986
81	0xbfc5fb0b9ebf0343	-0.1717237973334936
82	0xbfcb91561d649137	-0.21537281451413445
83	0xbfcf0997c5763f47	-0.24248025075621113
84	0x3fc8576ce9df75bd	0.19016801280569764
85	0x3fd1ae796b0cf54f	0.27627406553422856
86	0xbfd368baa773b2e1	-0.30326715805749244
87	0x3fa85eda19a0aa26	0.047598662975662884
88	0xbfd4e7c29167a794	-0.32664550971696227
89	0x3fb9de0d618c3a21	0.10104449874436529
90	0xbfb49c98753fdd6d	-0.080514458299026
91	0x3f6c0694dea4a8d4	0.0034211070643737993
92	0xbf967b3f9aab7899	-0.02195453053979488
93	0x3fcfe5ceab09f311	0.24920066215045059
94	0x3fc05cac1f561cc5	0.12782813577744015
95	0xbfce6534212db423	-0.2374634897236386
96	0xbfbbe2487bbe55e9	-0.1089215566738272
97	0xbfcaf61f23666d4a	-0.2106360361911846
98	0x3fb19dd2d1a36eed	0.06881444566846158
99	0x3fce33738c980247	0.23594517102175613
100	0xbfb715861e220550	-0.0901721786085734
101	0x3fbb59789e9e81d3	0.10683397171533864
102	0xbf6a073f68856204	-0.0031772840922423846
103	0xbfc6a4372ec70ced	-0.17688646110591524
104	0xbfa7cb4fa46e9b9a	-0.04647301561572377
105	0x3fce385428b1261c	0.23609401690400567
106	0x3fbd0a1fe6ff7325	0.1134357394179913
107	0x3fb76debfbd529ca	0.09152102373369711
108	0xbf95f672638a0c32	-0.021447932553666678
109	0xbfb49850bb0790e4	-0.08044914785529361
110	0x3fd20b3ae8612a30	0.28193543141665867
111	0xbfcdad0661749b2b	-0.23184280165261248
112	0x3fa01569dbc4346b	0.03141337211318603
113	0x3fce3a80fad122e7	0.2361603951160511
114	0xbfbc863a87ae0611	-0.1114231663941825
115	0x3fc430133190d6dc	0.15771713180736568
116	0x3fc1e3f69bc9ccb4	0.1397693882641754
117	0xbfb522458a03555d	-0.08255419368227508
118	0x3fcebf4ca18fe2d4	0.2402129925610753
119	0x3fd495c3200081c5	0.32164075970834133
120	0x3fa77db792d5b9e2	0.045881020235231565
121	0xbfcc051e4c82917d	-0.21890619979707174
122	0xbfc3078949a6c9a0	-0.1486674890162023
123	0x3fba2378a1ec524e	0.10210374787522733
124	0xbfb93a1ecc838514	-0.09854309552203616
125	0xbfd08083d73a3e72	-0.257843933280106
126	0x3fd0cda938de5c5f	0.2625525527341263
127	0xbfc729a93561fc62	-0.18095889193134257
128	0xbfc3b1376cf62d26	-0.15384571857826151
129	0x3fcf2d7e4380ad5c	0.24357584281947708
130	0xbfb59b16b3b18ff9	-0.08439771544504983
131	0x3fcfd58a0c8f351c	0.2487042008710113
132	0x3f4968cd713ff8d5	0.0007754328858025303
133	0x3fcd74bffb0ffd1e	0.23012542494687066
134	0x3fc3615f7c3c9320	0.1514090878128167
135	0x3fb4549a235d73b9	0.07941592563061207
136	0xbfa68754b7c87c7e	-0.04400124305197382
137	0x3fbcd714bbbe00f4	0.11265687545347075
138	0xbf9d64e93b1c4df1	-0.02870525763780835
139	0x3fcdb78347dbd7ce	0.23216286667564962
140	0x3fcb29738f71d37f	0.212202496568036
141	0x3fae2b10b7d6260c	0.058922312203389365
142	0x3fc419d6a3f82320	0.15703852659523765
143	0x3fab12dc5e37fe51	0.052878271580990906
144	0x3fc7b92e362cf7db	0.1853387608079505
145	0x3fc8a68647a88d27	0.19258192538209437
146	0x3fcb433f607c0f21	0.21298973284876246
147	0xbfd2a12c9c19124c	-0.2910872959512616
148	0x3fd01da7f7d5df9e	0.25181006624870317
149	0x3f998e4e4eb2afb6	0.024956916383117998
150	0xbfca82000dee2cc8	-0.2070922916430844
151	0xbfbef3092f4ca893	-0.12089593319675122
152	0xbfb5f468f8466d02	-0.08576065122035817
153	0x3fca8211d5326fac	0.2070944109917695
154	0xbfd1743cf73d97e3	-0.27271961350049717
155	0xbfd54dd74e363c21	-0.332876039866223
156	0x3fc7d96ad3ffd3fa	0.1863225493576975
157	0xbfc726217c9e1ef7	-0.18085115990492515
158	0xbfca8e58b5e6b112	-0.2074690712155492
159	0xbfb56b001a8274b4	-0.08366394660193316
160	0xbfc355aa61370584	-0.1510518049890771
161	0x3fa7b070ebd88849	0.04626801375367557
162	0xbf6716408903dcff	-0.0028182278111860133
163	0x3fc9ff31165517d2	0.20310033407639466
164	0xbfc19c1eb23474f7	-0.1375769014493142
165	0x3fc7c2c30cf002c2	0.1856311619922249
166	0x3fc1d734c4f3db20	0.13938006989311535
167	0xbfc936be4380abf8	-0.19698313041712345
168	0x3fc521222ffe9a3b	0.1650736555431694
169	0x3f60491abef0e327	0.001987983930601084
170	0x3fb66d264b5e0300	0.0876029905321154
171	0x3fcef329de613ee4	0.2417957626189412
172	0xbfce9ef43eac2f39	-0.23922589359460192
173	0x3fd7885d79cb9dee	0.367698067608642
174	0x3fcf2053975c90a7	0.24317402735426194
175	0x3fc7b652c2611126	0.18525156489534672
176	0x3fd5745035bfba3d	0.33522420166892514
177	0xbfa8f24fbd023ce8	-0.04872368986354464
178	0xbfa2706e04b1ad83	-0.036014020989422434
179	0x3fb62d4fae079f29	0.08662889479421367
180	0x3fcf9148426c4541	0.24662116282756055
181	0xbfa6025c445d3ef6	-0.0429867585613674
182	0x3fd67f0f3de1bd0c	0.3515050987543453
183	0xbfcd236a3eca69dc	-0.22764328065825523
184	0x3f7adbae0c03563d	0.006557159300617563
185	0xbfc6f64e7fc8dd33	-0.17939168204768804
186	0x3fb9549e861a6dcd	0.09894743703846771
187	0xbfc0cf37d2e1b876	-0.13132379338225392
188	0x3fd7852b39d82bf5	0.3675029816519662
189	0xbfb83d17fff7e780	-0.09468221663692411
190	0x3faf7678182eb7cb	0.06145072264858661
191	0x3fccf1edaf874cbc	0.22613307066658261
192	0xbfc459fcff5bc2c1	-0.1589962241046319
193	0x3fc898f34026a6c5	0.1921676696049898
194	0x3fd0b95ed7a02f20	0.2613141160697854
195	0xbfd0b09b112ba9bc	-0.26077915837108967
196	0xbfae4514894501a1	-0.059120790249383555
197	0x3f9ae685665bc916	0.02626999318358355
198	0xbf9443792be642c4	-0.019788640312585995
199	0x3fbb66d047ee1e54	0.10703756099803147
200	0xbfc20fa43b471823	-0.14110234159869703
201	0xbfcff38e4c45af8f	-0.24962023472050673
202	0xbfa55a106bafa551	-0.041702759881284586
203	0xbfa5e017116ccda7	-0.042725296856953414
204	0x3fcb949b9289b6b0	0.21547264723942794
205	0xbfb23027271c1366	-0.07104725556207611
206	0x3fcb3f508f33bb54	0.21286971084870265
207	0x3fc432789def6c0e	0.15779025756532444
208	0xbf9556e84a7c04f8	-0.02083933786980638
209	0x3fb70e3561b008a3	0.09006055483772228
210	0x3f9ee9745b5196ca	0.03018743331303745
211	0xbfc17e1166b890bf	-0.1366597892348462
212	0xbfca7aa98ac8cc4c	-0.20686835552769123
213	0x3f96bfdb605abc6d	0.022216251140602262
214	0xbfc1ba6da34a6748	-0.13850183938193994
215	0x3fc84d7ddb254c09	0.18986485672448364
216	0xbfd2e4d799725a83	-0.2952174185278766
217	0xbfd1dadfe8b076c8	-0.2789840481144492
218	0xbfcdd9ee9a6b9e5a	-0.23321325817163335
219	0x3fc929299bff32c1	0.19656868092569904
220	0xbfb2150b237fc5b6	-0.0706335984866858
221	0x3fd09d32f9bd0968	0.2595946730472378
222	0xbfb7611648fb555c	-0.09132518083364033
223	0xbfab404651d4288a	-0.05322475193868666
224	0x3fd3c2d806279e7c	0.30876732445765476
225	0x3fc416e5716436c0	0.15694873844807056
226	0xbfb4b06565628358	-0.08081659054961443
227	0xbfcf6dc431b6e893	-0.24553730418648864
228	0x3fd46f2ece30663d	0.3192860616269149
229	0x3fd0af1b72e99df5	0.260687696666053
230	0x3fb250447ec95937	0.07153728576063122
231	0x3fc3c231f76f9e83	0.15436386663281007
232	0xbfce36c946253bc8	-0.2360469429499672
233	0xbfaf535d17f11207	-0.06118288914925434
234	0x3fd4f09269395ea5	0.32718334461012893
235	0x3fbaea7818839028	0.10514021490558945
236	0xbfc4af0fe0184df0	-0.16159246866355614
237	0x3fd0bb732acfe14c	0.2614410322271581
238	0x3fd55a19b4a5d806	0.33362429276837735
239	0xbfc4ad28e578bef6	-0.1615344162432774
240	0xbfc5046de967d89b	-0.16419767281303596
241	0x3fd434beb7eb6901	0.31571929894347767
242	0x3fcd20f9e20f04d8	0.22756885087986833
243	0x3fcd025bd002c83b	0.22663448006420758
244	0x3fc294a00af002ab	0.1451606801420174
245	0x3fc6d587dd8236dd	0.1783914405427173
246	0x3fd46414b34027d4	0.3186084509367195
247	0x3fc15c54eef6ba02	0.1356302420440017
248	0xbfcd913bf0152255	-0.23099469397336017
249	0xbfb35968624fd2cc	-0.0755830039996212
250	0xbfc2dbfaae9b12d7	-0.1473382332389039
251	0x3fc8229c3d5847c0	0.18855622287133933
252	0x3fd0b0ae49d276dd	0.2607837410849763
253	0xbf4f7895364ac1c4	-0.0009604195189095101
254	0xbfbecaf23c55eea3	-0.12028421376265412
255	0xbfb5edf53684b55e	-0.08566219883933487
