models/model_0.05_0_out_of_500.pt (torch, 53307 bytes, 16 tensors)

conv1.att_src f8 [1, 1, 64]
0	0xbfa2acf710243978	-0.0364758689121229
1	0xbfc1183daa4f0a16	-0.13355227294785327
2	0xbfbe7865de50f167	-0.11902462651864242
3	0x3f7fc50804232424	0.007756263077859624
4	0x3fc5cbf8621cf306	0.17028717795064824
5	0xbfb99ec2a703a925	-0.10007874085900832
6	0x3fa9cd9e08c00425	0.050396860664484934
7	0xbfb8d96410f29904	-0.09706712163697168
8	0x3fd20d40f3a54c38	0.28205894273304777
9	0x3fd5dfb6e8cff8ce	0.34177944884858114
10	0x3fcb97a84ad8ec8e	0.21556571631103733
11	0x3f841cea1e6b56d4	0.009820775082896395
12	0xbfae00d12a9badae	-0.0585999836456169
13	0x3f9731d6b2c5fe70	0.02265105692049335
14	0xbfc689961369126c	-0.17607379863524686
15	0x3fae2528b28ca1f0	0.05887725047643133
16	0xbf751bf7092a9f20	-0.005153622611636682
17	0x3fa268732e1a8e37	0.035953139665505444
18	0xbfb292fa285cf820	-0.07255519376209962
19	0xbfa81eefa561508e	-0.04711102384376985
20	0xbfb6d4f2fed9ad42	-0.08918684694224502
21	0x3fc733b26bde99f9	0.18126516596858247
22	0x3fb543e5bb1ef4cc	0.08306728189832596
23	0x3fd2314e38c5e4d3	0.2842593721794177
24	0x3fcd965a312b8602	0.23115088845138138
25	0xbfb18080bbb9c45c	-0.06836704810281574
26	0x3fd9f8b83a5e328c	0.40580564212795234
27	0x3fcad7d0ff6b621c	0.2097111937680588
28	0xbfd73e3e06ad1781	-0.3631739678570441
29	0xbf891cb52f3dd1d8	-0.012261786941714911
30	0x3fd3e2722075c4a5	0.310696155261278
31	0x3fa091a03a9af52f	0.03236103740116857
32	0x3fb74cfc138e171c	0.09101844289224598
33	0x3fb50f2c41aee864	0.08226276973337715
34	0x3fa56bca928423da	0.04183800734069339
35	0x3fd5bb4c8d6bacde	0.33955682573896506
36	0x3fce154cdcf469c0	0.23502503193669888
37	0x3fc828e380bfdca7	0.1887478235873676
38	0x3fd0feca1d816a4b	0.26555111771964296
39	0xbfde4d14ae1b73d6	-0.47345463755283157
40	0x3fb2f301cab714b3	0.07402049254513336
41	0xbfd6f458f2c8ffd1	-0.3586637850712551
42	0xbfb33e067f97b9fe	-0.07516518225722987
43	0x3fb71c2658f33cb7	0.09027328178057102
44	0xbfc750347c2c56e3	-0.18213516295570917
45	0xbfdd43d7ec822812	-0.4572658357288911
46	0xbfd821e5f1c53f47	-0.3770689831771858
47	0x3fa4324034973ef5	0.03944588319757073
48	0x3fa9a1e876980ad4	0.050063385464474
49	0x3fd90c25686dd433	0.39136634061952974
50	0x3f83dbd84febaff8	0.009696664751992032
51	0x3fb2cb5ea77b7d0e	0.07341567601132601
52	0x3fd9a73e0dd7981c	0.4008326659371748
53	0x3fcd38dbea67bba4	0.22829770036284203
54	0xbfaa89f61fde9b24	-0.0518338121321931
55	0x3fd01f78a9d1664c	0.2519208582285486
56	0x3fd34eba45608ec4	0.3016801526557453
57	0xbfdf1b43267d839c	-0.4860389591104253
58	0x3faf035a9d49debe	0.060572463703406396
59	0xbfabfdf973bc9308	-0.05467204606819648
60	0x3fdb05d9d0717674	0.4222321067407855
61	0x3fd331cc14286250	0.29991437881975447
62	0xbfdb662830b33be4	-0.42811016803619695
63	0xbfa128c5d4c6d73a	-0.0335141966092309

conv1.att_dst f8 [1, 1, 64]
0	0x3fb6d5a8fb35ba4a	0.08919769413999137
1	0xbfc8ab6ac9138fb7	-0.19273123567756809
2	0xbfc4f7ebd888ee2c	-0.16381595681183236
3	0x3faa306f8b2ec42c	0.05115078519828162
4	0xbf9ccbe59ceaabbf	-0.02812155504458835
5	0x3fd1ce1e9cb55ff3	0.27820554069103237
6	0x3fd44af74c10a579	0.3170755617926129
7	0xbf9cea32808d2915	-0.028237141700892716
8	0xbfd6f4f8eac5a7a3	-0.35870192458116373
9	0xbfc99f948f6b2ae5	-0.20018250468122925
10	0x3f7401d2997584e0	0.004884550718402297
11	0x3fca6a4979dcd6e7	0.2063686223061076
12	0xbfc8261e84fcfd50	-0.18866330617491167
13	0x3fd2116402aaab3e	0.2823114419976952
14	0xbfb6e70af72b195e	-0.08946293386825263
15	0x3fb580c45c341b8a	0.08399607897818676
16	0xbf456a989a781300	-0.0006535763868106004
17	0xbfc6dc753aa77a1e	-0.17860284198737103
18	0xbf953595f4a566bd	-0.020712225968373178
19	0xbf995b1b89f89154	-0.024761610313491403
20	0x3fd6e5bb98e47beb	0.3577717774477935
21	0x3fd1b07af5a81e42	0.2763965033522916
22	0x3fd7ef30ccedfcd6	0.3739740372911461
23	0xbf931738a5fb68f8	-0.018643269663564305
24	0xbfd734542dc8afd9	-0.3625688979252551
25	0x3f9e344e8b3efafc	0.029496409653570574
26	0xbfc5936da1d98565	-0.16856165316407182
27	0x3fc942ce93eb2f4c	0.19735128614990527
28	0x3fa305482ef1af46	0.03714967320487843
29	0xbfc75a2495d049a0	-0.18243844332807857
30	0x3fd55010416debe9	0.33301168813312515
31	0xbfd673b4a1fc8b29	-0.35081210917467104
32	0xbfc98aa6dc17e271	-0.19954381701224436
33	0xbfc9fda3b2c93aeb	-0.20305296163356643
34	0xbfd037db78adf401	-0.25340925965412003
35	0x3fa9af171f7e34b2	0.050163958162650416
36	0xbfc0dcd33f5ed700	-0.13173904985676899
37	0x3fc1c85cfd69d74c	0.13892710088446802
38	0xbfcc74f6c12481fd	-0.22231945448676518
39	0x3fcefbad6c398dad	0.24205558571257538
40	0x3fbc5d15484bd85d	0.1107953359131399
41	0xbfcc0fed81bd20fa	-0.2192360766878279
42	0x3fafe196be2015f3	0.062267981251391456
43	0xbfcdf891c127f8a2	-0.23414823466732054
44	0x3f999ece2f39aa7a	0.02501985705604646
45	0x3fd0f83152414605	0.26514847786629075
46	0x3fb570071c1ee95a	0.08374065815488532
47	0x3f90713123abf964	0.016056793024284657
48	0x3fd13d70136be7d0	0.2693748654997963
49	0x3fca72b3288a38ae	0.20662536124695435
50	0xbfa1afa5ccab3094	-0.03454321025273646
51	0x3fb88ee5f5665804	0.09593045464711741
52	0x3fbcdc11c6a35c36	0.11273299312175386
53	0xbfc7280f5f45eafa	-0.18091003562934543
54	0xbfb0889b69a8078c	-0.06458445863247969
55	0xbfb0a28d692b642d	-0.06498035256972008
56	0x3fc7cc05b848c3cf	0.18591376779798316
57	0xbfc4b37e777e62e9	-0.16172772249844705
58	0x3fd7d57f603df630	0.3724058570731783
59	0xbfd373096f2a4bca	-0.30389629226663983
60	0xbf99bfb0705e3247	-0.025145298822780295
61	0xbfc16305d2551575	-0.13583443422445965
62	0x3f9094fae2e33f08	0.016193313692212136
63	0xbfa81c180bbe228d	-0.047089339669644216

conv1.att_edge f8 [1, 1, 64]
0	0xbfdb4eb8e49beb92	-0.42667982411483607
1	0xbfc6c49fd5b63d6a	-0.17787549910688522
2	0xbfd3a88286a27a77	-0.3071600260536011
3	0xbfd98e178732bf70	-0.39929760172798634
4	0x3fd68abaec870fef	0.35221741770169407
5	0x3f89de439fb46a0b	0.012630966483404135
6	0x3fbb0170528543d3	0.10549070372259388
7	0xbf8b9daaff8832ae	-0.013484321521013722
8	0x3fd763586abb8f03	0.3654385607062382
9	0x3fa7afc34fed5e36	0.04626283980058725
10	0xbfbf5a64fcabc4aa	-0.12247306030964702
11	0x3fd2eb2d79e6421e	0.2956041040825158
12	0x3fc41c58abf32759	0.1571150626753546
13	0x3fb6868c791ac331	0.08799055058149176
14	0x3fa169c0a9dd2eef	0.03400995324645161
15	0x3fcd3937d6c07230	0.2283086584656231
16	0x3fc164ce6e067418	0.1358888661606279
17	0x3fc029f0da995a58	0.12627993272572513
18	0xbfd36d3acafcc5e6	-0.30354184935558093
19	0x3fc110336d7bd523	0.13330691190609753
20	0x3fc14b3acbdbf952	0.13510832742754048
21	0xbfd8d4ccc024136d	-0.38798826946031434
22	0xbfb04efafeb3532a	-0.06370514601014735
23	0x3fdb465e1a6776fe	0.4261698968747253
24	0xbfb3adc16d3fde9c	-0.07687004964088334
25	0x3fda9c56ff1dd9a5	0.41579222596865356
26	0xbfc90c5775df787c	-0.19568913703455226
27	0x3fba2be3d54908de	0.10223220784340323
28	0xbfd90b363b8c1193	-0.39130931677962016
29	0x3fb81ddd5a00a17a	0.09420569846463947
30	0x3fc0e2c3757f6b03	0.13192027318185504
31	0xbfc5340ebdc9e476	-0.1656511713697772
32	0xbfc7c896f41ffab3	-0.18580901069795672
33	0x3f885acd79b16a5e	0.011891942287708786
34	0x3f759a40d33b2cd0	0.005274060462123489
35	0x3fd2391645d590a6	0.28473431415319295
36	0x3faf1dd6e38c8d8f	0.06077453162859136
37	0xbfd8e7d6850ae700	-0.38915026657524265
38	0x3fc377f1c2e84584	0.15209791199644596
39	0x3fb3051776bd1a64	0.07429644249814654
40	0xbfbbc87ec6683b84	-0.10852806419300803
41	0x3f80a99793bdc4d8	0.008135971256452754
42	0xbfd89c26af4d9cad	-0.3845307075448073
43	0x3fc88216fc97d6b9	0.19147002538345761
44	0x3fc6e95545a9bb75	0.1789957609321068
45	0xbfb6d51f871e8980	-0.08918950127421077
46	0x3fa4d348fb7d60f4	0.040674477290567085
47	0x3fc3fafb381aface	0.15609684218903513
48	0x3fa488292f395038	0.04010132504905112
49	0x3fdaa94e0aef0947	0.41658354823825444
50	0x3fb8bc7d51d61af2	0.09662612197835665
51	0x3fa9fd1b7c156890	0.05075918092434606
52	0xbfaf8a57570243c9	-0.061602334376523134
53	0x3fdc152de14ac7be	0.4387926769369378
54	0xbfd12f3d65e88889	-0.2685082907866066
55	0x3fd48ca7cc818761	0.3210849282387383
56	0xbfd607190129d212	-0.3441832076416925
57	0xbf7f252df2f0d288	-0.007603816498023115
58	0xbfb55e172e9fe56f	-0.08346695793433921
59	0xbfbb7c4f8c0f603a	-0.10736558122096165
60	0xbfdbac0917eb958c	-0.43237521491968134
61	0xbfc31361d934bd2f	-0.14902899842989245
62	0xbfad4503ffd6b954	-0.05716717241317562
63	0x3fafc845e8f8de9a	0.06207483738802218

conv1.bias f8 [64]
0	0x3fccd43fcebec867	0.22522733302099882
1	0x3fcb61a25dc17f6a	0.21391706064150223
2	0x3fcce733469a5dd4	0.22580567309772326
3	0x3fc94b13e79a88b5	0.19760369118472956
4	0x3fcc7422fd685e1a	0.22229421018049395
5	0x3f948c3aff1d87d6	0.02006618673420476
6	0x3fb9a2e6a6860054	0.10014192166818364
7	0x3fca303a40778151	0.20459678790849492
8	0x3fb7d1b8b80543ae	0.09304384701432752
9	0x3fa059223e58e0c2	0.0319300366504094
10	0x3fc9f93b1d52906c	0.20291842395556914
11	0xbf9961eaf3b67484	-0.024787589192432083
12	0x3fb1b8098df53793	0.06921443668144737
13	0x3fcc2d8e47c44480	0.22014025215370125
14	0x3fccb59be16c59a6	0.22429226405138286
15	0x3fcb1dd81fdc0a68	0.21184827380791948
16	0x3fb7db1b59ffe6c2	0.09318705508476469
17	0x3fcd59e7e772305a	0.22930620957447695
18	0x3fca7f52c82996d0	0.20701060079152578
19	0x3fcc3447c331d8cc	0.22034546881668005
20	0x3fcde9b374820278	0.23369448841915008
21	0x3fa6badd53b37e52	0.04439441344015606
22	0x3fb9593e0067f523	0.09901797780908743
23	0x3fc9bdfa8029831c	0.20111018426816762
24	0x3fb3c521f4a2de78	0.07722675535739565
25	0x3f9bcca8e432d92f	0.027147902420176336
26	0x3f9902919b4028e6	0.02442386159968004
27	0x3fad0b71b0b201da	0.05672793657231852
28	0x3fcd590ed6ef0572	0.22928033346947135
29	0x3fcb2687e9836ac1	0.21211336996096544
30	0x3fca876a34ff84d2	0.20725753391074037
31	0x3fca52414c0e5e00	0.2056352254264624
32	0x3fcc5f7c94aa9072	0.22166402110190436
33	0x3f7db4195ad4dc00	0.007251833955982612
34	0x3fc9f4ebbc28f8bc	0.2027868908643934
35	0x3fcbfcea3d8c72ae	0.21865585332206677
36	0x3fcc3662061cc918	0.22040963457545426
37	0x3fc9c87c86750663	0.20143086018838394
38	0x3fca9819d0f34586	0.20776674940729495
39	0x3fcbd13f42c9c3e6	0.21732321511402047
40	0x3fc9c4a6259282de	0.20131375155053538
41	0x3fccc0bf25fe5fba	0.22463216166647532
42	0x3faa88073233593c	0.05181906211662343
43	0x3fcadf27bfbc78c1	0.20993515836830137
44	0x3fca65a617de1725	0.20622707524688014
45	0x3fccf7ae3e3f5608	0.22630861319946427
46	0x3fcba33dd3972fd6	0.21591923553057651
47	0x3fcb407051a7000b	0.2129040144627655
48	0x3f7fdad05f2ac308	0.0077770366212213185
49	0x3fb6b1ffd0488774	0.08865355334321895
50	0x3fb639c5e99b8484	0.08681904748256569
51	0x3fcbe2d0991bbe4a	0.21785933948511832
52	0x3fca87ea602f6cb2	0.2072728128103783
53	0x3fb54916d30c6d2e	0.08314650204231519
54	0x3fbb7936dd64d1c4	0.10731833367464733
55	0x3fb972a923f0e2b4	0.09940583350624871
56	0x3f9e7df6ab24afd9	0.029777387805708464
57	0x3fcb9a1981d49478	0.21564024772047552
58	0x3f99a0b4fe78dec3	0.025027111083743458
59	0x3fb6901753816ee0	0.08813615597449198
60	0x3fa3d868952574fe	0.038760441023194744
61	0x3fcc62b41f4d2734	0.2217621949042098
62	0x3fcb3ec768a90345	0.21285336122857693
63	0x3fcc1f416fba392c	0.21970384555283695

conv1.lin_src.weight f8 [64, 3]
0	0xbfd3e9ceb7b8890f	-0.3111454767369119
1	0xbfd49b5f0b456cb9	-0.32198310948087855
2	0xbfda963c961018e6	-0.4154197183091938
3	0xbfdd8f4bf84db96c	-0.4618711399879405
4	0xbfb72ec434f217f0	-0.09055734913462721
5	0x3fce5e8b70f33327	0.23726027503143962
6	0xbfc90642a1d74704	-0.19550354864491493
7	0xbfd6f61a4ceaad25	-0.3587709189548199
8	0xbfde34d6bbd2f99b	-0.47197502462577184
9	0x3fd4c323bf365b1d	0.32441037819937596
10	0xbfd211d9b59c03d1	-0.28233950362488
11	0x3f9409b7dbb0233a	0.019568321975415894
12	0xbf982e6597236014	-0.02361448988889954
13	0x3fd05f6e7c76bf11	0.25582468180344714
14	0x3fd75a7dfc07981c	0.36489820110580395
15	0xbf3f738752dc1440	-0.0004799085025840068
16	0x3fd01994db1e989e	0.25156136892690906
17	0xbfc121d7c35d8e16	-0.13384530104950504
18	0x3fca223fcc26d131	0.2041702029070023
19	0x3fdd8c8524418018	0.46170166531192214
20	0x3faf57c91b176b16	0.06121662574488178
21	0x3fc788a808db2fc8	0.18385792190963302
22	0x3faf35e967d0039c	0.06095818893664459
23	0xbfc488a7af24bf9e	-0.1604203801339254
24	0x3fd2dca28189badc	0.2947164788264851
25	0x3fa7710d194e02d8	0.04578438695808068
26	0x3fd3c21aeaf7f798	0.3087222380271384
27	0x3fb40cbc8565aa31	0.07831934220090699
28	0x3fc970d8ede56d7b	0.19875632873559454
29	0x3fd5484b923fcf82	0.33253754884867004
30	0x3fda2e516b699443	0.4090770291280174
31	0x3fd44a79f0684b36	0.3170456741074078
32	0x3fc23ed5d6c23b38	0.14254258142724452
33	0x3fd12511602403c6	0.26788744343508275
34	0x3fc4ecf6fbcdedb0	0.1634815911782943
35	0xbfc2cb4adf8203d9	-0.1468289939257648
36	0xbfd4ffc35026d9cf	-0.3281105311138192
37	0x3fc4ac78802454fd	0.16151338822297837
38	0x3fd40fc0518cebc6	0.3134613796607336
39	0xbfc31dcd9ffeeb00	-0.14934702217382068
40	0x3fd01cad909550bd	0.2517503654428415
41	0xbfda93ce3a8d8fa7	-0.4152713367277507
42	0xbfdc032b9aeecba1	-0.43769350176006055
43	0xbfd19ef6f5fad720	-0.2753274347445416
44	0xbfd9b7533b6d3ba5	-0.4018142776812346
45	0xbfd1055a382754c2	-0.265951685750519
46	0x3fcdd601b7c9fb22	0.2330934665114564
47	0x3fdabe3ab9e409c8	0.41786068108936236
48	0xbfc95f620bf988ae	-0.19822335800842467
49	0xbfd24604dfad7350	-0.28552362292775957
50	0x3fda9e0c7904c69e	0.4158965284178552
51	0xbfb93fecacff99c0	-0.09863166068644258
52	0x3fc7aea56ef0d13d	0.18501727978731167
53	0xbfd7fd144d41cc4c	-0.37482173485404213
54	0x3fd53b1a4fdc9733	0.33173234747879404
55	0xbfdb3828947bd4c1	-0.4253026437793999
56	0xbfdc7efd51e000d1	-0.4452508258400601
57	0xbfd7280c9f7fd62f	-0.3618194158183056
58	0x3fcf4118cf2daab0	0.24417410007602802
59	0xbfddba36e4b48bfc	-0.464490626664144
60	0xbfdc3bef4190a72e	-0.44115811732136734
61	0xbfd5782e4651a046	-0.3354602514941728
62	0xbfd57ad4ddf81b18	-0.3356220405261623
63	0x3fcb46dda1ac0cfa	0.21310015100616636
64	0x3fda10d646435c73	0.4072776495135663
65	0x3fa191841eea554c	0.03431332471260848
66	0xbfce3bc3c48567d5	-0.23619887443311308
67	0x3fd43657e3a457fd	0.3158168528619852
68	0xbfd63699e25d0e72	-0.3470825872975417
69	0x3fde75672e22fb77	0.4759157133630007
70	0x3fbd4d44f6b19103	0.11446028731149131
71	0x3fcd18cbeda72d10	0.22731923202659532
72	0xbfc07f90c6a7a3d1	-0.12889299106544042
73	0x3fd151a56cf1c257	0.27060828818415444
74	0x3fde2c0c42582397	0.47143846968588704
75	0x3fb7b0c4a06f6338	0.09254101673958537
76	0xbfc90f5b4e8b5e2b	-0.19578114829231316
77	0x3fb17e9eb0f89ed6	0.06833831616006178
78	0x3fd76bfff1addb35	0.36596678353764683
79	0xbfaf99e3308402aa	-0.06172094313843009
80	0xbf967e24de8aac04	-0.0219655762509028
81	0x3fd02ea2e4271883	0.25284645348109097
82	0x3fc5316d0ba009a0	0.1655708605540669
83	0x3f902a3d73f739cc	0.01578613300608271
84	0xbfe05c7399122816	-0.5112855901400077
85	0xbfd0a93f21bbac92	-0.26032999319313277
86	0xbfe061d7d978828e	-0.5119437453723366
87	0xbfd302610a307787	-0.29702020640422017
88	0x3fcd8087c5a2c1da	0.23048493528541664
89	0x3fd147995e7669d1	0.2699950621114598
90	0x3fc491046dad5235	0.1606755767376328
91	0x3fca0303b51f423a	0.2032169947037959
92	0xbfcd5217f5ddea0e	-0.22906779771058478
93	0x3fd79c6429a4f18d	0.3689203650171969
94	0xbfcf296a256ffc52	-0.24345137432098568
95	0x3fc59d61279d47ff	0.16886534151359453
96	0x3fdcb6eb97b2ebb0	0.4486645680842072
97	0xbfcae4de2f765f3c	-0.2101094943761782
98	0xbfdc1fb7351734e6	-0.4394357698882473
99	0xbfacbb391983bae7	-0.0561158984800068
100	0x3fd1a3451c5823c2	0.2755902077483904
101	0xbf97254ebafc1aea	-0.022603254473348246
102	0x3fde97e0f08e624a	0.4780199383908764
103	0x3fd74077fa677eba	0.36330985501806945
104	0xbfd027dfd2d96508	-0.25243373480550746
105	0xbfd07582f8e6558e	-0.25717233950248264
106	0x3fd410462e41a9c4	0.3134932948802567
107	0x3fcb72b246fc02a0	0.21443775621448413
108	0x3fd20a8162172a11	0.2818911989130877
109	0x3fe0066986022156	0.5007827393865607
110	0x3fd775db3e5dbdac	0.3665683850331003
111	0x3fda0d35c70eaa37	0.40705627860248533
112	0x3fb978de66317ed4	0.09950056071238161
113	0x3fd41d7bbdbc3888	0.31429952172118947
114	0x3fdc7706e0341e2a	0.4447648229110849
115	0xbfcfe5c39459bbd6	-0.24919934028318264
116	0x3fd4dfed700ed74a	0.32616744940911657
117	0xbfd720296c359148	-0.36133800093945867
118	0xbfddddd687986b42	-0.4666649173902223
119	0xbfd1b68d8d352bec	-0.2767671469670734
120	0x3fda1c799c03dcbd	0.40798797832344375
121	0x3fd52b16a5550f55	0.3307549109051611
122	0x3fb2831c86a16f3c	0.07231310164337129
123	0xbfd27d2f6dc3f658	-0.28889070243153503
124	0xbfd364d0081411fe	-0.303028114213049
125	0xbfe0ddd6e7df998a	-0.5270800141122873
126	0xbfc56873403f4c60	-0.16725006711075974
127	0xbfc6a20674c2b874	-0.1768196172828912
128	0x3fc77ba8ac42e3f7	0.18346126948543404
129	0x3fc8bfab99053f09	0.19334931346610798
130	0xbfd914506e549005	-0.3918648793644482
131	0x3fc92f843cbbe7d4	0.1967625900795712
132	0x3fc9d222dc565123	0.20172534712458753
133	0xbfd5e855b4bbead6	-0.3423055901509263
134	0x3fd3ab0250f77e85	0.3073125639620929
135	0xbfde18ac250c6401	-0.4702558862496176
136	0xbfca4302475fb9b0	-0.20516994938902888
137	0xbfd461219ce337b7	-0.31842842408229494
138	0x3fb6b1cbbe18ad52	0.08865044966721783
139	0xbfcc7b7bffbdd2e0	-0.22251844394090536
140	0xbfd290e8d3eef6dc	-0.29009457298876185
141	0x3fc6585c19414d41	0.1745715258899541
142	0x3fd0f4cf705fc0b9	0.2649420354273491
143	0x3fdfb1afac336933	0.4952201062821075
144	0xbfd4b212e3ebdd9f	-0.3233687616152227
145	0xbfccf3e2ce3d57d3	-0.22619280882162104
146	0xbfc763ca9789ba88	-0.18273289107624557
147	0x3fb5ce19e79dfb70	0.08517610459055702
148	0x3fd6fb711337c7ac	0.35909678341624374
149	0x3fcc497160dab1c1	0.22099129895413053
150	0xbfd50e6546c800a4	-0.32900363838417435
151	0xbfc8e5f6ff2c5dda	-0.19451796970018514
152	0x3fdd366d8f457dbc	0.45644701949455757
153	0xbfdd139ef1535b06	-0.4543225628562343
154	0x3fd24b8a170d9f10	0.28586055995263937
155	0xbfbc50164538fe5e	-0.11059703054433487
156	0x3fd33d6768301423	0.30062279867735436
157	0x3fdc885e378d76f0	0.44582324433382237
158	0x3fd74c802a1c2d06	0.36404422867117636
159	0x3fd4a8a1415a7ba0	0.3227923525063776
160	0x3f9b004808a8adea	0.02636826088762049
161	0xbfb491970b67965d	-0.08034652737077282
162	0x3fb00d2ac9d8d11f	0.06270091464904624
163	0xbfddd1035e9c8f25	-0.4658821510258682
164	0xbfcc66bb16c9ea60	-0.22188509571772652
165	0xbfd763911c47ffa3	-0.3654520775016811
166	0x3fc4a950b6ea0346	0.16141709262231013
167	0x3fd5b34d56e1aa63	0.3390687321140488
168	0x3fd5634f3bbd0647	0.3341863711721981
169	0x3fc6af793175185e	0.17723002352630862
170	0xbfbe78d2ec5455c5	-0.119031126687637
171	0x3fc8df687c721c62	0.19431787563755437
172	0xbfddd5f1a5b02be6	-0.4661831014679464
173	0xbfdc9d22d398dfea	-0.4470908228281575
174	0x3fba719233fb061a	0.10329545754486738
175	0x3fd0f2ea3fdd2df6	0.2648263572379784
176	0x3fb3ba7b4587ffde	0.07706423232593759
177	0x3fd529dd3b56e04c	0.330680187176317
178	0xbfd8fdfe187ab222	-0.3905024756484484
179	0x3f9c36c128b1856c	0.027552621945124242
180	0x3fbd4b86fbc7a74a	0.11443370482416274
181	0x3fd3a8ad4b45ccce	0.30717022276730865
182	0x3fc3c417d4240d1d	0.15442178591192937
183	0xbfd0c9498066d0b3	-0.2622855905458536
184	0x3fddd58d593858c2	0.4661591883936006
185	0x3fd76516ad460b1e	0.36554495736361214
186	0x3fc4d04490a97f22	0.16260582984522737
187	0xbfd54e8f68781978	-0.3329199333387787
188	0xbfdc9a584cc0d876	-0.44692046637954463
189	0xbfd6f5d27285a56f	-0.35875378783983697
190	0xbfd52f303f7b5e8e	-0.33100515555768417
191	0xbfd7e5875846804f	-0.37338431950229717

conv1.lin_dst.weight f8 [64, 3]
0	0xbfd3e9ceb7b8890f	-0.3111454767369119
1	0xbfd49b5f0b456cb9	-0.32198310948087855
2	0xbfda963c961018e6	-0.4154197183091938
3	0xbfdd8f4bf84db96c	-0.4618711399879405
4	0xbfb72ec434f217f0	-0.09055734913462721
5	0x3fce5e8b70f33327	0.23726027503143962
6	0xbfc90642a1d74704	-0.19550354864491493
7	0xbfd6f61a4ceaad25	-0.3587709189548199
8	0xbfde34d6bbd2f99b	-0.47197502462577184
9	0x3fd4c323bf365b1d	0.32441037819937596
10	0xbfd211d9b59c03d1	-0.28233950362488
11	0x3f9409b7dbb0233a	0.019568321975415894
12	0xbf982e6597236014	-0.02361448988889954
13	0x3fd05f6e7c76bf11	0.25582468180344714
14	0x3fd75a7dfc07981c	0.36489820110580395
15	0xbf3f738752dc1440	-0.0004799085025840068
16	0x3fd01994db1e989e	0.25156136892690906
17	0xbfc121d7c35d8e16	-0.13384530104950504
18	0x3fca223fcc26d131	0.2041702029070023
19	0x3fdd8c8524418018	0.46170166531192214
20	0x3faf57c91b176b16	0.06121662574488178
21	0x3fc788a808db2fc8	0.18385792190963302
22	0x3faf35e967d0039c	0.06095818893664459
23	0xbfc488a7af24bf9e	-0.1604203801339254
24	0x3fd2dca28189badc	0.2947164788264851
25	0x3fa7710d194e02d8	0.04578438695808068
26	0x3fd3c21aeaf7f798	0.3087222380271384
27	0x3fb40cbc8565aa31	0.07831934220090699
28	0x3fc970d8ede56d7b	0.19875632873559454
29	0x3fd5484b923fcf82	0.33253754884867004
30	0x3fda2e516b699443	0.4090770291280174
31	0x3fd44a79f0684b36	0.3170456741074078
32	0x3fc23ed5d6c23b38	0.14254258142724452
33	0x3fd12511602403c6	0.26788744343508275
34	0x3fc4ecf6fbcdedb0	0.1634815911782943
35	0xbfc2cb4adf8203d9	-0.1468289939257648
36	0xbfd4ffc35026d9cf	-0.3281105311138192
37	0x3fc4ac78802454fd	0.16151338822297837
38	0x3fd40fc0518cebc6	0.3134613796607336
39	0xbfc31dcd9ffeeb00	-0.14934702217382068
40	0x3fd01cad909550bd	0.2517503654428415
41	0xbfda93ce3a8d8fa7	-0.4152713367277507
42	0xbfdc032b9aeecba1	-0.43769350176006055
43	0xbfd19ef6f5fad720	-0.2753274347445416
44	0xbfd9b7533b6d3ba5	-0.4018142776812346
45	0xbfd1055a382754c2	-0.265951685750519
46	0x3fcdd601b7c9fb22	0.2330934665114564
47	0x3fdabe3ab9e409c8	0.41786068108936236
48	0xbfc95f620bf988ae	-0.19822335800842467
49	0xbfd24604dfad7350	-0.28552362292775957
50	0x3fda9e0c7904c69e	0.4158965284178552
51	0xbfb93fecacff99c0	-0.09863166068644258
52	0x3fc7aea56ef0d13d	0.18501727978731167
53	0xbfd7fd144d41cc4c	-0.37482173485404213
54	0x3fd53b1a4fdc9733	0.33173234747879404
55	0xbfdb3828947bd4c1	-0.4253026437793999
56	0xbfdc7efd51e000d1	-0.4452508258400601
57	0xbfd7280c9f7fd62f	-0.3618194158183056
58	0x3fcf4118cf2daab0	0.24417410007602802
59	0xbfddba36e4b48bfc	-0.464490626664144
60	0xbfdc3bef4190a72e	-0.44115811732136734
61	0xbfd5782e4651a046	-0.3354602514941728
62	0xbfd57ad4ddf81b18	-0.3356220405261623
63	0x3fcb46dda1ac0cfa	0.21310015100616636
64	0x3fda10d646435c73	0.4072776495135663
65	0x3fa191841eea554c	0.03431332471260848
66	0xbfce3bc3c48567d5	-0.23619887443311308
67	0x3fd43657e3a457fd	0.3158168528619852
68	0xbfd63699e25d0e72	-0.3470825872975417
69	0x3fde75672e22fb77	0.4759157133630007
70	0x3fbd4d44f6b19103	0.11446028731149131
71	0x3fcd18cbeda72d10	0.22731923202659532
72	0xbfc07f90c6a7a3d1	-0.12889299106544042
73	0x3fd151a56cf1c257	0.27060828818415444
74	0x3fde2c0c42582397	0.47143846968588704
75	0x3fb7b0c4a06f6338	0.09254101673958537
76	0xbfc90f5b4e8b5e2b	-0.19578114829231316
77	0x3fb17e9eb0f89ed6	0.06833831616006178
78	0x3fd76bfff1addb35	0.36596678353764683
79	0xbfaf99e3308402aa	-0.06172094313843009
80	0xbf967e24de8aac04	-0.0219655762509028
81	0x3fd02ea2e4271883	0.25284645348109097
82	0x3fc5316d0ba009a0	0.1655708605540669
83	0x3f902a3d73f739cc	0.01578613300608271
84	0xbfe05c7399122816	-0.5112855901400077
85	0xbfd0a93f21bbac92	-0.26032999319313277
86	0xbfe061d7d978828e	-0.5119437453723366
87	0xbfd302610a307787	-0.29702020640422017
88	0x3fcd8087c5a2c1da	0.23048493528541664
89	0x3fd147995e7669d1	0.2699950621114598
90	0x3fc491046dad5235	0.1606755767376328
91	0x3fca0303b51f423a	0.2032169947037959
92	0xbfcd5217f5ddea0e	-0.22906779771058478
93	0x3fd79c6429a4f18d	0.3689203650171969
94	0xbfcf296a256ffc52	-0.24345137432098568
95	0x3fc59d61279d47ff	0.16886534151359453
96	0x3fdcb6eb97b2ebb0	0.4486645680842072
97	0xbfcae4de2f765f3c	-0.2101094943761782
98	0xbfdc1fb7351734e6	-0.4394357698882473
99	0xbfacbb391983bae7	-0.0561158984800068
100	0x3fd1a3451c5823c2	0.2755902077483904
101	0xbf97254ebafc1aea	-0.022603254473348246
102	0x3fde97e0f08e624a	0.4780199383908764
103	0x3fd74077fa677eba	0.36330985501806945
104	0xbfd027dfd2d96508	-0.25243373480550746
105	0xbfd07582f8e6558e	-0.25717233950248264
106	0x3fd410462e41a9c4	0.3134932948802567
107	0x3fcb72b246fc02a0	0.21443775621448413
108	0x3fd20a8162172a11	0.2818911989130877
109	0x3fe0066986022156	0.5007827393865607
110	0x3fd775db3e5dbdac	0.3665683850331003
111	0x3fda0d35c70eaa37	0.40705627860248533
112	0x3fb978de66317ed4	0.09950056071238161
113	0x3fd41d7bbdbc3888	0.31429952172118947
114	0x3fdc7706e0341e2a	0.4447648229110849
115	0xbfcfe5c39459bbd6	-0.24919934028318264
116	0x3fd4dfed700ed74a	0.32616744940911657
117	0xbfd720296c359148	-0.36133800093945867
118	0xbfddddd687986b42	-0.4666649173902223
119	0xbfd1b68d8d352bec	-0.2767671469670734
120	0x3fda1c799c03dcbd	0.40798797832344375
121	0x3fd52b16a5550f55	0.3307549109051611
122	0x3fb2831c86a16f3c	0.07231310164337129
123	0xbfd27d2f6dc3f658	-0.28889070243153503
124	0xbfd364d0081411fe	-0.303028114213049
125	0xbfe0ddd6e7df998a	-0.5270800141122873
126	0xbfc56873403f4c60	-0.16725006711075974
127	0xbfc6a20674c2b874	-0.1768196172828912
128	0x3fc77ba8ac42e3f7	0.18346126948543404
129	0x3fc8bfab99053f09	0.19334931346610798
130	0xbfd914506e549005	-0.3918648793644482
131	0x3fc92f843cbbe7d4	0.1967625900795712
132	0x3fc9d222dc565123	0.20172534712458753
133	0xbfd5e855b4bbead6	-0.3423055901509263
134	0x3fd3ab0250f77e85	0.3073125639620929
135	0xbfde18ac250c6401	-0.4702558862496176
136	0xbfca4302475fb9b0	-0.20516994938902888
137	0xbfd461219ce337b7	-0.31842842408229494
138	0x3fb6b1cbbe18ad52	0.08865044966721783
139	0xbfcc7b7bffbdd2e0	-0.22251844394090536
140	0xbfd290e8d3eef6dc	-0.29009457298876185
141	0x3fc6585c19414d41	0.1745715258899541
142	0x3fd0f4cf705fc0b9	0.2649420354273491
143	0x3fdfb1afac336933	0.4952201062821075
144	0xbfd4b212e3ebdd9f	-0.3233687616152227
145	0xbfccf3e2ce3d57d3	-0.22619280882162104
146	0xbfc763ca9789ba88	-0.18273289107624557
147	0x3fb5ce19e79dfb70	0.08517610459055702
148	0x3fd6fb711337c7ac	0.35909678341624374
149	0x3fcc497160dab1c1	0.22099129895413053
150	0xbfd50e6546c800a4	-0.32900363838417435
151	0xbfc8e5f6ff2c5dda	-0.19451796970018514
152	0x3fdd366d8f457dbc	0.45644701949455757
153	0xbfdd139ef1535b06	-0.4543225628562343
154	0x3fd24b8a170d9f10	0.28586055995263937
155	0xbfbc50164538fe5e	-0.11059703054433487
156	0x3fd33d6768301423	0.30062279867735436
157	0x3fdc885e378d76f0	0.44582324433382237
158	0x3fd74c802a1c2d06	0.36404422867117636
159	0x3fd4a8a1415a7ba0	0.3227923525063776
160	0x3f9b004808a8adea	0.02636826088762049
161	0xbfb491970b67965d	-0.08034652737077282
162	0x3fb00d2ac9d8d11f	0.06270091464904624
163	0xbfddd1035e9c8f25	-0.4658821510258682
164	0xbfcc66bb16c9ea60	-0.22188509571772652
165	0xbfd763911c47ffa3	-0.3654520775016811
166	0x3fc4a950b6ea0346	0.16141709262231013
167	0x3fd5b34d56e1aa63	0.3390687321140488
168	0x3fd5634f3bbd0647	0.3341863711721981
169	0x3fc6af793175185e	0.17723002352630862
170	0xbfbe78d2ec5455c5	-0.119031126687637
171	0x3fc8df687c721c62	0.19431787563755437
172	0xbfddd5f1a5b02be6	-0.4661831014679464
173	0xbfdc9d22d398dfea	-0.4470908228281575
174	0x3fba719233fb061a	0.10329545754486738
175	0x3fd0f2ea3fdd2df6	0.2648263572379784
176	0x3fb3ba7b4587ffde	0.07706423232593759
177	0x3fd529dd3b56e04c	0.330680187176317
178	0xbfd8fdfe187ab222	-0.3905024756484484
179	0x3f9c36c128b1856c	0.027552621945124242
180	0x3fbd4b86fbc7a74a	0.11443370482416274
181	0x3fd3a8ad4b45ccce	0.30717022276730865
182	0x3fc3c417d4240d1d	0.15442178591192937
183	0xbfd0c9498066d0b3	-0.2622855905458536
184	0x3fddd58d593858c2	0.4661591883936006
185	0x3fd76516ad460b1e	0.36554495736361214
186	0x3fc4d04490a97f22	0.16260582984522737
187	0xbfd54e8f68781978	-0.3329199333387787
188	0xbfdc9a584cc0d876	-0.44692046637954463
189	0xbfd6f5d27285a56f	-0.35875378783983697
190	0xbfd52f303f7b5e8e	-0.33100515555768417
191	0xbfd7e5875846804f	-0.37338431950229717

conv1.lin_edge.weight f8 [64, 10]
0	0xbfbe9162f14df661	-0.11940592185234201
1	0xbfd649cf5b4f206d	-0.34825500409033944
2	0xbfbcd62502a53fa5	-0.11264258684718571
3	0x3fbe6a012863eb8e	0.11880500064937236
4	0xbfd8b0fd4531d619	-0.3858025718430738
5	0x3f93bdf72c7e067e	0.019279348459809935
6	0xbf97d18f484aceef	-0.023260344302527377
7	0xbfb212087d3c7fe0	-0.07058766419913765
8	0x3fd535d4d6644b48	0.3314106076879182
9	0xbfca2eb654c36f7f	-0.20455054415549154
10	0x3fc175353087ac53	0.136389397331501
11	0xbfcda68c20e70b52	-0.2316451225907153
12	0xbfc2a563b7b58024	-0.14567228765645368
13	0xbfaa03efa665d7f4	-0.050811280309900925
14	0xbfd8e88c6dc95f68	-0.3891936370978244
15	0xbfd17187998d0998	-0.272554302169874
16	0x3fd8b572d8cd8c9a	0.3860747449127274
17	0xbfd8540d17ea3457	-0.38013007483897837
18	0xbfc6fb16ec35f725	-0.17953764470797143
19	0xbfd6e5f7ebe9338c	-0.3577861598794747
20	0xbf90c50713ee1ef3	-0.016376600829544462
21	0xbfcbbfb8f06ac481	-0.21678840388407042
22	0xbfd9b10b707b6af9	-0.40143095001774004
23	0xbfd9120132ce8e32	-0.3917239185486522
24	0x3f87f89007b4797e	0.011704564318787854
25	0xbf9403c74ca3fdd8	-0.019545663883944048
26	0x3fc030a6cb34f53f	0.12648472711763678
27	0xbfd253906c1b062e	-0.28635035092529193
28	0xbfc2b1cf74476172	-0.14605134179761198
29	0xbfd0236cc8fa7d98	-0.2521621668510874
30	0x3fd10d6f7ba25a3e	0.26644503663684194
31	0xbfcae85db2dae3f4	-0.21021624787479676
32	0xbfc1f623c4fdb601	-0.14032408827499412
33	0xbfc08a48fde136d7	-0.12922012707206562
34	0xbfd2412294305354	-0.28522552939948764
35	0xbfc456abef735f73	-0.15889500801017284
36	0x3fd372895fdff98f	0.3038657604482972
37	0x3fa1945b80250d52	0.03433500231997279
38	0x3fb1b147ba115aa2	0.06911133091612467
39	0xbfd63ca68187921c	-0.34745180749294646
40	0xbfd392cc7b25178f	-0.3058348848902534
41	0x3fd2d58fb9569d45	0.29428475474783894
42	0x3fc9f0795c7f490d	0.2026511861464048
43	0x3fb1439e47ce8134	0.06743802311985264
44	0x3fbecdb98e3915d9	0.12032661173096616
45	0x3fd823ad41196118	0.3771775375112312
46	0x3fadca2161dc8646	0.058182757564520446
47	0x3fc4c7b732c1f9c0	0.1623448369827667
48	0xbfd7741fd78d540c	-0.3664626698494551
49	0xbfbe3c0fcf8dfaad	-0.1181039697384942
50	0x3fa6511db03cb8f6	0.04358761574109053
51	0xbfdb47936f42df7b	-0.42624364724496616
52	0x3fc05f55d1045033	0.12790940004254167
53	0xbfd89c9d7ec30ca9	-0.3845590341481491
54	0x3fbfd24ccdaa5d78	0.12430267354135605
55	0xbfb854b6ee80342a	-0.09504264185689296
56	0x3fbda99706fbe088	0.11586898727898831
57	0xbf79ca9356d863e6	-0.006296706718353006
58	0x3fd856f146d8ee97	0.3803065482968377
59	0xbf90effa714c555a	-0.016540444531604727
60	0x3fd5e51258afbac1	0.3421064249113606
61	0xbfd2ef78cd629a3a	-0.2958662038530836
62	0x3f891548aec75576	0.012247627099820173
63	0xbfd42694e7715351	-0.31485483743499737
64	0xbfd215ddacbe9ebc	-0.282584589668186
65	0xbfc09f68e5b74b7f	-0.12986479965783457
66	0x3f9466111cc92796	0.01992060411638582
67	0x3f4befbcae535c20	0.0008525534909961142
68	0xbfb3eeb268a0b0f8	-0.07786097578417983
69	0xbfc9ea4b3f22bdb7	-0.20246258337782105
70	0xbfd8e4ddf07bc306	-0.3889689300986422
71	0x3f9086361c5b8e37	0.01613697574693004
72	0xbfc0a6b52b52f382	-0.1300875150244814
73	0xbfb49c68d86c0594	-0.08051162036647092
74	0x3fba5140f954424b	0.10280233466279147
75	0xbf967b21b72d1d25	-0.02195408516425092
76	0xbfc77d888015c644	-0.18351846937325622
77	0x3fd8eccc066e37a4	0.38945294025404054
78	0xbfd04a6bbbc6b2d3	-0.25454228723064637
79	0x3fd666a9acbeb355	0.35001603955861543
80	0xbfce0e484a0acb3f	-0.23481086364116696
81	0x3fb8d68f7ba27a1c	0.09702393310951901
82	0xbf8b6083f22df8e4	-0.013367682293161605
83	0x3fc10dc22378e204	0.13323237163582757
84	0x3fda2b4eea1e0736	0.4088933264066442
85	0xbfa94357b139ccd2	-0.049341907867437876
86	0xbfaaa979827f41b0	-0.0520742389486516
87	0x3fc541f5fdf72c9a	0.16607546711597793
88	0xbfb3009f61603b9e	-0.07422824981061502
89	0x3fda582173e0c746	0.41162906948294553
90	0x3f9e0d1f907c1261	0.029346936410563965
91	0xbfd190df7f0f28cc	-0.27446734817625607
92	0xbfac6b8796b3475a	-0.055507886072190885
93	0x3fbb1bb5536510fa	0.10589154516225455
94	0x3fa9c20d8f032196	0.050308631618068464
95	0xbfc82da89b624e89	-0.18889339053258805
96	0xbfc00b34f9e2d610	-0.1253420086047048
97	0xbfb8766b478318e0	-0.09555693145657385
98	0x3fd7e9c335e131f1	0.3736427332085262
99	0xbfc8c83957431507	-0.1936103511890581
100	0x3fd16335108455c0	0.27168013203603536
101	0xbfd1af1f68bb94b7	-0.2763136408596653
102	0x3fba18788b5deea2	0.10193589594376332
103	0xbfd117fa57b2270c	-0.2670884949117045
104	0x3fa7950208ccdf72	0.04605871541428898
105	0x3fb2534354529e1c	0.0715829926363018
106	0x3fbca69ee4df3a08	0.11191742980665975
107	0xbfd875aafa4a4989	-0.38218187754059635
108	0x3fd0ba06b1060cbb	0.2613541344400791
109	0xbfd8935a7b3906a8	-0.3839937404010052
110	0xbfca4b701828d0f8	-0.20542718104991997
111	0x3fc71648d99923ba	0.18036757111465623
112	0x3fd33d323536a2ec	0.30061011501906765
113	0x3fc96592e8716a48	0.19841228818661905
114	0x3fb6fd641cf1cea0	0.08980394083647036
115	0xbfb729041f6e9ac3	-0.0904696060884858
116	0xbfd797e2716edd18	-0.3686452968353975
117	0x3fb563368dfe3382	0.08354512182832077
118	0x3f99c0a7503add63	0.02514897753891655
119	0xbfb739c7a5271271	-0.09072540075346482
120	0xbfd2e96d97339ba8	-0.29549731984882976
121	0x3fc046090301abfd	0.12713730475238086
122	0x3fa2f1728367c9fa	0.036998346844388366
123	0x3fcdb8790584f03d	0.23219216126915568
124	0x3fd659a5185425c4	0.34922149062967045
125	0x3fcef685806825cf	0.24189823884834857
126	0xbfcee98d2a065612	-0.24150242378225123
127	0x3fd0175fbecc78f4	0.25142663605392035
128	0x3fcbfca78ebe97d1	0.21864790410944449
129	0x3fcac384c223d228	0.20909175376404332
130	0x3f8ceb97b0f8828a	0.01412123211690754
131	0xbfd404fb2c31cc73	-0.31280402484771413
132	0xbfc84130ec906275	-0.1894894747827213
133	0xbfc1674f4ddd17ef	-0.13596526433883535
134	0xbf81843726b05604	-0.00855296217745672
135	0xbfd81100a82983bb	-0.37603775426947167
136	0x3fd4f279d29ed638	0.32729955261615684
137	0x3f95ec4774eba3e8	0.02140914584279932
138	0x3fcef0c25f91423c	0.24172238985421923
139	0xbfb1c961f9b6449e	-0.0694791063927078
140	0xbfda396890bb7e78	-0.4097539342310266
141	0xbfa43a05ff2dbdb4	-0.039505183601132116
142	0x3fd22fa6a9a8d79c	0.2841583878356404
143	0xbf99d8951a02adee	-0.025240258896401295
144	0xbf85f89d7ba0880a	-0.01072810205011267
145	0x3fa9c974a8e247c1	0.05036511003085265
146	0xbfc34d5529f08e38	-0.15079750583491758
147	0x3f99238531650f2f	0.02454956163388927
148	0xbfc1002a25968371	-0.13281752429341112
149	0x3fcb7751fefe575f	0.2145788664899397
150	0xbfad33638756fd64	-0.05703269030663696
151	0x3fd15a4aa8561ede	0.2711359638128509
152	0x3fd076e88d10c923	0.25725759292540057
153	0xbfa52cb05d566df3	-0.041356574434043746
154	0x3fc84a4dd474caf6	0.18976757882918321
155	0x3fc8592e32e2920e	0.1902215717756381
156	0xbfb5394c0da8bf9e	-0.08290553410983967
157	0x3fc4b0dd38323d54	0.16164746517140804
158	0xbf992bf8946f0d8f	-0.024581798610382285
159	0x3fd47ae5b7926608	0.32000105788174027
160	0xbfc74bfbcb0d560f	-0.18200633444455191
161	0xbf85c8b586af22d8	-0.010636728451474495
162	0xbfb6f976a34098d4	-0.08974400983479153
163	0x3fdafcc2c5106480	0.42167729610952875
164	0xbfb0f148b7e9909c	-0.06618170251892014
165	0x3fc0a3b7fcaace36	0.1299962981917006
166	0xbfd96f2c9428fd7d	-0.39741053074609295
167	0x3fd7bfe7651909d4	0.37108788369019163
168	0x3fbab93cc0b34203	0.10438899712176668
169	0x3fd78392eb5e4fe4	0.3674056337852092
170	0x3fd81800b07bb657	0.37646500811283573
171	0xbfcd8f4f8574ae05	-0.23093599335093998
172	0x3fae67488c9d4390	0.05938173977359107
173	0xbfd6c270bf82f5c3	-0.35561770155240086
174	0xbfd66512692b376d	-0.3499189402617649
175	0xbfb85c5bc1db108c	-0.09515927775197691
176	0x3fc12a6f415c721a	0.13410750094853158
177	0xbfa42cb0c9c58d12	-0.03940346205743074
178	0x3f6781f8fb6ee770	0.0028695929463226563
179	0xbfd20b00e3527a95	-0.2819215984290307
180	0x3fcb88b380553148	0.21510928884743863
181	0xbfc94aaaa661131e	-0.19759114383682513
182	0xbfd3c28d3b8e423b	-0.3087494927977194
183	0x3fa5f92d4a79a959	0.04291669401284776
184	0xbfd839d2c132b56b	-0.3785292517375953
185	0xbfbccc91bc00ebf4	-0.11249647941524171
186	0xbfb3cd1a575f384c	-0.07734837182144466
187	0xbfd1d6db08b9d645	-0.27873874523297487
188	0x3fc86a3e7faa7414	0.19074231370623862
189	0xbfb959032aa1e864	-0.09901447096663812
190	0xbfd5b213711c0a0f	-0.3389938931069602
191	0x3fc73a81d5df8f68	0.18147299712210985
192	0x3fc9f777e134a5de	0.2028646325718872
193	0x3fc991e9c8d9d4e6	0.19976541812108123
194	0xbf54144bd04127d0	-0.0012255421034006349
195	0x3fcc0330a2ae9314	0.2188473505349512
196	0xbfd4aa7db7e867e5	-0.32290595016240636
197	0xbf73a1fe3e6bee1c	-0.0047931605720310765
198	0xbfca683943a8cfd0	-0.20630565456087746
199	0x3fd6c7a524ae6260	0.35593536932132075
200	0xbfd63665c84477a2	-0.3470701652275868
201	0xbfb8bd8313024bb8	-0.0966417237671483
202	0x3fd1c360792df45e	0.277549856509557
203	0xbf95145b9708efc7	-0.020585471242369893
204	0xbf6b28800c2f8520	-0.003315210431069318
205	0x3f942ac0346b6050	0.019694331359318362
206	0xbfd196fad6e06548	-0.2748400782016529
207	0x3fc8505b4e61ba1a	0.18995229079469383
208	0xbfd5057eea452622	-0.3284604347032617
209	0x3faa8da9648cb41e	0.051862042926906535
210	0x3fd36ea46d4ec949	0.30362806963525607
211	0xbfce3cd1c224429d	-0.23623105983326279
212	0xbfd4a88cdd05dc05	-0.32278749069467977
213	0xbfd2d32b04ec49b1	-0.2941386745525519
214	0xbfc79ffc9066ec3f	-0.18456990290528272
215	0xbfd747c9e6e455e1	-0.36375663326302116
216	0xbf9715c18550004e	-0.022543929826497604
217	0x3fb5cb65076a8ee4	0.08513480597553841
218	0x3fae0a8c0d8bafd7	0.0586742178473682
219	0xbf85fc6150b47898	-0.010735283160610273
220	0x3fd696a969380c40	0.3529456641701394
221	0x3fb03a73c180a485	0.06339190935308821
222	0xbfcf6f544bafcad9	-0.24558499999655828
223	0xbf717dc0767e1e34	-0.00427031689458306
224	0xbf68f17096bee0d0	-0.003044814968202393
225	0xbfdbdd41339749e1	-0.4353793147867276
226	0x3fdb3e1a24f07bfd	0.4256654129730462
227	0xbfb9fe9e6df51e40	-0.10154142555722334
228	0x3fcc8555c22b6f78	0.22281906109753513
229	0xbfb6291d652be6a0	-0.08656486244208361
230	0xbfb668014d148747	-0.08752449161377483
231	0x3fd64fbaaed136ab	0.3486162860107053
232	0x3fc375452011a84a	0.15201629701488378
233	0xbfa49a09f6f566b1	-0.040237723728478676
234	0x3fda904dd10f9ecd	0.4150576154338353
235	0x3fb47b53a5610890	0.08000681674551147
236	0xbfda01d2dec77dd0	-0.4063613105372186
237	0x3fa51ad7a735edfc	0.041220416223008954
238	0x3fb7e9e06f36e2ca	0.09341242518611206
239	0x3fda89adca83d75b	0.41465325142723025
240	0x3f880bab398acdb8	0.011741006558941489
241	0x3fcef69629a60f3e	0.24190022500635594
242	0x3fa34bcc28090747	0.037687663924329366
243	0x3fd6ad4f1a356dd8	0.3543279415077598
244	0x3fc57014faff0d8c	0.1674829698150514
245	0xbfa2b3be2cfa079e	-0.03652757929832194
246	0x3f9f6ed766f97167	0.030696263942773607
247	0x3fd4364c54d6a939	0.31581409726154025
248	0xbfd295e4b2f80c8d	-0.29039876439510054
249	0x3fd127cb37db0836	0.26805382208488326
250	0xbfd7dec2c50d48be	-0.37297124141072036
251	0x3fbbbb2d09c1fc67	0.10832482803560738
252	0x3fd2fff22d612547	0.2968717044028221
253	0xbfaa5a63306e32d8	-0.051470851575776855
254	0x3fd00f17f6a597e6	0.2509212406788478
255	0x3fd50ac2afb41454	0.3287817684034213

conv2.att_src f8 [1, 1, 64]
0	0xbfb7340972227943	-0.09063777004709998
1	0x3fc2639bf1c33236	0.14366483025368532
2	0x3fc3518732e98824	0.1509255407900706
3	0x3fe0152e450976f1	0.5025855396631568
4	0x3fcfdfc1b3d8034d	0.2490160110610539
5	0xbfc316537b1f1501	-0.14911883842265897
6	0x3fb0b62923edef00	0.06527955176528266
7	0x3fd99470574ff6cb	0.39968498732183083
8	0x3fd400a74d93da18	0.3125398881524304
9	0xbfc5fd15cf2470b6	-0.17178604711887652
10	0x3fcb2eeaa881b030	0.21236928203450267
11	0xbfa284e86669c280	-0.036170256139375745
12	0x3fb847ccf417edeb	0.09484559020341236
13	0x3fcdf6f9c22230f5	0.23409959773233138
14	0x3fd783bfca67ce92	0.36741633192216583
15	0x3fa65eca31e17f7a	0.04369193896195518
16	0xbfbc7e91c85e57b2	-0.11130629674730022
17	0xbfdbc64e5d4adca9	-0.43397864447201556
18	0xbfc435606acbc9b3	-0.15787892546320634
19	0x3fd6b385b296fc3b	0.35470716896447
20	0xbfd579b5ccd01685	-0.3355535984158922
21	0x3fcad6d5d399af60	0.20968125183150743
22	0x3fca828a386757c4	0.20710876230321962
23	0x3fc672c5aadf47c0	0.1753775677048548
24	0xbfca56b201dbc5fe	-0.20577073183771682
25	0xbfddf60a3367987c	-0.46814208049762107
26	0x3fdb430360f7507b	0.42596516103117893
27	0x3fdbff986d42b8dd	0.43747530622466774
28	0x3fa14001cec3cb3d	0.03369146012291544
29	0x3fd1365aa44cac1d	0.26894250912545364
30	0x3f722e09e760d780	0.00443843716316461
31	0x3fe04ca5eb7012db	0.5093564604181567
32	0xbfca0fd04f4a57e9	-0.20360759612657311
33	0x3fd64ac1811b6d38	0.34831273658865625
34	0x3fce6deada159b3c	0.2377294125428423
35	0xbfc5818788ba6f70	-0.16801542450127327
36	0xbfcd25283afde4ce	-0.22769644623239177
37	0x3fbb6e8369df67d3	0.10715504965574434
38	0xbfc1e90fa7ebfa6c	-0.1399249620371451
39	0xbfd081a75b112ea0	-0.25791343587182247
40	0xbfb179eabe514706	-0.06826655527518363
41	0x3fccccbc2248aa42	0.2249980132485963
42	0xbfd9751d56dc85b8	-0.39777310831604096
43	0xbfd9f74b260a4ffe	-0.405718600414957
44	0x3fd20d2672ec5110	0.28205262396774433
45	0x3fb62dac17b4c664	0.08663440302623254
46	0x3fa83f67f29c864d	0.04735874973836172
47	0x3fce2d3f77a38cea	0.23575585691205642
48	0x3f8c9702d587e382	0.013959905759280525
49	0x3fdad9b45434b7ee	0.41953762267337324
50	0xbfc526a4773d85cc	-0.16524177381783856
51	0xbfb09b77e4acace8	-0.0648722584998499
52	0x3f92c42bee374b3d	0.01832646027998951
53	0x3fb7296938b700da	0.09047563204422052
54	0x3fb778fad903f639	0.09168975637654676
55	0x3fd7760f67927b9c	0.3665808211753132
56	0x3f9cb2bdb8f0b8ff	0.028025593197690487
57	0x3fd522b09adb5d56	0.3302423012041421
58	0xbfb631a423f70198	-0.08669496419952905
59	0xbfbb8c591302b514	-0.10761028970837955
60	0xbfda3ef3a9597ea1	-0.4100922731213164
61	0x3fc1df456530b589	0.1396261924832454
62	0xbfc034bff7885e3a	-0.12660979830319424
63	0x3f89acc1b571e0b0	0.012536538457638663

conv2.att_dst f8 [1, 1, 64]
0	0x3fac2641628bd0d8	0.0549793656154251
1	0x3fcd5c59611aee6c	0.2293807720324027
2	0x3fbe2320b4e9518c	0.11772350708753815
3	0x3fd6ff3dd5ea7969	0.35932870760179597
4	0xbf96dd0f7d6a1305	-0.02232765391319715
5	0x3fbaf5e1e94a4ab7	0.10531436868249498
6	0xbfd4e982537eba4d	-0.3267522635823397
7	0xbfd65f0d89d3b027	-0.34955156764658785
8	0x3f929c4b87f07b70	0.01817434327324058
9	0xbfc029d0dfd39d86	-0.12627612046274467
10	0xbfcbdc861a6d0eca	-0.2176673535378682
11	0xbf83415963ea0151	-0.009401987420688459
12	0xbfc1ec361cee28de	-0.14002109921086164
13	0xbfaf7ed7e923a234	-0.06151461335122513
14	0x3fd067ccc449b8e9	0.2563354412913115
15	0x3fd2d044137c7e87	0.29396154311141526
16	0x3f93b36568cf8072	0.019239029428604622
17	0xbfd3a1087705e6b8	-0.3067036783537378
18	0x3fd0e9527db86546	0.26424085881588544
19	0xbfcc1051af6c3a31	-0.21924801889004322
20	0xbfc62be36efbfebd	-0.173214368049221
21	0xbf709e0a19ef06d6	-0.004056968172280148
22	0xbf98632ceb9d152d	-0.023815824394906194
23	0x3fc34b8d5cd94fc6	0.15074317010532762
24	0xbfb7a6d8c613767a	-0.09238962970581524
25	0x3fbecdc376794ec0	0.12032720224788829
26	0x3fdb6b08f6920ead	0.42840789870408963
27	0x3faa366c5bce90d5	0.051196466643234885
28	0xbfbcd65b6c05f0dc	-0.11264583003316225
29	0xbf8fa526234494f0	-0.015451715422907658
30	0x3fa4664cf7402472	0.039842992002442026
31	0x3fd9dc538824ad2e	0.40407264991036385
32	0xbfc924d8c441373b	-0.19643697340728203
33	0xbfaa8ae0e66e9138	-0.05184080899133153
34	0xbfb9b6f336174e46	-0.10044784613210664
35	0xbfb7f0b74c21a3a4	-0.09351678475071751
36	0x3fbaa2f846caf7e2	0.10404922226277294
37	0x3fbeba67120619ff	0.12003177824053778
38	0x3fb35c82d955495c	0.07563035779938815
39	0xbfda17254fc51467	-0.4076627043726319
40	0xbf81ce47204958b9	-0.008694224999242871
41	0x3fc286ad4a893115	0.14473501338432784
42	0xbfd2c1b86d12e832	-0.29307375575774863
43	0xbfb84a411564e594	-0.09488302967374401
44	0xbfc2b9c8997932d6	-0.14629466527767104
45	0x3fc1006b4897684f	0.13282528919700318
46	0xbfcc0649492df5a4	-0.21894184182376109
47	0x3fbb6bdf9e19cb0e	0.10711476907617287
48	0x3fd93ab865cf7fef	0.3942090028995144
49	0x3fda6dfd2a6e2d3f	0.4129631914481315
50	0xbfce3d4a0f6731d8	-0.23624540092568114
51	0x3fa1aec4e5e170aa	0.03453650766525247
52	0xbfd16844a1c73a2e	-0.271989019381098
53	0xbfd56dc9084f8985	-0.3348257619055846
54	0x3fc6ef73aa83d816	0.17918248964241518
55	0xbf90d9e2aa16edfe	-0.01645616686958639
56	0x3f9cc0a9411cf3c2	0.028078693961322683
57	0x3fd56d98fbf60730	0.3348143063122846
58	0xbfb8912489407910	-0.09596470213771036
59	0xbf93cda996d344b4	-0.01933922751488089
60	0x3fd15b889668dd75	0.2712117642253909
61	0xbfd862befbc81acc	-0.3810269793324721
62	0xbfb437c75ac37ed1	-0.07897611585530774
63	0x3fc9407caf721738	0.19728048865015935

conv2.att_edge f8 [1, 1, 64]
0	0x3fa1fe60d747a87a	0.03514387729576725
1	0x3fca08089ecccf99	0.2033701682463487
2	0xbfd714ff0a5bf1d6	-0.3606565095103894
3	0xbfafbce94292ac76	-0.06198815286310204
4	0xbfc1ac5910e81b36	-0.1380721409370495
5	0x3fd7e119f82c44e7	0.3731141017497763
6	0xbf9940c512bec1cc	-0.02466113974486621
7	0xbfa49d65864a6e12	-0.04026334060946736
8	0x3f7236907f236f6c	0.00444656795499641
9	0x3fcc59554d5432ea	0.22147623325181282
10	0xbfb589494ef5eb13	-0.08412607362508266
11	0xbfaf56d2992b69d6	-0.061209279248675294
12	0x3fbdddac8f0e8b93	0.1166637276897247
13	0x3f96484b571b722b	0.02176015586052153
14	0xbf921548f1e21e55	-0.017659320605643753
15	0xbfc748f976bad104	-0.18191450402594722
16	0x3fccd64e8270c7bc	0.22529012078444832
17	0xbfbfc880c2ef4f09	-0.12415318259382614
18	0x3fd55e49a44aa2ee	0.33387986225220245
19	0x3fbc049444dc1bd8	0.10944487267634828
20	0xbfd408b8697c7b53	-0.31303224851028694
21	0x3fa6098097d8d1d4	0.04304124692535863
22	0x3fcf47cc4e1cb708	0.244378603115756
23	0x3fa65a4bf3eb7960	0.043657659077996014
24	0x3fc2b120a96e17de	0.1460305049224066
25	0x3fc42bc1a67d493f	0.15758534077992611
26	0xbfb1e16112ef6894	-0.06984526359829807
27	0x3fc48284109d4334	0.16023302851911014
28	0x3fd5fa919c6c6cc9	0.343418505437239
29	0xbfb359f22fe38b95	-0.07559121770058959
30	0x3fae85e3f120d7f8	0.05961525267086637
31	0xbfbf7017a504a290	-0.12280414370310155
32	0xbfcc7399bb9e8316	-0.22227784787266874
33	0xbfc53c8785633b90	-0.16590971005504374
34	0x3fc3782d958c6ee6	0.1521050434320081
35	0xbfd0080d2324a185	-0.250491413421081
36	0xbf40cbf1eb79e86c	-0.0005125933884777673
37	0xbfd5c78882b7836a	-0.34030354276006014
38	0x3fca12226c2bfff2	0.2036784198935489
39	0x3fc66a73483bff1b	0.17512360598629403
40	0xbfc32fa674a66df6	-0.14989166923338332
41	0xbfb2132661e6e543	-0.07060470476325968
42	0x3fa83fd96eb6e3da	0.047362131848281044
43	0x3fc47aa93a5fc1a4	0.15999331808371864
44	0xbfa18dee21ac58d0	-0.03428596650171445
45	0xbfa80dafe00b42ac	-0.04697942361747684
46	0xbfd32260c076a6ad	-0.2989732627416782
47	0xbfcd493f281dd896	-0.22879781206910782
48	0xbf956ba7924310af	-0.020918482114908595
49	0x3fd21191416ad014	0.2823222292747698
50	0xbfbf8a68df3112c4	-0.12320571373954708
51	0x3fc36668e61093ea	0.15156279786711419
52	0xbfadc9b0d88ca8dc	-0.05817940371919558
53	0x3fb3b5f8ad2fff60	0.07699541309557167
54	0x3fa0a2dc27116b94	0.032492522973107146
55	0xbfb7973bc4e220cb	-0.09215138966294771
56	0xbfceb44a6929a408	-0.239877034520106
57	0xbfd8bc71e74c4195	-0.3865017660873716
58	0xbfb2751d48967a02	-0.072099523755675
59	0xbfa4fad376e93638	-0.040976150765896724
60	0xbfc31e71875fe3a3	-0.14936656103216447
61	0x3fb41f03a6ff52f0	0.07859824015697447
62	0xbfb4579aa5e19148	-0.07946173238594156
63	0x3fc08439be5fdf68	0.12903520389204037

conv2.bias f8 [64]
0	0xbfc2fd6ab6e8b343	-0.14835866862395095
1	0x3fcb4c0d90c5c447	0.21325845307322508
2	0x3fcd7327ef987c98	0.23007678221708683
3	0x3fcd8229318c234c	0.23053469580943398
4	0x3fcd8c396f4b334a	0.23084180769219592
5	0x3fcee80030ae4770	0.24145510079375354
6	0x3fce976115f0ef8e	0.23899472781510805
7	0x3fcea9f44739f784	0.2395615909371679
8	0x3fcbb1bede889a13	0.21636186471842275
9	0xbfc2fd8a6cfaa732	-0.14836244889493738
10	0x3fce42de3d055d7d	0.23641565303362802
11	0xbfc305da2d8eddc6	-0.1486160967303773
12	0xbfc586d6f5c0bf12	-0.16817748069433286
13	0x3fcd1fc4cda616ef	0.22753200570530605
14	0x3fce70303bd9a10b	0.23779871866577937
15	0x3fcda47e16f70f6f	0.23158241387693176
16	0x3fcd7df3b28ff0ac	0.23040624827252054
17	0xbfc411f4065ca9f9	-0.15679788885729787
18	0x3fcd555a70241218	0.22916727519636093
19	0x3fcf6fd5b818c430	0.24560042847727592
20	0xbfa13c8ccb22b05e	-0.03366508464509431
21	0xbfc3038bd1230bef	-0.14854572021258103
22	0x3fcd50a121b0e415	0.2290231146342029
23	0x3fce011cc65c5c2a	0.2344089478071692
24	0x3fb31fdb3fc3d930	0.07470484072459693
25	0xbfc37dc3ac94a05b	-0.15227552344117865
26	0x3fcf63e2bc2eccd8	0.2452357691632645
27	0x3fce69305cd91953	0.2375851109847625
28	0xbfc2fd6ab6e8b344	-0.14835866862395097
29	0x3fce197d1deb24b3	0.23515285454621945
30	0x3fcf457fa62005a8	0.2443084298284195
31	0x3fcb7f09451629a3	0.2148143374764234
32	0xbfc2491730adc551	-0.14285554768461364
33	0x3fcd76d3e17bbec8	0.23018883237772614
34	0xbfc2bc5711138012	-0.1463726838474036
35	0xbfc2fb7d0c080c7b	-0.1482998188731449
36	0xbfc30571c0295920	-0.14860364802252324
37	0xbfc303ced922933f	-0.1485537109594137
38	0xbfc2fd6ab6e8b344	-0.14835866862395097
39	0x3fcebe3681b58d5f	0.2401798375459334
40	0xbfc2dd4fb566abee	-0.14737888677095107
41	0x3fcc78dd76ec9e31	0.22243851000642814
42	0xbfc3015654e37216	-0.14847830910629572
43	0xbfc2feb75ced915e	-0.1483983234167096
44	0x3fce922df990dcc1	0.23883604703744335
45	0x3fcd2973bb7aaf6a	0.22782751707324717
46	0xbfc2eaec6a491292	-0.14779429616659862
47	0x3fca7d1522696e83	0.20694221668496846
48	0x3fcd4c55f75504f8	0.22889208390009919
49	0x3fb6cf0a42c2c1f1	0.08909668092633873
50	0xbfc3073965eac259	-0.14865796543519386
51	0x3fce3f1baa2dc3b4	0.2363009053183568
52	0x3fce9450751fff34	0.23890119284623668
53	0x3fcb068e08b45416	0.21113753724117207
54	0xbfc36a2cb26248ae	-0.15167769155647676
55	0x3fcca8c77c81c854	0.22390073375169328
56	0x3fcdbab3933099a4	0.232260176534692
57	0x3fcf51b4b977c3a6	0.2446809678654322
58	0xbfc349a64e6f3c72	-0.15068510846910815
59	0x3fb36efe05418cb0	0.07591235760041815
60	0xbfc2a57ecaf9ce3b	-0.14567551527908215
61	0x3fcdd39193134354	0.2330190628186083
62	0x3fccd479669338b1	0.2252341986517812
63	0xbfc2fd6ab6e8b344	-0.14835866862395097
