models/model_0.01_0_out_of_1500.pt (torch, 1191 bytes, 1 tensors)

linear.weight f4 [1, 32]
000000 51 31 2e be e8 5c 22 3e c4 66 e6 3d 9b d6 8e 3d
       -0.17011 0.15855753 0.1125007 0.069745265
000010 8a 6c 35 3d 90 94 10 be ce bc 91 3d 2a 7f 35 bd
       0.044292964 -0.14119172 0.0711609 -0.044310726
000020 92 64 6d 3d b6 b1 b7 bd c6 11 6e bd 61 83 1f 3e
       0.05795724 -0.089694425 -0.05812242 0.15577461
000030 d6 bf b3 bd 8c 88 35 3d 21 df a6 3c 7b 85 b1 3d
       -0.08776824 0.044319674 0.020370068 0.086680375
000040 f8 5f ed 3c b6 77 6c 3d aa c3 23 be e6 5d c7 bd
       0.028976426 0.057731353 -0.15992609 -0.097347066
000050 79 e1 d6 bc e5 96 a4 bd 80 a6 41 be d6 aa ab bd
       -0.02623056 -0.08036593 -0.18911171 -0.08382194
000060 f6 88 d5 3c 1b ba 3c 3e ef 24 3c 3e bb 51 2c 3e
       0.026066285 0.18430369 0.18373464 0.16828053
000070 c9 67 66 3e 21 a9 15 3e f6 8d f1 bd 74 28 53 3c
       0.22500528 0.14615299 -0.11794655 0.012888063
