models/model_0.01.pt (torch, 1191 bytes, 1 tensors)

linear.weight f4 [1, 32]
0	0xbe5a977e	-0.21346852
1	0x3e39b939	0.18137063
2	0x3d8785f3	0.06617346
3	0xbdf038c7	-0.117295794
4	0xbde6d240	-0.11270571
5	0xbb197fd8	-0.0023422148
6	0xbb3ddd38	-0.0028970968
7	0xbdd0dad3	-0.101979874
8	0x3e21fa69	0.1581818
9	0xbc8647f4	-0.016391732
10	0x3d8bcde2	0.068263784
11	0xbcc0d401	-0.023538591
12	0xbc86722a	-0.01641186
13	0x3dd5e329	0.10443718
14	0x3b3dea18	0.0028978642
15	0xbe5a1368	-0.21296465
16	0x3e71ac24	0.23600823
17	0xbddff8a6	-0.10936098
18	0x3e7bafa8	0.24578726
19	0xbe034087	-0.12817584
20	0x39e33600	0.00043337047
21	0xbe0ee7cd	-0.13955612
22	0xbe001056	-0.12506232
23	0x3d0249b9	0.03180859
24	0xbe48056c	-0.19533318
25	0xbd7e9a02	-0.062158592
26	0x3dec4c20	0.11537957
27	0xbceb7c18	-0.028745696
28	0x3e0ab3b1	0.1354511
29	0xbdbffd90	-0.09374535
30	0xbe1ded8a	-0.15422645
31	0xbe7f5925	-0.2493635
