models/model_0.0007750000000000001_100.pt (torch, 20539 bytes, 16 tensors)

conv1.att_src f8 [1, 1, 32]
000000 5a a0 3c 30 b8 c9 a1 3f c2 54 1e 47 5f 32 d5 3f
       0.034742122543605716 0.3311994738117613
000010 d4 0e ac 58 31 e5 b5 3f 6f 49 15 3a 33 e1 e5 bf
       0.0855284539684889 -0.6837402471958692
000020 5c 1c ea 8f 6c 50 d6 bf 1b ca 85 c8 e0 d1 d3 bf
       -0.3486586957373612 -0.30968494016920695
000030 34 b0 f4 79 12 ae c0 3f 7a a4 0b c5 49 f6 d8 3f
       0.1303122611510631 0.39003223650667673
000040 41 a2 41 17 5e 49 c6 3f f1 17 40 43 61 5a b7 3f
       0.17411399970593958 0.09122283832411406
000050 05 44 24 11 56 f2 ae 3f f9 9a 4d 8a bd 1c da bf
       0.060442628471840044 -0.40800417429129215
000060 63 82 f3 82 0a 7c bc 3f 4d 17 dc 5d a0 ea e2 3f
       0.11126771637965187 0.5911409218976843
000070 a3 d4 18 85 9e 0f e9 3f 03 58 ca 8f e6 07 df 3f
       0.7831566428709674 0.48485721628219397
000080 76 62 3b a3 b3 ef d4 3f 29 e2 c9 51 cc 66 d0 3f
       0.3271302312910288 0.25627429949921293
000090 af 05 32 1f b5 fb c6 bf 3d 30 ae ce b5 75 de 3f
       -0.17955650351727345 0.4759344595302116
0000a0 c0 39 72 10 c9 55 d9 bf 2a 5b 75 aa d7 f3 c5 bf
       -0.39586092573236087 -0.17150398085751678
0000b0 33 f3 d2 7b 9e 74 e3 bf 45 2b 82 e8 e0 45 b6 3f
       -0.6079857271612127 0.08700376202083955
0000c0 b1 70 d4 bd b5 43 e1 3f 41 c6 42 c9 df 03 e3 3f
       0.5395153720487739 0.5942229205013022
0000d0 f9 54 ce 08 c3 10 ca bf a9 10 12 1f c8 f5 e4 3f
       -0.20363653116206828 0.655002651867581
0000e0 d3 a1 67 26 ad 25 d8 3f 2b d9 19 cc 04 5a cf 3f
       0.3772995829627039 0.24493465391032862
0000f0 43 c9 9e 71 c2 21 e1 bf a3 6f 3a d4 a3 ac e6 3f
       -0.5353710383554148 0.7085742135127372

conv1.att_dst f8 [1, 1, 32]
000000 62 44 e3 86 a5 26 c2 bf 90 ef f2 64 fd 85 d7 3f
       -0.14180440031353486 0.3675530896978154
000010 3e 5d 66 f0 c1 96 cb bf be af ea 65 c9 5e a6 bf
       -0.2155382560565417 -0.04369191521740799
000020 2b 1b 41 d1 1a 26 d3 3f 42 3c b7 a4 d5 90 cf bf
       0.29920072970382944 -0.24660749953042865
000030 a2 6a cf 9f 11 eb d5 3f c4 2c f0 0e 84 df ac bf
       0.34247246366946105 -0.056392790626057315
000040 07 eb ad fc 70 1b d7 3f 16 8b c7 db c4 7e c8 3f
       0.36104988742560845 0.19136868220729103
000050 0c 77 ec 58 e7 43 a5 3f c9 e3 af 14 97 8e bb 3f
       0.04153368912214547 0.10764450316481979
000060 91 cf a8 e6 91 14 cd 3f 7e 53 56 e7 94 92 e0 3f
       0.227190244318646 0.5178932684235489
000070 25 28 87 c8 58 30 da 3f 6e a7 46 88 12 88 d0 bf
       0.4092008550911735 -0.2583051997013318
000080 be c4 b1 4a a6 53 b3 3f 08 f8 cc 87 04 8a b0 3f
       0.07549514125436738 0.0646059829277591
000090 fb 4e e3 8e 51 73 d6 bf e5 e3 d7 29 a8 80 cd 3f
       -0.3507884879484064 0.23048879664545932
0000a0 8c 69 7f 9c 6d a3 a0 bf 2b 93 55 78 92 ad d2 bf
       -0.032496857980464616 -0.29184400321382736
0000b0 75 66 68 1f 3b ec d0 3f a5 59 9a e9 68 a4 db 3f
       0.2644183928219726 0.4319097787169091
0000c0 87 27 b7 e6 e6 15 de 3f ea a6 7f 46 56 1e cb 3f
       0.47008678942494736 0.21186331217113913
0000d0 a9 0f c4 f6 46 b7 da bf a8 3e 11 c7 a9 50 c5 3f
       -0.41743635271290686 0.16652414531789828
0000e0 4b a4 76 0a d6 59 d6 bf 79 cc 81 fa a4 bf c1 3f
       -0.3492331602270197 0.13866102439678565
0000f0 0c a8 8c c0 01 71 8d bf 99 71 b2 75 37 a2 c4 bf
       -0.014375699700014642 -0.16120045897413318

conv1.att_edge f8 [1, 1, 32]
000000 29 1d 67 9c 0d 56 b7 bf a5 a0 be bd 46 67 c6 bf
       -0.09115681713511904 -0.1750267435538763
000010 a8 cd 44 c8 8b 54 ce 3f f5 eb 1e 9d 35 40 c1 bf
       0.23695513991115758 -0.13477201625741456
000020 c7 d9 e5 00 77 73 d1 bf 1f 3c d9 dd 06 82 da 3f
       -0.27267241561585503 0.4141862074365594
000030 11 67 6f fa c0 84 d8 3f b1 a0 c1 b9 3f 42 85 bf
       0.38310265022811146 -0.010380266052564787
000040 ec 26 46 39 a3 53 c0 3f e1 14 1b 51 18 32 ad bf
       0.12755241676887097 -0.05702281942425614
000050 5d f4 bb e1 48 3d b2 3f 98 ea 1b 2b 47 9f 6c 3f
       0.07124763022507481 0.003493918419619501
000060 bf af ea 49 d9 40 c3 3f 6e 3e 86 6d 3a d6 d3 bf
       0.15041652783599876 -0.30995045371762486
000070 25 10 44 33 ce 6b c6 3f 3b 2d 55 22 9d 7b cf 3f
       0.1751649618455541 0.24595989395525372
000080 dc 6b 77 0d 82 cc d5 3f a3 c6 9e d1 e2 48 d0 bf
       0.3406071788319289 -0.2544486090729185
000090 11 fb e3 1a 21 5a ba bf 67 80 53 0d c5 28 d9 3f
       -0.10293776422984659 0.3931133871210534
0000a0 f4 ec 89 c0 18 96 d1 bf b4 47 ee 45 9e b2 d9 3f
       -0.27478617479910317 0.4015269930761136
0000b0 20 c7 d9 81 bc b1 cc 3f 93 12 a5 cb 95 06 c2 bf
       0.22417408314100218 -0.14082596248239962
0000c0 85 9e 1e d2 e4 22 d9 3f 6b 22 7c af 83 e5 c3 3f
       0.3927547504376679 0.15544172352408067
0000d0 1d c7 7f 66 de 95 d1 bf 7c 51 36 bf 86 60 c9 bf
       -0.27477226266556604 -0.1982582505849101
0000e0 13 ed 6a 34 56 38 93 3f b5 6a 61 9f cf 72 cb bf
       0.018769595097848212 -0.21444125444653186
0000f0 7a e2 1d be da 91 c6 3f ec 7c 59 34 83 d6 c9 bf
       0.17632612498325156 -0.20185890251284577

conv1.bias f8 [32]
000000 1a ac 41 e3 27 3f e6 3f 93 a9 96 64 e9 d8 e5 3f
       0.6952094496349475 0.6827284779185895
000010 36 f8 a6 83 00 fe e6 3f d4 18 b6 88 57 47 e6 3f
       0.7185061045963781 0.6962087316649339
000020 1d df cb da 25 e4 e5 3f eb ad 96 ec c2 78 e0 3f
       0.6841000817648567 0.5147413845892833
000030 56 e0 6b 5f eb c5 e5 3f 4a 70 f9 2b a5 03 e2 3f
       0.6804100860308704 0.5629449709772498
000040 d6 1f 21 fa 24 a7 e6 3f 7d 86 3b b1 51 c1 e5 3f
       0.707903374227494 0.6798485242436098
000050 62 44 ff 9b 18 cf e3 3f cf f3 23 11 2f a4 e6 3f
       0.6190302893466078 0.7075419745229911
000060 ec 31 5f 8d 44 54 e6 3f 5c be 1f 16 34 85 e5 3f
       0.6977865945023587 0.6725101883038849
000070 bd ce 4c 66 a5 2e e6 3f b1 a5 dc ea bf a1 e4 3f
       0.6931941030547574 0.6447448336741016
000080 36 25 34 7b e5 f3 e5 3f 2b 43 dc 70 74 73 e3 3f
       0.6860225111314893 0.607843609266728
000090 57 74 ee 33 73 a3 e2 3f 46 6a 11 d1 5d b1 e6 3f
       0.5824523939405805 0.7091511805877608
0000a0 c0 16 2f 27 e3 35 e6 3f bd a5 51 cf e6 a0 e1 3f
       0.6940780415831895 0.5508913087079957
0000b0 99 86 82 20 5c c1 e4 3f 5b c3 7e 91 5f 91 e4 3f
       0.6486034998853994 0.6427457658483989
0000c0 cf bc 9b 41 86 20 e7 3f 30 d9 e0 55 1e 64 e5 3f
       0.7227202683842736 0.6684714963255711
0000d0 ab e2 e5 f4 cc 64 e3 3f 2c ca 7c 29 4a 2d e5 3f
       0.6060547621883264 0.661778527288623
0000e0 1b d8 c4 83 ba a4 e3 3f 6a bb 8c 7b 65 61 e4 3f
       0.6138584684001701 0.6368892109947926
0000f0 4d 27 ae 85 ad f9 e1 3f fb d6 09 24 e1 c8 e5 3f
       0.5617282496398076 0.6807714179874148

conv1.lin_src.weight f8 [32, 3]
000000 f1 d0 dd 45 f0 56 e2 bf 3f ee 91 cf b3 98 c5 3f
       -0.5731126179294092 0.16872260699516237
000010 ce 4e 71 15 9b e2 e6 bf c6 b5 14 9b d4 1b e9 3f
       -0.7151618403244926 0.7846472767757227
000020 8f 1a 2a de e4 44 b8 bf 8a b5 a3 3e 37 c6 e7 bf
       -0.09480123924195481 -0.7429462645938412
000030 e0 7e d7 b2 e7 79 d9 3f e3 b9 16 06 f6 ee e1 3f
       0.3980654951574092 0.5604200476571431
000040 ba 43 a2 0c f5 54 d7 bf 34 f7 1f f5 5a 25 e2 3f
       -0.3645603774430658 0.5670599734873805
000050 df 4a ee cd d5 28 e5 bf 2e 1c 29 15 18 e6 c0 bf
       -0.6612347623907587 -0.13202191384536505
000060 be b3 61 5f 16 b9 ea 3f f7 20 3a 8c 13 59 e8 bf
       0.8350936758921461 -0.7608735789117692
000070 92 c2 da e4 2c d0 db bf 35 e7 ee 96 af fb d5 3f
       -0.43458101605487187 0.34348668803760357
000080 3f 01 55 49 28 52 e3 bf 4c 42 35 bd 6f c7 de bf
       -0.6037789757029158 -0.4809226367697519
000090 74 9b fc cb 46 76 dd 3f a9 d6 b8 e5 70 57 ef bf
       0.46034402771549954 -0.9794239508398351
0000a0 ca 31 08 8c f1 cf d4 bf 0b 72 47 e3 90 7b d9 3f
       -0.3251918666362853 0.3981668681642822
0000b0 06 2d 47 54 0e 28 e3 bf 40 8b 20 1b 77 b7 e4 bf
       -0.59863964520028 -0.6473956613375336
0000c0 a4 b0 37 92 28 73 c5 bf 26 e0 2c 11 33 23 f0 bf
       -0.1675768579438045 -1.0085936232480974
0000d0 d1 4d be d2 dd 7f d9 bf cf af c5 75 f0 97 d6 3f
       -0.3984293516197939 0.3530236387366558
0000e0 92 ff 43 1f 62 b6 eb bf 80 60 ea eb 1c 5a f0 bf
       -0.8660135851532564 -1.022000237984713
0000f0 79 61 0e 33 1d b8 dd 3f 4b cc 7e 42 5b 2a e5 bf
       0.4643624304385621 -0.6614204691635533
000100 2c d1 dd cf 57 8e d6 bf f8 28 63 b6 76 9b d2 3f
       -0.3524379281946206 0.29073875247253467
000110 48 0e 3f 0e 00 05 ee bf e4 ba 2c b6 3c 6e c6 bf
       -0.9381103780983233 -0.1752391709828408
000120 df 6c 8b f1 e0 19 d8 3f bf e5 b2 8a 32 1b d9 3f
       0.37657950962393544 0.3922849993210455
000130 c3 0c 99 ec 0f c2 ad bf 24 f1 74 d4 a0 7d dd 3f
       -0.05812120211751328 0.4607927393697244
000140 b8 32 9f 5c 01 a7 ce 3f f4 f0 cd 41 52 dc ec bf
       0.23947159788658268 -0.901894691967327
000150 9b 21 96 a6 85 62 d5 3f 35 72 03 da eb 2d ce 3f
       0.3341383101292423 0.23577640671909852
000160 05 d1 be 96 a7 4e eb bf 08 fb 87 48 b2 f2 cd 3f
       -0.853351396965565 0.23396900693474998
000170 61 f4 28 b3 75 e1 c5 3f 53 26 87 11 62 31 f1 bf
       0.17094298599286886 -1.07455641600463
000180 92 45 b8 e9 85 bc a2 3f ce 95 14 58 49 2e de 3f
       0.03659456708931964 0.4715751037750494
000190 8d 75 8f ef 98 9b e6 bf df 9c 4b 40 aa 40 e8 3f
       -0.7064938239015405 0.7578936820763394
0001a0 1f ff 99 61 34 c3 d9 bf f1 2b 12 db 53 2b e5 bf
       -0.40253934413338927 -0.6615390089731347
0001b0 9c 36 ab c1 da 6f e9 3f 95 fc 67 c8 a3 f1 cd 3f
       0.7949041159242429 0.23393676076372985
0001c0 d2 47 42 d7 3b b5 b8 3f ba cf 2b 87 b4 4c db 3f
       0.09651540761322444 0.4265567131071709
0001d0 ec 5b b5 16 c3 fe d3 3f ac b6 19 42 b5 e3 dd bf
       0.3124244424593019 -0.4670231957924027
0001e0 1f b1 d3 77 98 04 e5 bf 1d 8d 37 9e b7 c6 e6 bf
       -0.6568109836930808 -0.7117574777770731
0001f0 83 4d 84 55 79 21 db bf 5e 18 2c 0e 80 7d e1 3f
       -0.42391808844805484 0.5465698506166168
000200 86 54 cf ed 40 53 e7 bf 19 e0 35 43 18 94 e0 bf
       -0.7289127964710509 -0.5180779755310169
000210 f1 39 3c 6d 58 ad bd 3f 9d bf 06 79 71 f2 e8 3f
       0.11592629114986842 0.7795951236530417
000220 85 24 fc 3f 5f 16 d8 3f be 4c 88 71 31 6e d5 3f
       0.3763654827931265 0.3348506554331826
000230 52 f7 9c ad 9a 4e 8b 3f 7a b1 78 50 92 29 e9 bf
       0.01333351938557895 -0.7863246509273687
000240 d9 18 22 11 52 54 c0 3f 15 aa 70 23 c5 25 e0 3f
       0.12757325970250724 0.5046106044949875
000250 78 47 44 69 1d c6 ee bf dd ca 19 35 71 5f e0 3f
       -0.9616839462271249 0.5116506611942345
000260 89 d7 1b 85 05 82 e7 bf a4 9f 5b b7 08 39 ea bf
       -0.7346217727451726 -0.8194621640404773
000270 91 86 0d a0 66 1f d4 bf d8 00 49 c1 46 b7 d4 3f
       -0.3144165575996363 0.32368630290512845
000280 db d2 3c 50 50 c5 d8 3f 4f 95 75 7e 46 76 e9 3f
       0.38704307399465926 0.7956879110248937
000290 2a b1 f6 44 d5 6f db bf 04 58 d1 4a 3d 51 eb bf
       -0.42870074972849415 -0.8536669217380681
0002a0 e1 2c 88 ba ee 81 ea 3f cc 6a e8 33 17 a1 e0 3f
       0.8283609049989559 0.5196643842530988
0002b0 46 91 09 14 87 8d 96 bf 9f 69 fe db 25 42 e9 3f
       -0.022024260137542905 0.7893246933702364
0002c0 35 65 dc 94 6f 5e e0 bf 68 f0 9d 2e 9d 3e de bf
       -0.5115278155746298 -0.47257165481983643
0002d0 51 c6 f0 5e a5 33 cf 3f 79 4c 44 1c 42 39 d5 bf
       0.24376361022727847 -0.3316197658579721
0002e0 c4 d1 e8 ca a4 ba ab 3f 66 97 8b da db f7 e7 3f
       0.054158353585453095 0.7490062015974501
0002f0 31 6b 17 c1 97 9c b2 bf 00 26 fc 1d cb 1c eb bf
       -0.07270191635272451 -0.8472648225444459

conv1.lin_dst.weight f8 [32, 3]
000000 f1 d0 dd 45 f0 56 e2 bf 3f ee 91 cf b3 98 c5 3f
       -0.5731126179294092 0.16872260699516237
000010 ce 4e 71 15 9b e2 e6 bf c6 b5 14 9b d4 1b e9 3f
       -0.7151618403244926 0.7846472767757227
000020 8f 1a 2a de e4 44 b8 bf 8a b5 a3 3e 37 c6 e7 bf
       -0.09480123924195481 -0.7429462645938412
000030 e0 7e d7 b2 e7 79 d9 3f e3 b9 16 06 f6 ee e1 3f
       0.3980654951574092 0.5604200476571431
000040 ba 43 a2 0c f5 54 d7 bf 34 f7 1f f5 5a 25 e2 3f
       -0.3645603774430658 0.5670599734873805
000050 df 4a ee cd d5 28 e5 bf 2e 1c 29 15 18 e6 c0 bf
       -0.6612347623907587 -0.13202191384536505
000060 be b3 61 5f 16 b9 ea 3f f7 20 3a 8c 13 59 e8 bf
       0.8350936758921461 -0.7608735789117692
000070 92 c2 da e4 2c d0 db bf 35 e7 ee 96 af fb d5 3f
       -0.43458101605487187 0.34348668803760357
000080 3f 01 55 49 28 52 e3 bf 4c 42 35 bd 6f c7 de bf
       -0.6037789757029158 -0.4809226367697519
000090 74 9b fc cb 46 76 dd 3f a9 d6 b8 e5 70 57 ef bf
       0.46034402771549954 -0.9794239508398351
0000a0 ca 31 08 8c f1 cf d4 bf 0b 72 47 e3 90 7b d9 3f
       -0.3251918666362853 0.3981668681642822
0000b0 06 2d 47 54 0e 28 e3 bf 40 8b 20 1b 77 b7 e4 bf
       -0.59863964520028 -0.6473956613375336
0000c0 a4 b0 37 92 28 73 c5 bf 26 e0 2c 11 33 23 f0 bf
       -0.1675768579438045 -1.0085936232480974
0000d0 d1 4d be d2 dd 7f d9 bf cf af c5 75 f0 97 d6 3f
       -0.3984293516197939 0.3530236387366558
0000e0 92 ff 43 1f 62 b6 eb bf 80 60 ea eb 1c 5a f0 bf
       -0.8660135851532564 -1.022000237984713
0000f0 79 61 0e 33 1d b8 dd 3f 4b cc 7e 42 5b 2a e5 bf
       0.4643624304385621 -0.6614204691635533
000100 2c d1 dd cf 57 8e d6 bf f8 28 63 b6 76 9b d2 3f
       -0.3524379281946206 0.29073875247253467
000110 48 0e 3f 0e 00 05 ee bf e4 ba 2c b6 3c 6e c6 bf
       -0.9381103780983233 -0.1752391709828408
000120 df 6c 8b f1 e0 19 d8 3f bf e5 b2 8a 32 1b d9 3f
       0.37657950962393544 0.3922849993210455
000130 c3 0c 99 ec 0f c2 ad bf 24 f1 74 d4 a0 7d dd 3f
       -0.05812120211751328 0.4607927393697244
000140 b8 32 9f 5c 01 a7 ce 3f f4 f0 cd 41 52 dc ec bf
       0.23947159788658268 -0.901894691967327
000150 9b 21 96 a6 85 62 d5 3f 35 72 03 da eb 2d ce 3f
       0.3341383101292423 0.23577640671909852
000160 05 d1 be 96 a7 4e eb bf 08 fb 87 48 b2 f2 cd 3f
       -0.853351396965565 0.23396900693474998
000170 61 f4 28 b3 75 e1 c5 3f 53 26 87 11 62 31 f1 bf
       0.17094298599286886 -1.07455641600463
000180 92 45 b8 e9 85 bc a2 3f ce 95 14 58 49 2e de 3f
       0.03659456708931964 0.4715751037750494
000190 8d 75 8f ef 98 9b e6 bf df 9c 4b 40 aa 40 e8 3f
       -0.7064938239015405 0.7578936820763394
0001a0 1f ff 99 61 34 c3 d9 bf f1 2b 12 db 53 2b e5 bf
       -0.40253934413338927 -0.6615390089731347
0001b0 9c 36 ab c1 da 6f e9 3f 95 fc 67 c8 a3 f1 cd 3f
       0.7949041159242429 0.23393676076372985
0001c0 d2 47 42 d7 3b b5 b8 3f ba cf 2b 87 b4 4c db 3f
       0.09651540761322444 0.4265567131071709
0001d0 ec 5b b5 16 c3 fe d3 3f ac b6 19 42 b5 e3 dd bf
       0.3124244424593019 -0.4670231957924027
0001e0 1f b1 d3 77 98 04 e5 bf 1d 8d 37 9e b7 c6 e6 bf
       -0.6568109836930808 -0.7117574777770731
0001f0 83 4d 84 55 79 21 db bf 5e 18 2c 0e 80 7d e1 3f
       -0.42391808844805484 0.5465698506166168
000200 86 54 cf ed 40 53 e7 bf 19 e0 35 43 18 94 e0 bf
       -0.7289127964710509 -0.5180779755310169
000210 f1 39 3c 6d 58 ad bd 3f 9d bf 06 79 71 f2 e8 3f
       0.11592629114986842 0.7795951236530417
000220 85 24 fc 3f 5f 16 d8 3f be 4c 88 71 31 6e d5 3f
       0.3763654827931265 0.3348506554331826
000230 52 f7 9c ad 9a 4e 8b 3f 7a b1 78 50 92 29 e9 bf
       0.01333351938557895 -0.7863246509273687
000240 d9 18 22 11 52 54 c0 3f 15 aa 70 23 c5 25 e0 3f
       0.12757325970250724 0.5046106044949875
000250 78 47 44 69 1d c6 ee bf dd ca 19 35 71 5f e0 3f
       -0.9616839462271249 0.5116506611942345
000260 89 d7 1b 85 05 82 e7 bf a4 9f 5b b7 08 39 ea bf
       -0.7346217727451726 -0.8194621640404773
000270 91 86 0d a0 66 1f d4 bf d8 00 49 c1 46 b7 d4 3f
       -0.3144165575996363 0.32368630290512845
000280 db d2 3c 50 50 c5 d8 3f 4f 95 75 7e 46 76 e9 3f
       0.38704307399465926 0.7956879110248937
000290 2a b1 f6 44 d5 6f db bf 04 58 d1 4a 3d 51 eb bf
       -0.42870074972849415 -0.8536669217380681
0002a0 e1 2c 88 ba ee 81 ea 3f cc 6a e8 33 17 a1 e0 3f
       0.8283609049989559 0.5196643842530988
0002b0 46 91 09 14 87 8d 96 bf 9f 69 fe db 25 42 e9 3f
       -0.022024260137542905 0.7893246933702364
0002c0 35 65 dc 94 6f 5e e0 bf 68 f0 9d 2e 9d 3e de bf
       -0.5115278155746298 -0.47257165481983643
0002d0 51 c6 f0 5e a5 33 cf 3f 79 4c 44 1c 42 39 d5 bf
       0.24376361022727847 -0.3316197658579721
0002e0 c4 d1 e8 ca a4 ba ab 3f 66 97 8b da db f7 e7 3f
       0.054158353585453095 0.7490062015974501
0002f0 31 6b 17 c1 97 9c b2 bf 00 26 fc 1d cb 1c eb bf
       -0.07270191635272451 -0.8472648225444459

conv1.lin_edge.weight f8 [32, 10]
000000 22 96 c1 2c 67 e2 c2 3f a1 3b 75 df 32 55 a5 3f
       0.14753427205430208 0.041665639665203764
000010 d1 c9 a6 f7 cd c9 c8 bf 3f 45 0c 2f 67 05 cc 3f
       -0.1936585864292071 0.21891488835584913
000020 1c a3 cc fb 00 b5 a3 bf 2a ad a9 95 4a d2 ac 3f
       -0.03849032472346023 0.056291895646462045
000030 9d 07 3c ea da cd cc bf 2f 12 95 ab 1e 29 d4 bf
       -0.22503220021468176 -0.31500975376210055
000040 e5 7c 3e a1 b0 b2 b9 3f 6a a0 18 dc c2 2f d2 bf
       0.10038284241317148 -0.28416511052865323
000050 6d 42 88 54 d6 20 d3 bf 6f 4d a9 77 ca 6c ba 3f
       -0.2988792253027331 0.10322251721782093
000060 c4 76 c5 42 99 22 93 bf 36 a7 a2 da 75 d9 b1 3f
       -0.018686670971297628 0.06972443187501373
000070 32 38 77 c3 e5 13 9f 3f ac e1 f9 cf 04 c7 d2 bf
       0.030349340491561523 -0.29339714346090306
000080 67 08 2b f9 4e 96 b4 3f 78 6e fd 52 4e 73 cc 3f
       0.08041852553563587 0.22226885845417477
000090 9e bc fe 8a f6 7c b8 bf 28 25 8c 74 16 30 ca bf
       -0.09565678494867533 -0.20459252062600197
0000a0 5f 68 3a e1 f6 5f d7 bf 9b 88 5b 01 d9 f1 ba 3f
       -0.36523220057427425 0.10525280268805874
0000b0 22 6e e4 47 4a 2b cb bf 92 8f 71 e6 02 c8 b7 bf
       -0.21225861082426528 -0.09289568067612056
0000c0 a5 e0 84 9a 9e ba b2 bf 1d 2e a6 74 1d 45 ce 3f
       -0.07316008827627003 0.2364842242790112
0000d0 a9 92 72 28 59 75 d3 bf 01 5f 50 57 6b 95 b9 3f
       -0.3040373702045068 0.09993620759666656
0000e0 59 08 71 cf 66 c0 c9 3f ec e2 2f ce 1c 2f cb bf
       0.20118413094502577 -0.2123752600453125
0000f0 5b 69 18 eb 21 07 c7 bf ac f3 03 60 4d 76 c3 bf
       -0.17990516642823703 -0.15204779804471735
000100 56 4f d4 29 5d 3d d7 3f ef 0b 63 ed 26 ed d3 3f
       0.36312035641571094 0.31134961302103553
000110 38 61 85 4d 26 18 b0 bf 95 5d 83 66 5e 40 d8 bf
       -0.06286849396326921 -0.37892875681924326
000120 65 1e f8 da a1 ad d1 bf 6a c1 a9 31 77 ce c1 3f
       -0.2762226713534573 0.13911333012539312
000130 7b e6 06 45 6e b2 be 3f 57 c4 c0 b0 e8 89 d6 bf
       0.1199101370356405 -0.3521672941306568
000140 52 9f 15 8f ce b3 c1 bf 97 a4 ee e9 b3 b9 d3 3f
       -0.13829977022691736 0.308209398698247
000150 31 71 c8 50 b9 e0 ab bf 71 81 00 84 19 01 d1 bf
       -0.05444888220901801 -0.26569211855714686
000160 9e 77 98 a5 e7 ab d5 bf 8b 10 a6 1f b3 b0 c2 bf
       -0.3386172406334199 -0.14601744695039928
000170 95 4d 47 bd 95 95 c2 3f ec f3 5d 49 2c 49 b8 bf
       0.14518996946445087 -0.0948665312880192
000180 8e ed 66 4a 40 24 b3 3f af 97 5b f8 b7 65 a0 3f
       0.07477189842659568 0.032026051585304464
000190 1c 7c 17 fb ca 83 af 3f 5e d5 c4 31 47 3b ae bf
       0.061552374983641495 -0.05904600603609354
0001a0 4d aa 32 0c 96 e3 c5 bf b9 71 5d d1 cd 9c d5 bf
       -0.1710078773079026 -0.33769555517008204
0001b0 4e d4 2a 7d f1 7d d0 bf e0 14 67 f8 9e b3 bd 3f
       -0.25768696997994744 0.11602204861181376
0001c0 1a 9d ac 18 42 13 b8 3f 1d 17 51 19 5d a5 cd 3f
       0.09404385664366935 0.23160899864358778
0001d0 44 2b 14 65 b4 86 d5 bf b0 ec 5b ee 91 5c df 3f
       -0.33634672041869274 0.4900250270581621
0001e0 f1 10 33 24 bf 30 d2 bf 11 36 ad 73 ee d3 d4 3f
       -0.28422525916199876 0.3254352693228109
0001f0 c1 a3 fb 9b c5 e8 cd bf 10 30 b4 16 78 ec b1 3f
       -0.23366613499027092 0.070014482062277
000200 77 4d 8d 7e 11 01 c0 3f 04 0c 48 0e fb fc a1 3f
       0.1250326030663975 0.03513321446737197
000210 ac a3 99 78 9a 31 ca 3f fa f5 e1 da 97 a7 d1 bf
       0.20463877571753863 -0.27585407614955637
000220 a9 a6 a7 a0 96 31 c4 bf f4 5b 07 88 83 d4 cb 3f
       -0.157763317532319 0.21742290632275252
000230 81 6d 99 2f 88 b8 bd bf 5b b7 a7 4d d8 07 d1 bf
       -0.11609698450177143 -0.2661038168288223
000240 b8 68 60 41 99 6a bc bf ec d6 d5 f1 e6 05 cc 3f
       -0.111001566372951 0.21893011864056378
000250 c4 db 5e 5e 02 26 c6 3f 3b f4 c8 03 7b db c5 bf
       0.17303495033203664 -0.17076051411450685
000260 a8 b4 e7 1a aa ef d4 bf 52 a8 ab 00 f3 3a b0 3f
       -0.3271279585595246 0.06339949385042701
000270 cc 81 09 b5 13 b1 b2 3f f4 66 85 6d d9 9a d3 3f
       0.07301448030330632 0.3063262528936399
000280 03 36 f6 8d fd 4e d1 3f fb d9 77 81 32 25 cb bf
       0.27044619430020606 -0.21207267114341719
000290 43 74 bf df a9 dd d4 bf e4 09 4e e3 39 7b d4 3f
       -0.32602927065255843 0.32002112577188613
0002a0 4c 0c a0 2b 34 72 d7 bf 7e 39 16 60 6a 14 c0 bf
       -0.36634544620773535 -0.12562303249110224
0002b0 c3 5a 06 9a 2c f4 c3 bf b3 7d 7b 9c 04 90 bb 3f
       -0.15588910599463732 0.10766629047747393
0002c0 f7 55 a4 13 e9 d0 d4 3f 67 34 0f 67 e6 6f 93 bf
       0.32525088232190974 -0.018981552162405182
0002d0 52 3b 4c be 00 c3 d5 3f e8 4e a4 38 c3 44 ce bf
       0.34002703269736856 -0.23647346749986942
0002e0 10 c9 cf 20 67 cb c6 bf fa 69 d2 9c b5 2c d8 bf
       -0.17808236219531937 -0.3777288466896206
0002f0 8b bf a5 53 e5 87 9b bf a0 90 ed 69 91 71 c3 3f
       -0.026885588865695403 0.15190332100167314
000300 e6 71 3e 8d b7 6a d3 3f 87 92 6d 2e da 47 cf 3f
       0.3033884887061319 0.24438025729172727
000310 6f 94 7c c4 e7 8e ce 3f 0c 78 ee 73 95 e5 d6 bf
       0.2387361249358579 -0.35776268311917714
000320 19 12 bc 44 32 a7 c0 3f 2d f0 3c fc 62 6d d5 3f
       0.13010242801841868 0.3348014319669826
000330 41 96 77 a7 fa c6 c7 3f 70 7f 98 bc 95 f4 98 3f
       0.18575986077410003 0.02437051738354462
000340 59 81 2e bc 7a 14 d5 3f 46 3b 84 41 28 fe 85 bf
       0.3293749654494796 -0.010738672732740217
000350 1d 48 91 12 82 b2 b9 bf 43 28 c6 50 37 d8 bd bf
       -0.10038006738003032 -0.11658044549963713
000360 be d8 fe e9 b9 e6 b0 bf a6 cd ea 47 1c 04 df 3f
       -0.0660206028249801 0.4846258833233271
000370 ae d0 e7 c7 a7 e5 c7 bf c8 86 db 59 a6 6b c5 bf
       -0.18669602643024547 -0.16734771144461136
000380 db 08 d2 ea 76 c9 6a 3f 9b c8 9d d4 7a bd d7 bf
       0.0032698938944700612 -0.37093992961229966
000390 6c f2 17 aa c5 86 d2 3f e6 8e d4 eb 3f bd c2 3f
       0.2894758378095392 0.14640044226791032
0003a0 4e 20 b9 5b f8 db cd bf b6 94 0b e9 16 a9 d1 3f
       -0.23327545622510332 0.2759454036552812
0003b0 8e 5e a6 3d 07 8e cc bf 08 ab f1 42 18 34 cf 3f
       -0.22308435926673947 0.24377730625868588
0003c0 37 12 8c 51 95 bf d7 bf 35 ec b3 28 4b 4c d3 3f
       -0.37106831515874056 0.3015315911758905
0003d0 87 72 13 71 2c 1c c5 3f 2e 59 c4 00 ce 1e d8 3f
       0.16492229005134026 0.3768801696291061
0003e0 7a e5 74 6e 9c ff c0 3f d4 fd ad e9 c2 0c d5 3f
       0.13280063050641983 0.32890389271048304
0003f0 af 33 e8 63 44 29 cb 3f 32 c2 e4 ff 54 f0 a1 bf
       0.21219687345765467 -0.03503671287251499
000400 61 72 6b 48 d1 74 b5 3f b8 11 03 f3 08 d6 d0 3f
       0.08381374376353669 0.2630636571086842
000410 12 b8 4c a7 a1 99 96 bf 87 17 03 0a 6d 1b d0 3f
       -0.022070432506716094 0.2516739461683461
000420 a3 be 86 e6 68 a0 c4 3f 71 b9 aa a4 f6 06 d1 3f
       0.1611453176133085 0.2660500152659529
000430 2c 82 5e 17 d3 6e b1 bf 83 26 a1 ec d4 c1 d3 bf
       -0.06809729881798238 -0.308705550273409
000440 4b c0 38 09 f9 c0 ba 3f 45 5c 39 60 16 19 ce bf
       0.10450703120363973 -0.2351406068653167
000450 74 ba 54 fd 53 a9 cb bf 9a 56 54 ea 93 ae d0 bf
       -0.21610498304058334 -0.2606553829549313
000460 e6 47 29 65 2f 22 c8 bf 0d 0a 4e 9e d2 0d d1 3f
       -0.18854324759973834 0.2664686723657333
000470 f5 2e 56 15 75 f2 d1 bf b6 ea 96 c1 33 e6 8f 3f
       -0.2804234226575624 0.015575794549353855
000480 60 ac bc 29 ac e9 c0 bf e6 74 e7 a1 2e 1d c7 bf
       -0.13213111913623532 -0.18057806878542876
000490 5a 0d 44 de ae 4d 9f 3f 5b ee 93 ac ad 32 be bf
       0.030569774929074846 -0.11796079123808438
0004a0 31 0b 4d 20 aa 95 d8 bf e4 ed 6b a8 c7 44 d8 3f
       -0.38413479952230306 0.3791979927770781
0004b0 95 a2 4b f3 48 4b d3 3f 95 b0 50 a1 fa 15 bd bf
       0.3014700294429898 -0.1136166232906269
0004c0 30 ae 06 df 2e cc d7 3f fc 76 57 37 b0 3f d6 3f
       0.37183734683887604 0.3476372280546085
0004d0 bb 67 88 ea 89 9d a2 3f 0c 65 a0 09 e5 a4 9a bf
       0.036358175162788574 -0.026019648277814375
0004e0 d2 e3 e5 48 07 b7 b1 bf 24 d8 78 84 ed e3 c4 bf
       -0.06919904260384094 -0.16320580452310296
0004f0 95 2a 3a 6e 38 c3 d1 bf 02 1a f3 8f d0 21 d1 3f
       -0.2775403095662708 0.26768888528422974
000500 40 30 c6 c3 22 f0 c4 bf ed 8a 77 a1 e2 36 c9 bf
       -0.1635783630302985 -0.1969874657071026
000510 cb ad a6 d7 d7 a7 d4 3f 3b 1a 14 e8 e1 d7 97 3f
       0.3227443319289846 0.023284463682126093
000520 24 c1 c7 48 fa f0 d2 3f ae 48 5b 83 b3 f4 d1 bf
       0.29595810992670324 -0.28056037738600537
000530 16 78 29 57 57 fd d6 bf b5 72 db 12 b8 ed ca bf
       -0.3592127181235595 -0.21037960930597924
000540 4f 80 e9 58 73 6e c9 3f 2f 65 66 7e 02 7f cd 3f
       0.19868318406497784 0.23043852970003217
000550 0e f1 c9 27 9d e5 d1 bf f7 d6 fb cb c2 07 b7 bf
       -0.2796395195544087 -0.08996217231819147
000560 33 92 1b 83 cf 9b d1 bf 54 d4 29 93 24 22 d6 bf
       -0.27513492396818434 -0.3458339154379406
000570 00 d4 f7 54 84 b8 d1 bf 45 c8 02 42 81 55 c0 3f
       -0.27688701913513114 0.127609402877683
000580 c2 6a 93 36 00 7a cf 3f 0f a0 79 3a 78 8e c5 3f
       0.24591066994510952 0.16841032843808576
000590 6c 39 3d 55 49 ca c1 bf 0c 45 fd 91 c1 8a ce bf
       -0.138985792751963 -0.2386095011557149
0005a0 25 df 18 63 21 f2 d3 3f 7b ba dc 3c e6 0f 93 3f
       0.3116534679170278 0.01861533876870645
0005b0 65 54 4b d8 a0 7d 9e 3f fd 44 c2 57 6b d4 d1 bf
       0.02977610893397688 -0.27859004564477613
0005c0 e9 ee df f6 af 83 c2 bf 35 53 71 f4 d7 a3 90 3f
       -0.14464377932005526 0.016250013632389943
0005d0 46 2d a5 6c f8 3b a5 bf ce 9c 91 b7 3a 16 ac bf
       -0.04147316290126439 -0.05485709658460679
0005e0 fa 42 6b 9f d6 18 b1 3f 52 7f 8a b8 2a 7c cd 3f
       0.06678525344910816 0.2303517724112632
0005f0 52 c1 5b 5e 62 69 a4 bf ee c6 8a 2a 29 a9 c7 3f
       -0.03986651803814091 0.18484987809420467
000600 e8 ec f4 e6 b2 3c cf bf 0e ed cc d6 e7 64 b3 3f
       -0.24403988148865285 0.07575844759132996
000610 2f c2 98 e6 f8 ae c7 3f 64 96 23 67 a2 d9 c4 bf
       0.18502722987752082 -0.16289167438587804
000620 f7 29 3b fd d3 36 d3 bf a0 2b 39 0f cd 8b ca 3f
       -0.3002214405975389 0.2073913883526446
000630 b6 ff ed 0d 44 90 c9 3f 62 c3 03 f8 23 14 ce bf
       0.1997151439682036 -0.23498963937847878
000640 6b 47 94 f5 c2 29 bf bf 09 3d 8f 7e 34 69 cc bf
       -0.12173098083101556 -0.221960603520053
000650 4b 2f e7 6c e1 84 d0 bf c3 39 e6 cd bd d2 d4 3f
       -0.2581103862291811 0.32536263568263396
000660 58 7e 9a 16 88 c8 76 bf 15 20 f7 84 3d ff da bf
       -0.005562335581685916 -0.4218286322106917
000670 44 83 e3 01 df a6 c6 3f 3c a2 d2 7f f7 01 ba bf
       0.1769675025198244 -0.10159251089738403
000680 de 0d 7d 7e c7 86 c6 3f 55 71 70 58 26 b8 bd 3f
       0.17598813701816501 0.11609115275536415
000690 7f 5c 7a 2a a3 76 51 3f ac 19 87 66 87 35 d1 3f
       0.0010658830086976154 0.2688921452758233
0006a0 49 aa ed 29 12 48 d6 bf c7 24 7b 29 ec 20 d2 bf
       -0.34814886183327026 -0.28325943041688756
0006b0 19 29 a9 ba 09 4b c7 bf 0d 3f 51 b5 64 12 c8 3f
       -0.18197747816368162 0.18806132176768423
0006c0 ca 1c ac 4f a5 ea 8a bf b1 cc b9 64 3f 53 d1 bf
       -0.013142863744646145 -0.2707060321474258
0006d0 f9 e8 2f 6b 73 de cf 3f 69 32 3f 91 b5 b4 d2 3f
       0.24897616132495395 0.29227961715949974
0006e0 2e 5f 77 1b e1 ee b5 bf 0a ba a3 7e e3 33 c1 bf
       -0.08567625923694486 -0.1343960159642424
0006f0 c7 34 47 71 b1 eb d1 3f 59 18 4e e1 db 59 c9 bf
       0.2800105673057484 -0.19805477620338044
000700 ae a0 1e d2 64 71 b7 3f fe b7 56 24 66 d3 85 bf
       0.0915740025508309 -0.010657117828340997
000710 f6 5d 0a 9d 10 bc cd bf 28 c4 b1 2d da 47 a0 3f
       -0.23230178516381245 0.031798189237527474
000720 82 0f bd c3 db 0e cf bf 2a 89 77 cf 92 05 cd 3f
       -0.24264094407601183 0.22673258905622024
000730 86 fa 08 42 60 db be bf b9 5b 12 04 7e 58 d5 3f
       -0.12053491222557441 0.33352613828304417
000740 51 95 ec fd 2e cc a6 3f d4 73 50 6f 36 f1 d3 bf
       0.04452654695186687 -0.3115974509290116
000750 e1 20 08 95 cf ae c8 bf bf 3d 77 7a b8 37 c2 3f
       -0.19283480431500435 0.14232545833372787
000760 ec e0 0c b1 df c7 d7 3f d6 70 b5 5f 1b 5a b8 3f
       0.37157432832783743 0.0951249226249645
000770 2d 7f 57 3c 92 71 c8 bf eb 08 af c4 89 6c da bf
       -0.19096591898323237 -0.41287464339633456
000780 e3 6d 62 0c cc 20 da bf e2 09 10 51 b2 20 c8 bf
       -0.4082517739240911 -0.18849781950127836
000790 90 c7 c0 a0 72 8a b5 3f 21 d7 c3 b4 80 b0 d4 bf
       0.08414379524836435 -0.32327287342865146
0007a0 fe 23 86 1f 78 82 d7 3f de 68 cd 78 2f 45 c5 3f
       0.36733820990099264 0.16617387198022632
0007b0 70 aa 2f 2e 85 5b c5 3f 09 59 76 06 dc 67 82 3f
       0.166855475952008 0.00898715872498858
0007c0 e8 c5 72 c1 49 4c c2 bf 53 df cf 53 7e 8a c2 3f
       -0.14295312829703666 0.14485148517973787
0007d0 cd 8b c1 28 ed e5 c8 3f 83 ef 57 f8 4a a5 d6 3f
       0.19451679697075833 0.35383867504400984
0007e0 fa cb 2d 16 59 a4 d4 bf ac 5f d9 11 0f 26 d2 bf
       -0.3225310055342444 -0.28357292883947127
0007f0 e2 87 22 0d b3 3c d1 bf 9e 59 42 4f da eb c3 bf
       -0.26932979853347494 -0.15563515539242884

conv2.att_src f8 [1, 1, 32]
000000 ad 1f 5f fc 7c c8 b6 3f 19 26 50 61 f6 2d e2 bf
       0.08899670754828888 -0.5681106472631569
000010 1b 17 ba fd 52 ab e0 3f 9a 83 cf 67 8c 9d e3 bf
       0.5209135966876802 -0.6129819896269624
000020 61 83 78 52 98 03 da bf dd f8 9e 1b 2e e1 c3 bf
       -0.406469421899649 -0.1553094515674677
000030 f8 3d b4 4d d3 fe c2 3f 34 83 83 f7 2a fb d8 bf
       0.14840165418762274 -0.39033006831418793
000040 3b 4c c1 43 c9 e8 c4 3f 41 d5 d4 5c fd a4 d5 3f
       0.16335407074311256 0.3381951719814716
000050 31 bc d2 30 b6 0e c6 3f 07 e3 b2 2c f0 8e d1 3f
       0.172323964919515 0.27434925427546414
000060 87 12 ba 90 0e 5f e6 bf 81 d0 16 f2 fc 50 e2 3f
       -0.699103624982471 0.5723862388899904
000070 b9 b0 fd 80 1c 74 d4 3f 26 d1 4d 99 d0 1e cf 3f
       0.3195868739774244 0.2431278942637018
000080 bd 0d 0b 13 0e 89 de bf 94 d9 8b e5 89 f5 dc 3f
       -0.47711517200169934 0.4524864904082275
000090 71 40 16 9b ba a7 e6 bf de ee 59 e5 56 2d 9e bf
       -0.7079747227708265 -0.02946983122681856
0000a0 c4 cd 6b 0a 61 f7 ac 3f 89 e2 83 83 79 c0 d8 bf
       0.056574852487667054 -0.38674772113112305
0000b0 e2 f8 27 62 5a 5c d0 bf 8d e8 e8 32 6b 60 e0 3f
       -0.25563678346214946 0.5117698664028169
0000c0 3a c5 46 73 76 96 57 3f 5f 67 0f dc 63 89 94 3f
       0.00143968169605231 0.020055351549536634
0000d0 f8 0e d3 44 c3 98 ac bf 60 6f 7a 98 3a 99 d2 bf
       -0.055852987433835766 -0.2906023491902854
0000e0 20 32 72 49 ef e7 ca bf ce f0 2d ff cf 3f df bf
       -0.21020308576807256 -0.48826980514401164
0000f0 d2 58 2c 2a 10 b2 c4 bf 34 5e 90 53 d3 bd d9 3f
       -0.16168405589332352 0.4022110286764218

conv2.att_dst f8 [1, 1, 32]
000000 37 05 7e db 98 f8 cb bf 52 c0 8a 43 95 9d 67 bf
       -0.21852408139606336 -0.002882758646897834
000010 02 24 d7 5d ed 39 c9 bf 00 9f bc 7b 1f 01 d0 3f
       -0.19708029825258683 0.25006854137107837
000020 c8 eb 32 ca 40 13 de bf c5 55 b0 b1 93 40 d9 bf
       -0.46992511507022217 -0.39456646301672677
000030 b8 08 c1 4a 13 ad c3 bf 31 1e 37 79 ff df c6 bf
       -0.15371934080218863 -0.17871087473598515
000040 3e 5c 19 a9 01 4a c5 bf ef 86 24 4c f4 e8 d2 3f
       -0.16632099873342726 0.2954684012967012
000050 d3 13 89 ff ff ee d9 3f 3f 37 07 58 bc 06 c4 bf
       0.40521240191111224 -0.1564555578065043
000060 7e 99 69 ea 7c c2 b5 3f c9 27 4c cd 7d 6a c3 3f
       0.08499890063249002 0.15168736004153363
000070 52 03 2b 4f 73 35 ae 3f 16 d4 7d e5 93 99 d2 bf
       0.05900154439360129 -0.2906236401680088
000080 3c 12 6b 5d 06 96 a4 3f 28 e2 53 76 c1 30 c1 3f
       0.04020709886893711 0.13430040624349826
000090 6a a1 a3 8b f8 fe d2 bf 19 d4 99 5c 2d ec 7d 3f
       -0.29681218754423944 0.007305314249255645
0000a0 14 90 68 0f 59 8c d3 bf 11 dc db d5 ec 57 99 3f
       -0.3054411554787759 0.02474947028437319
0000b0 8f 35 6f 15 49 81 ba bf 1e e4 16 8a 51 11 c1 bf
       -0.10353523991871881 -0.1333410190834749
0000c0 84 74 d4 db 52 2b d1 3f 03 7b 5f 32 e7 00 c8 bf
       0.26826926677478746 -0.18752756080262864
0000d0 bc c2 b2 2d d8 6f d5 3f fe cc 04 4b 08 fa c6 bf
       0.33495144331667936 -0.17950538313889547
0000e0 a1 90 b0 a6 36 e5 d5 3f a7 05 9e c4 13 39 c8 bf
       0.34211508062640844 -0.18924185848667927
0000f0 c8 d6 28 5a e3 b8 98 bf a0 97 1b a3 25 bb ba bf
       -0.024142792108441197 -0.10441813690303414

conv2.att_edge f8 [1, 1, 32]
000000 9f b5 a2 cb a7 3f be 3f 4d cb af d2 e2 43 a4 3f
       0.11815880509921904 0.039580429285612874
000010 d4 35 ba 16 3e ef c7 bf 14 d3 37 cd ab 78 ba 3f
       -0.18698860273108997 0.10340379486281065
000020 1c d9 88 f7 47 a6 b6 3f 78 20 38 bb b6 76 c0 3f
       0.08847474854778564 0.12862285749020308
000030 e0 7a ce 6c 96 8c 9e 3f 88 f0 db 02 a8 89 c6 3f
       0.029833174124742068 0.17607593669515986
000040 16 df fa 33 1b 56 c1 bf 05 2d 88 e0 14 9c b5 3f
       -0.135440254574626 0.08441286546456091
000050 06 b0 62 a5 82 b2 d0 bf ad 9f 75 c9 9b bf d5 3f
       -0.2608954062550314 0.3398198573472609
000060 6c 79 46 e2 76 43 c2 3f fe 87 81 49 98 21 c9 bf
       0.14268384979818494 -0.1963377341190266
000070 58 58 37 b9 84 c8 ad 3f 15 d7 12 33 86 42 a2 3f
       0.05817045937480775 0.03566378949601138
000080 66 99 4c cf 49 db a3 3f b9 20 10 13 c6 e9 d5 3f
       0.03878241210468296 0.3423934160387137
000090 7f a6 f7 52 0c d8 c4 bf e2 33 ff 2a 3c ac b1 3f
       -0.16284326602117358 0.06903434800842903
0000a0 41 74 8b 68 87 30 c7 3f 98 d5 8c 66 3b f5 a8 bf
       0.1811684856865288 -0.048745971935584
0000b0 23 0a 00 28 58 02 cd bf 3c 65 fc c8 61 e9 d4 3f
       -0.226634044200254 0.32674450519114706
0000c0 62 41 88 51 d6 86 d0 bf cd b3 b5 48 90 2e b6 bf
       -0.25822980844625054 -0.08664800429478632
0000d0 95 2f 74 58 4d 79 a0 bf 92 32 84 69 aa d6 b0 3f
       -0.03217546181448864 0.06577553821643736
0000e0 4a d8 ac b6 46 24 ce bf e7 de b2 b3 de fd cb bf
       -0.23548206252752585 -0.21868499540663963
0000f0 4f f3 9c 04 56 9d d9 3f 4e 3d 19 dc 38 09 d4 3f
       0.40022802782532535 0.31306287282946677

conv2.bias f8 [32]
000000 6c a8 e0 0a 32 d3 e0 3f 3f 48 00 16 2a 63 ac bf
       0.525780698056463 -0.05544406431739945
000010 fc cd d4 f3 7d 16 e1 3f 28 61 e8 13 df 7f b4 bf
       0.5339956056909041 -0.08007616268185258
000020 11 79 c1 83 73 09 b9 bf b6 ed e7 55 72 99 e1 3f
       -0.09780046431248858 0.5499812772608752
000030 9b bc 39 45 9a 89 e2 3f 9e 1e c6 e2 82 2c a0 bf
       0.5792971946774687 -0.031589594061242496
000040 f2 6e a7 a1 2f 35 e4 3f 8f a2 55 5f 90 24 e2 3f
       0.6314924390130428 0.566963373375147
000050 90 b3 72 55 aa 91 e1 3f f0 f0 67 2d 66 e5 e1 3f
       0.5490314167887949 0.5592528235279399
000060 ac 34 45 47 1c 3b b1 bf 78 bb d2 cc 82 b3 e2 3f
       -0.06730820407865917 0.5844129562809561
000070 f3 fb b2 7b 0b e9 e0 3f 8a 5f e6 cc 55 8c e0 3f
       0.5284478584288749 0.5171307565642433
000080 d6 49 f0 12 de 2f ac bf cf 82 b0 c4 6c 19 e1 3f
       -0.055052699863285134 0.5343536225883215
000090 25 e0 ad c6 6d 7a ae bf 27 d3 0e 15 d5 69 b6 bf
       -0.05952780771525593 -0.08755237354382626
0000a0 15 f6 c9 a8 82 f8 d6 3f fe d8 0f ce 86 a8 b6 bf
       0.3589178703622065 -0.08850901156242583
0000b0 d4 da 45 1b e8 fb b7 bf 32 4c c1 84 13 55 dc 3f
       -0.09368754068223534 0.4426926418720455
0000c0 75 1f 57 2a f8 5a e1 3f d7 09 3e 7c 47 13 e3 3f
       0.542354662605233 0.59610342279512
0000d0 20 e0 d2 f5 b2 ca e3 3f a8 37 73 03 3a 61 e0 3f
       0.6184935380215428 0.5118684832939282
0000e0 e0 b0 ad 28 b0 ef cc 3f 49 68 c1 d0 68 89 b1 bf
       0.22606470094922937 -0.068502951589296
0000f0 6e b2 ed 71 f8 dd b6 bf 9a 3e 6f b3 be 94 e2 3f
       -0.08932450086076368 0.5806573395329508

conv2.lin_src.weight f8 [32, 32]
000000 b5 ef b8 49 e7 ce ed 3f de 58 33 7a d6 00 df 3f
       0.9315067710772299 0.48442613538408164
000010 4d de 49 86 d8 87 e3 3f 84 c7 b1 2e 9a b4 e8 3f
       0.610332739145585 0.7720461761475552
000020 5f 32 53 49 79 1e e3 3f d1 9d e0 0f 51 f3 e6 3f
       0.5974699432495746 0.7172017393212916
000030 ab 33 e7 c2 c1 37 d8 3f cf 89 e5 9d 17 8a e6 3f
       0.3784031298972034 0.7043569644850382
000040 23 8d 64 bb f2 8f e7 3f 27 26 ff 6f 3c 45 e3 3f
       0.7363217983260352 0.6022016704020573
000050 2a 91 9e ae 18 fc df 3f d9 f6 6f e8 dc cc ea 3f
       0.49976174404789 0.8375076808731264
000060 ff 76 a7 5d a9 5b e8 3f c6 62 bc 1b dc 4a e1 3f
       0.7611891583617022 0.5403881589619111
000070 3a 3c 29 19 c3 59 d6 3f 60 7a 3a ae 4d 77 d7 3f
       0.34922864396225217 0.3666567040872106
000080 79 b5 cc 63 b2 07 e9 3f 19 5b 71 a8 3a 71 dc 3f
       0.782189555092983 0.4444109578084166
000090 d5 28 ed a0 cd da e0 3f 64 3c 3f 28 d2 98 e0 3f
       0.526709379491218 0.5186548982691304
0000a0 84 12 63 fb 62 1e ed 3f b2 a8 e1 55 2a 29 e1 3f
       0.9099593076612824 0.5362750699398673
0000b0 26 a9 01 4f 22 a6 d6 3f 8f 92 a9 45 d2 3c de 3f
       0.35389001574971457 0.4724622421547701
0000c0 3b 7d 6f 7d 67 f6 ec 3f 18 bc c1 ff 09 a8 e7 3f
       0.9050786447441291 0.7392625804185426
0000d0 0e 73 4e 61 6c ae d0 3f b6 b8 12 27 93 10 e7 3f
       0.2606459570177301 0.7207732928416337
0000e0 1a 68 27 e7 99 49 db 3f ed cf ea 88 58 09 c9 3f
       0.4263672597277278 0.19559771237766146
0000f0 0e 9c 42 65 84 5e da 3f a0 a9 a8 91 3c bb e6 3f
       0.4120188702458457 0.7103560299777207
000100 2a 76 db f1 21 5d b2 3f 97 65 71 20 17 ad e1 bf
       0.07173359064787435 -0.552379191746854
000110 da 7c 94 41 17 27 ce bf 27 e5 34 49 b2 2e c6 bf
       -0.2355679578986159 -0.1733000619367797
000120 12 44 d5 b7 46 66 dd bf 38 fd e0 c7 11 cf de bf
       -0.4593674464459251 -0.4813885166112928
000130 c4 78 82 12 0f 8f cc bf a1 2d 69 df f2 26 da bf
       -0.22311581043044815 -0.4086272413012129
000140 d3 8c 3a c1 5e 0b b0 bf e1 2e 78 ed 85 e3 ca bf
       -0.06267349450586161 -0.21006845565022217
000150 28 ae b6 77 91 eb bd 3f 69 bf 96 53 2c ba 97 bf
       0.11687573597617329 -0.023171131708010693
000160 9d 24 cb 10 b0 5d d4 bf 97 a9 49 33 60 00 d2 bf
       -0.3182182468413631 -0.2812729359490275
000170 6a 51 f4 54 5f 6f c7 bf 97 2f 6f 09 13 08 b4 3f
       -0.18308631561434235 0.07824820499734951
000180 a6 ec 91 25 f7 fb cf bf 4b d3 1e 47 3e 5a c9 bf
       -0.24987687429879663 -0.19806650612522456
000190 c7 c0 ce b8 26 04 98 bf db 63 31 80 b9 b4 c4 bf
       -0.023453335790407672 -0.16176527747555167
0001a0 8c 97 cb 43 fa a3 ca bf 61 89 bd 5d 44 40 e0 bf
       -0.2081291991264006 -0.5078450995318172
0001b0 c0 a4 9e 64 02 fe c5 3f bd 1a e0 10 7b 8e a4 bf
       0.17181425011702878 -0.04014954167364724
0001c0 94 fb b5 dd dd 88 d9 bf ae cf 3b 85 85 59 d2 bf
       -0.39897867824031974 -0.286713962660765
0001d0 7d 3e b2 26 81 ed b9 3f fb c7 6c e5 51 7e d5 bf
       0.10128028101666504 -0.3358349552610204
0001e0 2b 2c 6d 08 f3 80 c5 bf 5e 5f f1 8b 9d 73 cb bf
       -0.16799772178123482 -0.21446580250880748
0001f0 2a 61 df 94 da 12 ae 3f 68 63 89 c4 fd 37 cc bf
       0.058737593338891905 -0.22045871826665153
000200 23 2d ea 91 d9 7b df 3f a4 56 bd df 75 57 e9 3f
       0.49193419694411683 0.7919263238824965
000210 e8 c9 3a 99 33 ff e4 3f 97 f5 95 e8 d3 ab e3 3f
       0.6561525337950203 0.6147250693026532
000220 27 d5 27 ba 58 40 e3 3f 7a bd 36 54 63 27 d4 3f
       0.6016048084117401 0.3149040529633208
000230 8c fc 2b 3c 74 6d e5 3f 16 a8 02 cf 88 0d e9 3f
       0.6696110892516045 0.7829021495028907
000240 bf 52 93 30 57 a6 e8 3f 3d 3d f0 27 79 3c ec 3f
       0.7703052471866484 0.8823819904372737
000250 c6 70 d7 65 a0 15 eb 3f 55 5a 16 bb 6e b1 e8 3f
       0.8463899602025087 0.7716592458771837
000260 fb 4f 39 09 df c8 d6 3f 8b 97 0a 1e d9 36 ea 3f
       0.3560102071835442 0.8191953264947512
000270 7c 73 ec be a5 df e8 3f 19 32 e8 bf 3f fc e0 3f
       0.7773007134415901 0.5307921169456363
000280 de 91 51 34 bb 09 e0 3f 33 3c 70 d5 6c 55 d9 3f
       0.5011878988121301 0.39583893626781047
000290 0e 55 1e 0d b8 34 ce 3f 10 dd 80 45 02 be df 3f
       0.2359838546805481 0.4959722212547186
0002a0 22 fb 7a f3 f6 87 da 3f cb 01 93 90 21 61 e6 3f
       0.41454862382299684 0.6993568252292389
0002b0 49 1f ce ea 2e 52 e4 3f 59 02 c1 d5 5f b4 d9 3f
       0.6350321374929787 0.4016341769638863
0002c0 79 39 2d 6d f5 d0 e9 3f 90 6f 67 1c f6 f4 e6 3f
       0.8067576534611326 0.7174025110975766
0002d0 44 cc 6f 63 43 d2 e1 3f 23 a8 3e 8d f4 7b dd 3f
       0.5569168989299063 0.46069062989647785
0002e0 45 4e c4 72 ea e6 cd 3f 26 b4 28 42 5a 99 e1 3f
       0.2336094913849697 0.5499697963874766
0002f0 81 e8 cf b9 87 80 de 3f 4f 06 47 03 87 23 e8 3f
       0.4765948595592207 0.7543368400585652
000300 56 16 28 b8 5b d3 cf bf 27 fd b2 18 c1 f7 cb bf
       -0.24863764278431927 -0.21849836069120807
000310 f7 e9 15 28 3a 92 d0 bf 61 d5 44 96 29 24 dd bf
       -0.25892499842271327 -0.4553321807355442
000320 50 27 ab 58 3a 10 ad 3f 89 45 e8 c9 bc 44 6b bf
       0.05676443416957844 -0.003328675010614905
000330 06 fa 65 52 ff d4 d4 bf 03 96 19 44 6e 88 b3 bf
       -0.3255003266021109 -0.07630051767917938
000340 5e 86 94 a6 8e e8 6b bf 65 63 8b 6d 23 28 d1 bf
       -0.0034067903658446105 -0.2680748529215207
000350 49 10 9a e3 72 7a ca bf c3 0a e8 dd 17 cc b9 3f
       -0.2068618403756111 0.10077046554219309
000360 55 67 2e 12 a0 99 b1 bf ce fe d6 1c 6e 9c d9 bf
       -0.06875038570288201 -0.4001727372778817
000370 86 ec c3 ca 9e 5c 91 bf 98 53 45 2b d5 6d bc bf
       -0.016954880834401574 -0.11105091387191945
000380 44 5b 9e 21 c2 09 ca bf b7 3b fa bc a3 34 c2 bf
       -0.20342280046016914 -0.14223143317619044
000390 6c 7d f3 93 70 46 bb 3f 6d 36 99 e9 80 60 c6 bf
       0.10654357540214726 -0.17482005506683454
0003a0 eb 6e 4c 0c 3a 8c c5 bf 56 04 a6 af e4 a9 96 3f
       -0.1683418808032607 0.022132466526731363
0003b0 d8 7a 87 32 1d 6b ba bf 15 c1 ac e0 ce e5 dd bf
       -0.10319693072913638 -0.46715137425327785
0003c0 f0 78 89 49 e6 3d c0 bf 6c ae 64 f9 14 e3 c3 3f
       -0.12688902464555651 0.15536749055296484
0003d0 e1 5e 5d e2 4f f8 c9 3f f5 23 bf 5b 1e 6c 95 3f
       0.2028903823181656 0.020920252179880767
0003e0 09 25 c5 12 f5 6d c0 3f 7d c3 14 94 13 fc bf bf
       0.12835563103207218 -0.1249401318098204
0003f0 3b 79 fb 04 ea 05 d0 bf 15 20 26 57 82 34 d4 bf
       -0.25036097036890553 -0.3157049037040463
000400 7a 5e 1b c8 31 f3 ca bf a8 78 4c 72 09 c3 be bf
       -0.21054670592160446 -0.12016352692123411
000410 ac 69 bf 9a 7a 0e cf bf 9d 74 40 9c 19 2f 92 bf
       -0.24262936168709126 -0.017757797395564812
000420 de e4 ca 52 bc 80 b4 bf 72 28 ac 58 21 27 c3 bf
       -0.08008934994986158 -0.14963166074477702
000430 83 49 94 9d 5e 70 ba 3f 25 58 e0 7f d4 ac a8 bf
       0.10327712390088632 -0.048193588838487046
000440 54 52 70 69 dc 9a d0 bf ba 58 fc d7 ba be ba bf
       -0.25945196434739626 -0.1044728066738995
000450 50 c0 28 d4 e3 14 b4 bf 6e c2 c6 43 26 5b d7 bf
       -0.07844375543277349 -0.3649383222464512
000460 c4 8a 51 77 da 67 d1 bf ad 79 d7 0d 90 39 a5 bf
       -0.2719637074680288 -0.04145479363409108
000470 44 2f 3a f9 32 b5 c0 3f 1e 2e 5d b9 4d 17 da bf
       0.1305297581606003 -0.4076723394580045
000480 7f b3 a0 97 78 95 94 3f cb c5 45 91 52 20 cd bf
       0.020101436857817397 -0.2275489053095455
000490 a9 9d 95 b7 b3 7b b5 3f e6 94 2a b6 b6 74 c8 bf
       0.08391879303018492 -0.19106181998100807
0004a0 52 94 bd 49 cc 57 b4 3f f0 ca 0a a5 df ae b2 3f
       0.0794646911650301 0.07298085955953204
0004b0 6a 59 7f 46 54 84 d2 bf e0 9a 23 5c 27 48 a6 3f
       -0.2893267334415187 0.043519239423224
0004c0 17 2d e7 58 03 55 a9 bf cd 29 6f d6 b6 ae d8 bf
       -0.04947672329179847 -0.3856637090763371
0004d0 32 33 d1 bf 9a 64 cd 3f 3f 48 e0 28 44 da a1 bf
       0.22963270536492925 -0.03486836432433948
0004e0 a5 8b 66 11 77 ec c1 3f 1f ff 5e 07 33 a9 d6 bf
       0.14002884244572758 -0.3540771076186377
0004f0 2e 67 8f a6 c2 1d d2 bf 8b a9 5b 5a 21 18 d1 bf
       -0.28306642785684033 -0.2670977957156075
000500 57 26 48 8b 83 20 e8 3f 05 c3 04 07 84 d8 e5 3f
       0.753968975100359 0.6826801430780455
000510 aa a5 3e ca 29 16 eb 3f 1f ec 72 18 45 8c e2 3f
       0.8464554739086243 0.5796227910535697
000520 78 7c 37 aa 14 f6 e1 3f 95 1a c1 90 4d 88 e6 3f
       0.5612891506715547 0.7041385485870985
000530 4b ea f0 39 04 bd e7 3f b9 f5 b1 e7 c1 9e d6 3f
       0.7418233043347952 0.3534397852561955
000540 9c fc 1d 72 58 28 e4 3f 4c 66 a1 be aa 9b dd 3f
       0.6299249867296512 0.46262615791565476
000550 01 57 24 55 a3 de e6 3f 20 89 96 5c 0a 11 db 3f
       0.7146774924210321 0.42291506807136336
000560 b8 7e 71 a3 92 65 d0 3f 39 c6 20 b8 fd 3c de 3f
       0.2561995121122709 0.47247260075809866
000570 96 27 80 10 c5 8f e6 3f 56 34 a7 88 3d 45 dd 3f
       0.7050500223424361 0.45735109658273154
000580 ad 73 f3 e5 a2 b9 e1 3f e5 de f3 de 6c d4 e6 3f
       0.5539106837492135 0.7134308199447018
000590 05 88 76 8c 99 70 e5 3f 24 c3 3a a5 db 4e d2 3f
       0.6699950927179549 0.28606310973832394
0005a0 8a 3c f9 1a 4d cd d4 3f 12 7e d1 4a a0 e7 e6 3f
       0.3250305903829448 0.7157746754928118
0005b0 bd 48 8a 14 0f 2a d3 3f 3a 59 58 65 0f 92 d2 3f
       0.29944207197071276 0.2901648034761767
0005c0 c1 7d 8d 94 97 2f d9 3f d4 39 d2 78 e5 37 da 3f
       0.39352979189967746 0.40966164397187055
0005d0 6e 28 4f 9f 97 46 d3 3f ac 8b 8d cb 1e 22 e6 3f
       0.30118361051120857 0.6916650748865911
0005e0 40 b7 fc 6e 09 ed ca 3f 11 05 50 05 6c 42 e1 3f
       0.21035879058165996 0.5393581489335323
0005f0 57 fa b0 16 bf c0 da 3f bf c2 93 6d 89 44 e0 3f
       0.41801430908154685 0.5083663120440959
000600 4e d9 39 02 dc 8f e3 3f 15 ae 8e c5 1a af ea 3f
       0.6113109630085007 0.8338750704328414
000610 3c d6 b6 18 11 05 e4 3f be 7c a9 68 0c 52 e5 3f
       0.6256185038279862 0.6662656826191762
000620 ac 6a 5f 39 8f 39 e8 3f 7e 26 e4 ac 1a 7d e0 3f
       0.7570263023911443 0.5152715088635913
000630 ea e5 2d 3d 13 6c e3 3f 9f 45 2a a5 58 d5 e8 3f
       0.6069427676113126 0.7760432458764405
000640 29 ca 65 1f 96 64 d6 3f 32 23 5d c3 c6 92 e6 3f
       0.3498893076531738 0.7054170432757927
000650 87 a3 50 a9 57 25 e3 3f e3 13 34 5d e7 59 eb 3f
       0.5983084017690182 0.8547245808009588
000660 a8 d3 c9 cf e1 db e7 3f 7f 6c 15 9d ee 9b e6 3f
       0.7455910738341247 0.7065346782723195
000670 eb 3e b9 91 98 58 e4 3f 81 81 2b 84 e0 c5 e0 3f
       0.6358149381794339 0.5241549092716441
000680 ab 56 17 3f 3c ea d8 3f 23 56 88 44 b5 57 cf 3f
       0.38929659043547343 0.24486413809124583
000690 f3 4e aa e0 6c 93 e6 3f a7 09 fa 35 25 3b dc 3f
       0.705496252822256 0.4411099459759051
0006a0 a6 4c 54 b5 6e 8b e2 3f 7c 79 03 5d 92 13 eb 3f
       0.5795205632770333 0.8461391274138772
0006b0 26 89 d0 9d 90 d4 cf 3f c4 48 7f dc 4f ae e3 3f
       0.24867446618834171 0.6150283152185456
0006c0 93 fa 21 34 39 55 e8 3f ed 64 31 4c 48 db e8 3f
       0.7604032533852937 0.7767678726333124
0006d0 f1 72 f7 07 b4 2c df 3f e0 9a 10 af 15 fc df 3f
       0.4871034696387105 0.49976102920702026
0006e0 e5 10 ce dd b8 10 dc 3f 54 f4 c7 14 4c c4 db 3f
       0.4385206380905074 0.4338560297908931
0006f0 9c c3 8a 6b a7 34 e8 3f 6b 5f 5f 00 40 4f d0 3f
       0.7564274883680926 0.25483703647977646
000700 3a 8d 2f 0f 86 27 db bf 5d 59 25 f8 d7 a7 c7 bf
       -0.4242873333261802 -0.18480968109606524
000710 c8 00 f4 a7 75 2b db bf db f2 17 03 a0 a8 81 3f
       -0.4245275631110528 0.008622408003242146
000720 d4 aa 1d 3e 3e 81 c8 bf e2 3a c2 ef c9 04 cb bf
       -0.19144418747904146 -0.2110836430260497
000730 65 9d 6b d2 d4 44 d7 bf 7b c1 7f 0d 4b cb b7 bf
       -0.36357613133301064 -0.09294575767103723
000740 80 d2 a1 b8 77 f7 bf 3f 9e 8a bf dd 3c 96 bc bf
       0.1248698068391807 -0.11166744626783973
000750 35 41 a3 9e 6b ba c5 bf 9c fd c2 1c 64 4d 90 bf
       -0.16975159879667392 -0.01592022347972276
000760 23 6a 72 58 2c 47 85 3f b0 56 1e ed 81 10 dc bf
       0.010389658402620466 -0.43850753933052555
000770 30 5f a5 74 c4 1e e0 bf 1d 24 f9 37 6f 7e e0 bf
       -0.5037557867280835 -0.5154338925577836
000780 ac be 4d 84 19 eb d9 bf e6 26 64 28 48 f4 d6 bf
       -0.40497434540064137 -0.35865978187994896
000790 c6 b6 27 1a 1a 2a 73 bf 31 f5 01 6c ae 2d d1 bf
       -0.004678823434444096 -0.2684131674539741
0007a0 c0 f9 f0 c6 22 dc c2 3f 85 2e d1 f1 21 0c cb bf
       0.14734301294261165 -0.21130775744892474
0007b0 7f 43 9f 17 f2 c8 bd bf d0 ed f1 4b 1b dc d1 bf
       -0.1163474376364899 -0.27905924240596125
0007c0 66 63 13 2b 7f c7 dc bf 41 05 f8 ec 28 73 b1 bf
       -0.44967631537070074 -0.06816345010158377
0007d0 15 54 ed fe 37 70 be bf 01 21 52 09 55 ca be bf
       -0.1188998219852951 -0.12027484395560252
0007e0 3b f2 71 09 4a 15 d7 bf 3c fe a7 21 68 fc d8 bf
       -0.3606743900525406 -0.3904056862520269
0007f0 f6 8c a1 91 d9 46 ca 3f 69 ac d9 78 11 10 a6 3f
       0.20528716669932806 0.04309134102080565
