models/model_0.05_250_out_of_500.pt (torch, 53307 bytes, 16 tensors)

conv1.att_src f8 [1, 1, 64]
0	0x40158ebb8f3e8bc5	5.3893873578953775
1	0x4015ba75f3056079	5.432090565875222
2	0x40154752280dde3e	5.319649339529461
3	0x4016965f891c2926	5.6468488143384885
4	0x4013a7534b0c922b	4.913403675691863
5	0x401442460c21e6f4	5.0647203345958935
6	0x4014f7f46e49a858	5.24214336704798
7	0x4014345f6037bf1e	5.051145079996585
8	0x4017eaa1e6eedc9c	5.979133232430424
9	0x401461ccc50b9f12	5.095507696947395
10	0x4014123488315e39	5.017778518689334
11	0x401273b0ca25717a	4.612979086432796
12	0x4013237c95e7b6f6	4.7846549437215256
13	0x4013fbf6e5e0db81	4.996059028481683
14	0x40153e01b95e387c	5.31055345189645
15	0x4014a3b75d456ca5	5.159879166948632
16	0x4017281fbb430244	5.789183546032806
17	0x40142463aa686657	5.035536444303566
18	0x4014dae56d0cbbc3	5.213765815641582
19	0x4013b413e7f25fa4	4.925857185524283
20	0x40156a332fb04680	5.353710885175701
21	0x4012889432840e21	4.633377827939996
22	0x4013ca2c88f4ae36	4.94743551247989
23	0x401636c16668bfaf	5.553472137587888
24	0x4013672da764c3b9	4.850760093236141
25	0x4016388a7679383b	5.555215693615589
26	0x401751c2d9026db6	5.829844847462871
27	0x4015329a15baa1d4	5.299415912166712
28	0x401452135ad8543e	5.0801519579445635
29	0x4014e6e870870d1e	5.225496061556695
30	0x4014d117eb264794	5.204192804538156
31	0x40169b3945ccda6b	5.651585665348288
32	0x40146e5c76093c77	5.107774586023075
33	0x4013a16020c2d47e	4.9075932616152596
34	0x4013df254dccc045	4.96791574060632
35	0x4014063fb4b660f9	5.006102393752593
36	0x40136f2ddc60a577	4.858573382757974
37	0x4016a418bf799624	5.660250655933428
38	0x4017708cdec298cb	5.859912377002
39	0x4013ea45995c64b9	4.978781124366997
40	0x40150fb7499027a7	5.265347623275296
41	0x401437f1a97b12db	5.054632805001087
42	0x4016f16b3df4b04b	5.735760658321008
43	0x40172354164a0158	5.784500454203531
44	0x401707e61d2c6401	5.757713752588644
45	0x4013e10823da7ccb	4.9697576143364115
46	0x4014d938ee17afb0	5.212131233401962
47	0x4014b28942ae97b3	5.174351732164655
48	0x401575786c292ae3	5.364717187893549
49	0x4013cd45e2488abd	4.950461898496255
50	0x40163c899f9e6679	5.5591187420301305
51	0x401545910d571ded	5.317936142389482
52	0x4012f0162ec767a5	4.734459620400149
53	0x40166618ea2a483d	5.599704417067241
54	0x401524aee814a7a6	5.285823465595888
55	0x401387ce54850245	4.882623024576394
56	0x401516b8c58cb1c2	5.27218922301512
57	0x40144d59d826b1d8	5.075538041459787
58	0x4014ad927ce128cc	5.169504119150769
59	0x4015ecd5095a6817	5.481281419890386
60	0x4015ed1801761cce	5.48153688701059
61	0x401396fdefc06b88	4.897453065986049
62	0x4014647dc8401149	5.098136071119662
63	0x40151ef0479fd7fc	5.280213469630322

conv1.att_dst f8 [1, 1, 64]
0	0xbfb7636354dd909f	-0.09136029073630646
1	0xbfded33e18bf94ea	-0.48164322296936624
2	0xbfcc0005d2780313	-0.21875069405361866
3	0xbfd07ed6b0a54b1f	-0.2577416157775349
4	0x3fc15713d959449e	0.13546989548425342
5	0x3faee2e1a38ae4f5	0.06032471772545903
6	0x3fbaa9762b64bae6	0.10414827880297714
7	0xbfbe319f9fa2e783	-0.11794469497081476
8	0xbfcdb39a95709ff4	-0.23204357430336098
9	0x3fac43f6115cf261	0.0552060028262289
10	0xbfb4e3238a4617e8	-0.08159086347413302
11	0x3fa773219807ef09	0.045800256546469305
12	0x3f21d8ad2ed0e21a	0.0001361571698070975
13	0x3faacc173222def0	0.052338337774413435
14	0xbfccdcb4820d4cd8	-0.22548538541977936
15	0x3fc2d996f8b192bc	0.1472653116535606
16	0xbfaa01eea705f0f5	-0.05079599179132003
17	0xbfc7fc06cd4c0531	-0.18737874054208128
18	0xbfc0b040f3ea5944	-0.13037883672650186
19	0xbfc118027d94759e	-0.13354521877128617
20	0x3f854e32f2e03f5e	0.010403059041010184
21	0x3fa9e4224ee752a2	0.05056864941767471
22	0x3fb642fc9a654904	0.08695963639664589
23	0xbfb6cb229a732d9a	-0.08903709669828289
24	0xbfb240b33a93e0dc	-0.07129974537008671
25	0xbfd4fc77ee2e632e	-0.3279094530094423
26	0xbfd272a52ea15d1a	-0.28824739030592783
27	0xbfb21e569b42c5aa	-0.07077542582080434
28	0xbfc0f5913ea29de6	-0.1324941211544079
29	0xbfb3bcfc2472179f	-0.07710243119990288
30	0x3fb81b11268b0788	0.09416300955765966
31	0xbfdde2c5a29d2a64	-0.4669660652186052
32	0xbfcb3e0a208a01c2	-0.21283079708883973
33	0xbfd43fd04f1abb38	-0.3163948795799345
34	0xbfc94568f859e2f7	-0.19743072630424027
35	0x3fc5838fab88d903	0.1680774295397854
36	0x3fc13be5df61bf25	0.13464044005694933
37	0xbf938c69ffd05797	-0.019090324629437907
38	0xbfd13908bb1550cb	-0.26910608548974996
39	0xbfa6c51a4741ebec	-0.04447252387850384
40	0xbfb1ebd8738074e0	-0.07000496692531355
41	0xbfd00afdf3d5f552	-0.250670898552774
42	0xbfd43c88617e8af7	-0.3161946251004077
43	0xbfdb4b52aa287319	-0.4264723455142288
44	0xbfc60105d73fdb43	-0.1719062138579038
45	0xbfa3272db825a899	-0.037408283928770554
46	0xbfb52c23ed47cda5	-0.0827047781274844
47	0x3fc71708f81cff33	0.18039047350793566
48	0xbfb2ee93f3a69acd	-0.07395291040902947
49	0x3fd5438790ef8b93	0.33224667695883986
50	0x3fa69c0304b1402b	0.04415902550010772
51	0xbfc76287b525609d	-0.18269440026302144
52	0x3fd0c7569abef641	0.2621666442099447
53	0xbfcf44878edd4af4	-0.24427885509302139
54	0xbfc7ad988af4be6b	-0.18498522553408078
55	0x3fb30f294348287d	0.07445009129165388
56	0x3f7fd5ed28384a4e	0.007772375483471606
57	0xbfcae88f13acff9b	-0.21022213421565258
58	0x3fc179e8abf9c4c4	0.13653286359070738
59	0xbfdc1e5114906f27	-0.43935038574430724
60	0xbfaaa11a6c7091e8	-0.05201037000395897
61	0x3faa4d7b1d2caa59	0.05137238246091575
62	0xbfbd379ef8aefe4f	-0.1141299588334672
63	0xbfc7ab61854897a9	-0.18491763122545748

conv1.att_edge f8 [1, 1, 64]
0	0x3ff16c316acff65d	1.0889143154485261
1	0x3feb8923383c2277	0.8604904268587025
2	0xbfd9f54ecafc8fbd	-0.4055973989763933
3	0x3feb0e913e04541a	0.8455282412784328
4	0xbfebdc667c5d464c	-0.8706543377867972
5	0x3fd22605802494aa	0.28357064737276494
6	0x3fe25e376a572ede	0.5740010334934273
7	0x3fd8568a7c3584ce	0.3802820408801154
8	0x3fe1023b78cab059	0.5315224990095074
9	0xbfb5bd3204601442	-0.0849181423837573
10	0xbff26b027d70b973	-1.1511254215252762
11	0x3fd96b13541205a9	0.39716036996841325
12	0x3fe0257b585f83d1	0.5045754171406945
13	0x3fd18c2d1e4d8ac3	0.2741806789328331
14	0x3ff3021cc15cb397	1.1880157044608717
15	0xbfeb301bc18fb980	-0.8496226101395195
16	0x3ffc823035e36cd6	1.7817842583670447
17	0x3ff9722dce25c752	1.5903757145537907
18	0x3fedd5057aed18d0	0.9322535897161064
19	0x3feac99b007a135b	0.8371100434602384
20	0x3ff78a795862b2fa	1.4713071301040928
21	0x3feb821b28b2e5ae	0.8596320910357258
22	0x3fe3a995c029fef7	0.6144512894825017
23	0x3fe72eebb2146033	0.7244776228062676
24	0xbfd05085cc365e44	-0.2549147123586162
25	0xbfea2f7909ace108	-0.8182950200053094
26	0x3fe309e91cc7bca1	0.5949597894777022
27	0x3ffc3f6c9badaa5d	1.7654844361483335
28	0x3fe36210cfb6a104	0.6057209069158778
29	0x3ff7beb0af360249	1.484055218141423
30	0xbfe9e90baf73895e	-0.8096979548247807
31	0x3febf047a45c1d23	0.8730810365822531
32	0x3fe99fcf9143a466	0.8007581555549563
33	0xbf7999d9f11876bf	-0.0062502396918071015
34	0xbfeb07c098b85029	-0.8446963293849922
35	0x3fe14ed6e65bed4e	0.5408739566040965
36	0xbffddb3a0d63bc7e	-1.8660221598654796
37	0xbfe9a27b59e5425b	-0.8010842090389575
38	0xbfe4e96b9a5a4295	-0.6534936918925093
39	0xbfecbbb4c83024ce	-0.8979133520052984
40	0x3fe94ca91a7924af	0.7906079785399437
41	0x3ff0b6892315aa37	1.044564377831774
42	0x3fe73f777768e1a1	0.7264973957272113
43	0xbfd4462273c595f1	-0.31678067499009815
44	0xbfe73b2c6cea428b	-0.7259733321426024
45	0x3ff746f04cb38dc8	1.4548190113208523
46	0xbff5c88be0e28d20	-1.3614615234917622
47	0xbfe0a4b09d8c8474	-0.5201037480475308
48	0xbfaf82c5cefa097c	-0.06154459144183286
49	0xbfe331a66051c5e9	-0.5998107796896736
50	0x3ff011d5496a808e	1.0043537967503968
51	0xbfe022eedbf45e57	-0.504264287565955
52	0x3fff1c8f1c7ef13a	1.944472419082628
53	0xbfe9bd760a008e5a	-0.8043775744776653
54	0x3feb99ffa8028fc7	0.8625486642308652
55	0xbfec2a496e65ede2	-0.880161967870148
56	0x3ff9ca0cccd0b2f5	1.6118286133379887
57	0x3fd41a3356b39f5d	0.3140991541572385
58	0x3ff4663271e74248	1.274950451788884
59	0x3ff3dfad5594fbb0	1.2421086638494039
60	0x3ffd439b2aee83e8	1.8290054013270893
61	0xbfde5bd595ba28f2	-0.4743551218204082
62	0x3ff02416090c0eba	1.0088100770380337
63	0x3ff6b408d54bcad6	1.4189537364842884

conv1.bias f8 [64]
0	0x4054f4c7d5d2bbf0	83.82469697551255
1	0x4054b648cd411994	82.84819346768774
2	0x4054d53960bc7aad	83.33162706762478
3	0x40550ca2da9590b2	84.1974398098562
4	0x40551f3e1f5e1e1b	84.4881666583173
5	0x40550e0fd81ce902	84.21971705268155
6	0x4054ee3522cd1079	83.721993160494
7	0x405541b3d449386e	85.02660090589936
8	0x40551e83cc3a00ae	84.47679429687807
9	0x405522e51595f488	84.54523219722807
10	0x405516845f28fb2b	84.35182932855666
11	0x4054e90a28930e32	83.64124502526172
12	0x4054fcaf59083dbf	83.9482023792725
13	0x4054fd994465cf24	83.96247968618678
14	0x4054baafce007d42	82.91698026702673
15	0x4054f89470637081	83.88405999861608
16	0x405525fd163b57ad	84.59357219500698
17	0x40551cd83f2b4215	84.45069865440776
18	0x40551937846f19bd	84.39401350831663
19	0x4054f4231c5c9749	83.81464299242101
20	0x4054f6a1fe718115	83.85363732418439
21	0x40550a575e9cf827	84.16158261612928
22	0x4054ff1623872c16	83.9857262439767
23	0x4055245994220cca	84.56796744656745
24	0x40551297ca951c69	84.29051460801715
25	0x4054f43410087052	83.81567765068147
26	0x40552ef8957c2b02	84.73392235875875
27	0x4054fe75391ce24f	83.9759047300406
28	0x4054ce4ccf87a5c1	83.22343815085243
29	0x4054fa2838c19bbd	83.90870493800226
30	0x4055541356ca0ea4	85.31368036014698
31	0x40550826c4418713	84.12736612700637
32	0x40552e4ae8a39c4e	84.72332206704706
33	0x405502fa277381aa	84.0465181949609
34	0x4054ff6f417c45ef	83.99116551528981
35	0x40550362374455cb	84.0528696219764
36	0x40551d0370a5c5e5	84.45333496273777
37	0x40550cd85c02b602	84.20070553078406
38	0x4055179cfa0bdef2	84.3689561000754
39	0x4054c79f58b13583	83.11910073571748
40	0x405529d557dcfb46	84.65364643650273
41	0x4054ed21ada16511	83.70518055688105
42	0x405500d3714dc354	84.01290543169063
43	0x405508f533f17064	84.1399659974864
44	0x40551296e33b65e3	84.29045944977365
45	0x4054c8d6b9044ca4	83.13810563487874
46	0x40550a08586cc80d	84.15675936339558
47	0x4054feabe2bc0a8c	83.97924106944464
48	0x4054d717c14fb1dd	83.36082489760106
49	0x4054f91fd7b31ed3	83.89256851665714
50	0x4054d32e77aed663	83.29971115182848
51	0x4054e10f895816de	83.51657327272866
52	0x40550e48e37e818e	84.22319877008542
53	0x405529d3d41b587d	84.65355398817515
54	0x40551c6d5deac5e1	84.44417522360847
55	0x4054eed78ed6d847	83.73190661412183
56	0x4055240362a2b6ff	84.5627066220295
57	0x40551d508aee220b	84.45804093604254
58	0x40550478a1e5d161	84.06986281817582
59	0x40553916fc58f5f6	84.89202793777062
60	0x4055148d1a52b791	84.32111223295057
61	0x4054fe57962e4830	83.97409586448407
62	0x4054e96833c6f2ae	83.64698500088227
63	0x4054be21e858b515	82.97081955588176

conv1.lin_src.weight f8 [64, 3]
0	0x404bd61b1c227019	55.67270232850587
1	0xc05327010df1c7a7	-76.60943935977285
2	0xc05354c0f7a9858f	-77.32427779726844
3	0x404988e074fe7d22	51.06934988428317
4	0xc052abb224235a24	-74.68274787380557
5	0xc05332429b0715cf	-76.78531528179086
6	0x404b91a4e610ec0a	55.13784480882903
7	0xc053136b3dbd8639	-76.30342048176034
8	0xc053738c71236e31	-77.8054468961716
9	0x404c46d43cb079dd	56.55335196129793
10	0xc0530556562e7c66	-76.0833945707287
11	0xc05387ee18277c73	-78.12390712600772
12	0x404b64c2026c6124	54.787170699042946
13	0xc051fd3f79514870	-71.95699913919248
14	0xc052df02a9d9f85f	-75.48453756605294
15	0x404bf162303b7165	55.88580897238243
16	0xc052a119f1ee0703	-74.5172085594641
17	0xc053a3a14493f21f	-78.55671801040488
18	0x404b7e5201cbf185	54.9868776555841
19	0xc0524a19d6d06444	-73.15782709456204
20	0xc053728fe6caef9e	-77.79003305261583
21	0x404be7203816e344	55.80567074887816
22	0xc0529971a08b9ad8	-74.39756024964606
23	0xc053e2bcbda36822	-79.54276982267086
24	0x404baf15983906de	55.36784651550782
25	0xc052f4f70eaca09a	-75.8275791822256
26	0xc05386c29d1a0610	-78.10562827626586
27	0x404c05bc21a0eb03	56.044803813527345
28	0xc051dde062a0f7d7	-71.466820389934
29	0xc0533e66d50677e5	-76.97502637511896
30	0x404c89eaced86359	57.07747827115845
31	0xc051f295121da4e1	-71.79034855742385
32	0xc053856660dca9a0	-78.08437367962915
33	0x404c5106eb584e7e	56.633023660772764
34	0xc051e7f505ece5d2	-71.62433002600235
35	0xc05372ea50a4247e	-77.79555145291849
36	0x404bee59b82386c0	55.862113015505656
37	0xc0522123f63969af	-72.51781993490907
38	0xc0530f685924e9e9	-76.24074390988211
39	0x404b84ba2209d9ca	55.0369303272342
40	0xc05261834486cd1b	-73.52363694347552
41	0xc0536b4a3cb21a91	-77.67640607254931
42	0x404a93d37a9993b1	53.154891324032526
43	0xc052c56c366a40e3	-75.08472977043452
44	0xc053103078765645	-76.2529584079394
45	0x404be16d5eb3cab9	55.761150205410964
46	0xc052399ce362ad9f	-72.9002006972937
47	0xc052e53e2bcb91b1	-75.5819196212749
48	0x404bff467637c90f	55.99433782314201
49	0xc0534abe95dca473	-77.16788240954502
50	0xc05397ad9ef70b21	-78.36997198224391
51	0x404bd903fc27ffa4	55.69543411210114
52	0xc0525f7db7273826	-73.49204806165707
53	0xc0538acbf89bccd8	-78.16869940962658
54	0x404c36a23baab1fe	56.42682596049052
55	0xc052c61640b975ba	-75.09510820494953
56	0xc05397d0e102bb34	-78.37212395922398
57	0x404aeb6e4d91fa67	53.83930368068541
58	0xc052812b50b07b7d	-74.0182687495671
59	0xc053594f164ed6a7	-77.39545209597655
60	0x404b2cd91f8a26d7	54.35037607427301
61	0xc05325c1ebdb8dd6	-76.58996101799798
62	0xc0538ff4a352c17e	-78.24930651742577
63	0x404c3afb3bccb010	56.46079204077262
64	0xc05186e35b88e4b5	-70.10762680405135
65	0xc05370da47509cc3	-77.76332266685772
66	0x404ae61564c996a5	53.79752788394152
67	0xc0526d555e2524a2	-73.70833543421989
68	0xc0535bc1443d7126	-77.43367105484194
69	0x404bcd704a367559	55.60498931559659
70	0xc0527c0693b2add0	-73.93790142487637
71	0xc053836912763b3d	-78.05328809305225
72	0x404c6b9365371f79	56.84043564979124
73	0xc051f95f89329edd	-71.89645605033316
74	0xc05329a1a1639b71	-76.65049013831391
75	0x404c6970e0007e0c	56.82375717186014
76	0xc052ad9346db0b02	-74.71211406126898
77	0xc05381e06c98b333	-78.0293227664195
78	0x404b5b91f090d95a	54.7153912265082
79	0xc053529b3b9b8b00	-77.2907246607756
80	0xc053baac3337b4dc	-78.91676025810324
81	0x404bdbbdeb5d92e3	55.716733380022355
82	0xc052729a2c0d9e97	-73.79065991716412
83	0xc05386f3bac49cec	-78.10862607193457
84	0x404ad2bc044fe879	53.646362818734765
85	0xc052d5eb7f98a1c5	-75.34249868302784
86	0xc0538a74d27dcea0	-78.16338026319363
87	0x404bbf23f5c4cf11	55.49328491315658
88	0xc0523ea9a4dccc8d	-72.97910424768834
89	0xc0532222490e10a2	-76.5333426129678
90	0x404c5ce4ae29c584	56.72572876968027
91	0xc05293bb0f9d7676	-74.30829229714604
92	0xc0538894772b4dd9	-78.13406161526599
93	0x404bfe0605ce1d93	55.98455879749522
94	0xc052af9608c36edd	-74.74353236279735
95	0xc05383e989aa11f1	-78.0611290131417
96	0x404c00f979559fc7	56.007613341149
97	0xc0529d3cb5717e12	-74.45683036883591
98	0xc0539b456a6df34d	-78.42611180054992
99	0x404bd04fc9184ff5	55.62743486106039
100	0xc0521a7c6c5cfe5f	-72.41384419518862
101	0xc05346b178f473b5	-77.10458206054939
102	0x404b1fcf47c7574d	54.24851319535683
103	0xc0528df36667b47a	-74.21798095824661
104	0xc053b7c511d99b27	-78.87140318155853
105	0x404ac6c051ed9279	53.55274414158061
106	0xc051ffb36911c557	-71.99532534346996
107	0xc052ecd76c61cac8	-75.7006483988763
108	0x404b4cf4ad7865ff	54.60121696833448
109	0xc051c34e620046b2	-71.05165910746544
110	0xc053670e4ce3e00b	-77.6102478242248
111	0x404c23dc56b2d1cc	56.28016170245573
112	0xc052a6c4e799871b	-74.60576810830064
113	0xc053815ae001b2ab	-78.02117157140553
114	0x404bc6c675cdb77b	55.55293152374994
115	0xc052a0cb5a05ada7	-74.51241159967923
116	0xc0538167fd5168d5	-78.02197201681277
117	0x4049bee0226cb455	51.491215041235286
118	0xc0527dfb10d26577	-73.96844883486288
119	0xc05366452400b9b7	-77.59797000952572
120	0x404b7e59f962bfef	54.987120793550154
121	0xc052726a651a7e77	-73.78774383151345
122	0xc053b289a2245de8	-78.7896504740853
123	0x404bf100fd048f71	55.88284266207382
124	0xc052b2c6f8b78ea0	-74.79339425969602
125	0xc053798a6bf2becc	-77.89907358842464
126	0x404bb586748055c7	55.41816574350701
127	0xc05342cd6c3f8bd1	-77.04378801541976
128	0xc053891eb91e9cc9	-78.14250019063469
129	0x404b42967fb10877	54.52021785873597
130	0xc0532cbeb851d36f	-76.69914062491237
131	0xc05387e6e658ebfb	-78.12346800502557
132	0x404b9b44e393bf96	55.21303982462193
133	0xc05353e442ec3119	-77.31080697122196
134	0xc05394836e5fd31f	-78.32052192075615
135	0x404a0723c3334e00	52.055778884936444
136	0xc0525e02e7b311e3	-73.46892731177608
137	0xc0533555938110e8	-76.8333481560145
138	0x404bb520f441a050	55.41506818012624
139	0xc0534ec7fedf71a2	-77.23095676251117
140	0xc0538e19da82ccf1	-78.220327975974
141	0x404bc22eefeb2f07	55.5170574091299
142	0xc05283c4bb6d0bcf	-74.05888257645641
143	0xc053251077fb2f78	-76.57913016824557
144	0x404aeff5bbb79fd9	53.87468668428455
145	0xc05291bda1a86b92	-74.27719918677602
146	0xc05354b2377a6354	-77.32337748481706
147	0x404bf04b4fbfbdb7	55.877298325179645
148	0xc051f4afc6543dd8	-71.8232284376785
149	0xc05324a457ef7648	-76.57253073105778
150	0x404a0876483a46fd	52.06610968442508
151	0xc0533adfa79b2eae	-76.91990080027128
152	0xc053113edecdd4e6	-76.26946230030771
153	0x404a3386846072fa	52.402542636007595
154	0xc0524ebb3300a376	-73.23017573416095
155	0xc0534e83bfc4163a	-77.22679132603744
156	0x404c28d651e16a10	56.31904052263792
157	0xc05179527ec805b4	-69.89566010983873
158	0xc05312c81f6e4573	-76.29346452492409
159	0x404bd4c0c34da9a5	55.66213265697596
160	0xc052f745a1db00e5	-75.86362501513538
161	0xc0539fb037958edd	-78.49513043980865
162	0x404bfdedcf4c87c8	55.983819877975805
163	0xc052babbbf3ed92d	-74.91770917069944
164	0xc053933a325614d9	-78.30042704016104
165	0x404b56a94e2a2475	54.6770417886518
166	0xc0521904977cf223	-72.39090525819533
167	0xc0532845702e006f	-76.62923817150453
168	0x404bf54df4c86a85	55.91644153390829
169	0xc052b77c06824afb	-74.86694491123119
170	0xc053c4e05cd79052	-79.07619401026867
171	0x404b8f52badcee80	55.11971221721342
172	0xc05333396a1ac33f	-76.80037930120032
173	0xc053959f3061e6df	-78.33784112511374
174	0x404c5d5d64599bd8	56.72941259742191
175	0xc051e6680e7bf2c0	-71.6001011095459
176	0xc05345ad00f5e6e7	-77.0886843110453
177	0x404c816bd3955057	57.01110310354914
178	0xc052e8f664df36e6	-75.64003869818006
179	0xc053b666ff27bacf	-78.85003641967636
180	0x404bc6779d2000ec	55.55052532255817
181	0xc0522ce011f740c2	-72.70117615838811
182	0xc0535f8f8d21ef2b	-77.49313667596714
183	0x404bd6d0985d167b	55.6782408194094
184	0xc05221a88476763a	-72.52591048782861
185	0xc0530b450da61621	-76.17608967990283
186	0x404c871aa59ea2ee	57.05550070043488
187	0xc052eb598c143c01	-75.67734052635207
188	0xc053515e611cdd69	-77.27138545817219
189	0x404aacede2baac8f	53.351009694241945
190	0xc052e6d6a798ecd3	-75.6068514817628
191	0xc0537e43822055e9	-77.9728703799989

conv1.lin_dst.weight f8 [64, 3]
0	0x404bd61b1c227019	55.67270232850587
1	0xc05327010df1c7a7	-76.60943935977285
2	0xc05354c0f7a9858f	-77.32427779726844
3	0x404988e074fe7d22	51.06934988428317
4	0xc052abb224235a24	-74.68274787380557
5	0xc05332429b0715cf	-76.78531528179086
6	0x404b91a4e610ec0a	55.13784480882903
7	0xc053136b3dbd8639	-76.30342048176034
8	0xc053738c71236e31	-77.8054468961716
9	0x404c46d43cb079dd	56.55335196129793
10	0xc0530556562e7c66	-76.0833945707287
11	0xc05387ee18277c73	-78.12390712600772
12	0x404b64c2026c6124	54.787170699042946
13	0xc051fd3f79514870	-71.95699913919248
14	0xc052df02a9d9f85f	-75.48453756605294
15	0x404bf162303b7165	55.88580897238243
16	0xc052a119f1ee0703	-74.5172085594641
17	0xc053a3a14493f21f	-78.55671801040488
18	0x404b7e5201cbf185	54.9868776555841
19	0xc0524a19d6d06444	-73.15782709456204
20	0xc053728fe6caef9e	-77.79003305261583
21	0x404be7203816e344	55.80567074887816
22	0xc0529971a08b9ad8	-74.39756024964606
23	0xc053e2bcbda36822	-79.54276982267086
24	0x404baf15983906de	55.36784651550782
25	0xc052f4f70eaca09a	-75.8275791822256
26	0xc05386c29d1a0610	-78.10562827626586
27	0x404c05bc21a0eb03	56.044803813527345
28	0xc051dde062a0f7d7	-71.466820389934
29	0xc0533e66d50677e5	-76.97502637511896
30	0x404c89eaced86359	57.07747827115845
31	0xc051f295121da4e1	-71.79034855742385
32	0xc053856660dca9a0	-78.08437367962915
33	0x404c5106eb584e7e	56.633023660772764
34	0xc051e7f505ece5d2	-71.62433002600235
35	0xc05372ea50a4247e	-77.79555145291849
36	0x404bee59b82386c0	55.862113015505656
37	0xc0522123f63969af	-72.51781993490907
38	0xc0530f685924e9e9	-76.24074390988211
39	0x404b84ba2209d9ca	55.0369303272342
40	0xc05261834486cd1b	-73.52363694347552
41	0xc0536b4a3cb21a91	-77.67640607254931
42	0x404a93d37a9993b1	53.154891324032526
43	0xc052c56c366a40e3	-75.08472977043452
44	0xc053103078765645	-76.2529584079394
45	0x404be16d5eb3cab9	55.761150205410964
46	0xc052399ce362ad9f	-72.9002006972937
47	0xc052e53e2bcb91b1	-75.5819196212749
48	0x404bff467637c90f	55.99433782314201
49	0xc0534abe95dca473	-77.16788240954502
50	0xc05397ad9ef70b21	-78.36997198224391
51	0x404bd903fc27ffa4	55.69543411210114
52	0xc0525f7db7273826	-73.49204806165707
53	0xc0538acbf89bccd8	-78.16869940962658
54	0x404c36a23baab1fe	56.42682596049052
55	0xc052c61640b975ba	-75.09510820494953
56	0xc05397d0e102bb34	-78.37212395922398
57	0x404aeb6e4d91fa67	53.83930368068541
58	0xc052812b50b07b7d	-74.0182687495671
59	0xc053594f164ed6a7	-77.39545209597655
60	0x404b2cd91f8a26d7	54.35037607427301
61	0xc05325c1ebdb8dd6	-76.58996101799798
62	0xc0538ff4a352c17e	-78.24930651742577
63	0x404c3afb3bccb010	56.46079204077262
64	0xc05186e35b88e4b5	-70.10762680405135
65	0xc05370da47509cc3	-77.76332266685772
66	0x404ae61564c996a5	53.79752788394152
67	0xc0526d555e2524a2	-73.70833543421989
68	0xc0535bc1443d7126	-77.43367105484194
69	0x404bcd704a367559	55.60498931559659
70	0xc0527c0693b2add0	-73.93790142487637
71	0xc053836912763b3d	-78.05328809305225
72	0x404c6b9365371f79	56.84043564979124
73	0xc051f95f89329edd	-71.89645605033316
74	0xc05329a1a1639b71	-76.65049013831391
75	0x404c6970e0007e0c	56.82375717186014
76	0xc052ad9346db0b02	-74.71211406126898
77	0xc05381e06c98b333	-78.0293227664195
78	0x404b5b91f090d95a	54.7153912265082
79	0xc053529b3b9b8b00	-77.2907246607756
80	0xc053baac3337b4dc	-78.91676025810324
81	0x404bdbbdeb5d92e3	55.716733380022355
82	0xc052729a2c0d9e97	-73.79065991716412
83	0xc05386f3bac49cec	-78.10862607193457
84	0x404ad2bc044fe879	53.646362818734765
85	0xc052d5eb7f98a1c5	-75.34249868302784
86	0xc0538a74d27dcea0	-78.16338026319363
87	0x404bbf23f5c4cf11	55.49328491315658
88	0xc0523ea9a4dccc8d	-72.97910424768834
89	0xc0532222490e10a2	-76.5333426129678
90	0x404c5ce4ae29c584	56.72572876968027
91	0xc05293bb0f9d7676	-74.30829229714604
92	0xc0538894772b4dd9	-78.13406161526599
93	0x404bfe0605ce1d93	55.98455879749522
94	0xc052af9608c36edd	-74.74353236279735
95	0xc05383e989aa11f1	-78.0611290131417
96	0x404c00f979559fc7	56.007613341149
97	0xc0529d3cb5717e12	-74.45683036883591
98	0xc0539b456a6df34d	-78.42611180054992
99	0x404bd04fc9184ff5	55.62743486106039
100	0xc0521a7c6c5cfe5f	-72.41384419518862
101	0xc05346b178f473b5	-77.10458206054939
102	0x404b1fcf47c7574d	54.24851319535683
103	0xc0528df36667b47a	-74.21798095824661
104	0xc053b7c511d99b27	-78.87140318155853
105	0x404ac6c051ed9279	53.55274414158061
106	0xc051ffb36911c557	-71.99532534346996
107	0xc052ecd76c61cac8	-75.7006483988763
108	0x404b4cf4ad7865ff	54.60121696833448
109	0xc051c34e620046b2	-71.05165910746544
110	0xc053670e4ce3e00b	-77.6102478242248
111	0x404c23dc56b2d1cc	56.28016170245573
112	0xc052a6c4e799871b	-74.60576810830064
113	0xc053815ae001b2ab	-78.02117157140553
114	0x404bc6c675cdb77b	55.55293152374994
115	0xc052a0cb5a05ada7	-74.51241159967923
116	0xc0538167fd5168d5	-78.02197201681277
117	0x4049bee0226cb455	51.491215041235286
118	0xc0527dfb10d26577	-73.96844883486288
119	0xc05366452400b9b7	-77.59797000952572
120	0x404b7e59f962bfef	54.987120793550154
121	0xc052726a651a7e77	-73.78774383151345
122	0xc053b289a2245de8	-78.7896504740853
123	0x404bf100fd048f71	55.88284266207382
124	0xc052b2c6f8b78ea0	-74.79339425969602
125	0xc053798a6bf2becc	-77.89907358842464
126	0x404bb586748055c7	55.41816574350701
127	0xc05342cd6c3f8bd1	-77.04378801541976
128	0xc053891eb91e9cc9	-78.14250019063469
129	0x404b42967fb10877	54.52021785873597
130	0xc0532cbeb851d36f	-76.69914062491237
131	0xc05387e6e658ebfb	-78.12346800502557
132	0x404b9b44e393bf96	55.21303982462193
133	0xc05353e442ec3119	-77.31080697122196
134	0xc05394836e5fd31f	-78.32052192075615
135	0x404a0723c3334e00	52.055778884936444
136	0xc0525e02e7b311e3	-73.46892731177608
137	0xc0533555938110e8	-76.8333481560145
138	0x404bb520f441a050	55.41506818012624
139	0xc0534ec7fedf71a2	-77.23095676251117
140	0xc0538e19da82ccf1	-78.220327975974
141	0x404bc22eefeb2f07	55.5170574091299
142	0xc05283c4bb6d0bcf	-74.05888257645641
143	0xc053251077fb2f78	-76.57913016824557
144	0x404aeff5bbb79fd9	53.87468668428455
145	0xc05291bda1a86b92	-74.27719918677602
146	0xc05354b2377a6354	-77.32337748481706
147	0x404bf04b4fbfbdb7	55.877298325179645
148	0xc051f4afc6543dd8	-71.8232284376785
149	0xc05324a457ef7648	-76.57253073105778
150	0x404a0876483a46fd	52.06610968442508
151	0xc0533adfa79b2eae	-76.91990080027128
152	0xc053113edecdd4e6	-76.26946230030771
153	0x404a3386846072fa	52.402542636007595
154	0xc0524ebb3300a376	-73.23017573416095
155	0xc0534e83bfc4163a	-77.22679132603744
156	0x404c28d651e16a10	56.31904052263792
157	0xc05179527ec805b4	-69.89566010983873
158	0xc05312c81f6e4573	-76.29346452492409
159	0x404bd4c0c34da9a5	55.66213265697596
160	0xc052f745a1db00e5	-75.86362501513538
161	0xc0539fb037958edd	-78.49513043980865
162	0x404bfdedcf4c87c8	55.983819877975805
163	0xc052babbbf3ed92d	-74.91770917069944
164	0xc053933a325614d9	-78.30042704016104
165	0x404b56a94e2a2475	54.6770417886518
166	0xc0521904977cf223	-72.39090525819533
167	0xc0532845702e006f	-76.62923817150453
168	0x404bf54df4c86a85	55.91644153390829
169	0xc052b77c06824afb	-74.86694491123119
170	0xc053c4e05cd79052	-79.07619401026867
171	0x404b8f52badcee80	55.11971221721342
172	0xc05333396a1ac33f	-76.80037930120032
173	0xc053959f3061e6df	-78.33784112511374
174	0x404c5d5d64599bd8	56.72941259742191
175	0xc051e6680e7bf2c0	-71.6001011095459
176	0xc05345ad00f5e6e7	-77.0886843110453
177	0x404c816bd3955057	57.01110310354914
178	0xc052e8f664df36e6	-75.64003869818006
179	0xc053b666ff27bacf	-78.85003641967636
180	0x404bc6779d2000ec	55.55052532255817
181	0xc0522ce011f740c2	-72.70117615838811
182	0xc0535f8f8d21ef2b	-77.49313667596714
183	0x404bd6d0985d167b	55.6782408194094
184	0xc05221a88476763a	-72.52591048782861
185	0xc0530b450da61621	-76.17608967990283
186	0x404c871aa59ea2ee	57.05550070043488
187	0xc052eb598c143c01	-75.67734052635207
188	0xc053515e611cdd69	-77.27138545817219
189	0x404aacede2baac8f	53.351009694241945
190	0xc052e6d6a798ecd3	-75.6068514817628
191	0xc0537e43822055e9	-77.9728703799989

conv1.lin_edge.weight f8 [64, 10]
0	0xbf8827f860eef77b	-0.01179498716180282
1	0x3fe89206159f00fe	0.7678251669204028
2	0x3fe9f5c897fa137b	0.8112528770731012
3	0xbfa72468434d292b	-0.04519964047956856
4	0xbff0a47906457b05	-1.040154480455102
5	0x3ff896e50d0a4564	1.5368395337466945
6	0xbfd4685df0c38d84	-0.3188700534066913
7	0xbff12366d43da36b	-1.0711429873137728
8	0x3ffe3bdeeacc077b	1.889616887260188
9	0xbfd7d4b65004b063	-0.372357919829261
10	0x3fb81e9f3ea9deb7	0.09421725540039004
11	0x3fd3b4f638afb03b	0.30792003188867384
12	0xbfcba0f97e1724a4	-0.21585005432851745
13	0xbfa19577810cf5fe	-0.03434346628499084
14	0x3fc4c05bee0df433	0.1621203338981175
15	0xbff2bb219d70f6c8	-1.1706863546418607
16	0xbfd1d4bbac378618	-0.27860919778876925
17	0x3ff612c9db5da1bb	1.3795870369886944
18	0xbfe7dd7fb8d9e37b	-0.7457884416936474
19	0xbff237829fc52a3e	-1.1385523072264188
20	0xbfa66756da774b1e	-0.04375716606923262
21	0x3fb2909b022bc3a7	0.07251900485040484
22	0x3fdda4343f1a1b86	0.46314722215941406
23	0xbfd0e3c37b49e940	-0.2639015869132386
24	0xbfdc1c71ee1df59d	-0.439236147438203
25	0x3ff568620c37fd80	1.3379841306012565
26	0x3fcf074d007a59ab	0.24241030238472425
27	0xbfde7a363f5c05f6	-0.47620922267387245
28	0x3fff395cecb1d8d7	1.9515046354186347
29	0x3f924f29936d1236	0.017880105612919382
30	0x3fda822202bf6f25	0.414192679103268
31	0xbfaf42aad56c76f2	-0.06105550627965596
32	0xbfe9b881f9367fe2	-0.8037729136885867
33	0x3fb064520fdffbce	0.06403077018329315
34	0x3fc484d84904dd64	0.16030410352116597
35	0x3fd5dd0f5a80dec1	0.34161743009779505
36	0xbff48682ccca39d5	-1.282839584313128
37	0xbfccc8376fd37239	-0.22486012420894655
38	0x3fbcb9dab002dddb	0.112210910769924
39	0xbfff84b7ac385d5d	-1.969901726470048
40	0xbfd7ff3d6bfac00c	-0.37495360894081453
41	0xbfe0d211bc27d608	-0.525643222323823
42	0xbfef43b1677b4a02	-0.9770133038639985
43	0x3fb689c68720ac75	0.08803978728308144
44	0xbfd0aa34dee1b7ec	-0.26038858190338376
45	0x3ff234f49d7fa0c6	1.1379285957610121
46	0xbfcb4eca81ea3956	-0.21334201186659624
47	0xbfff392d99da328f	-1.9514595041138454
48	0xbfeebad3ef36d258	-0.9603061363364516
49	0x3feb10d4b35141b3	0.8458045484822406
50	0x3fee2bb6d09babae	0.9428361963631369
51	0xbfb3eab73f2a35cb	-0.07780022899733934
52	0xbffbd32e5b931c6b	-1.7390578820357188
53	0x3fe77b1d3dbcd0fd	0.7337785917102618
54	0x3fdfcff89f2243d1	0.49706855335631156
55	0x3fc45fb7d911f5ce	0.1591710863030315
56	0xbfb7a08d06004e28	-0.09229356190217486
57	0x4000af56c1187107	2.0856146894058187
58	0x3ff68b545cb0a9ed	1.4090160008150818
59	0x3fef1c3fa94a4632	0.972198324818413
60	0x3fecb933f72c9295	0.8976077869052285
61	0x3fd38210ffc1f469	0.30481362320262534
62	0xbffc7ac40e5c2273	-1.7799721299108142
63	0x3fe96c85b5bff6ab	0.7944973516275317
64	0xbfddc92a7b4849d2	-0.46540319480223247
65	0x3fc767f029ac5534	0.18285944018195155
66	0xbf58d990f27189f4	-0.0015167155741201395
67	0x3ff7a02af390e267	1.4766034616751769
68	0x3ff0b0f6c563cb12	1.0432040892162076
69	0xbfe46d7ff711e5b4	-0.6383666825851635
70	0x3fa61d9c3cbfee6f	0.04319465867589833
71	0xbfdb5929b91563ad	-0.4273170764404835
72	0xbff5ffe9aceb7e36	-1.3749787096675283
73	0xbfe1f8d45d13539c	-0.5616247003441575
74	0x3fe78550d066fecf	0.7350238867147371
75	0x3fe1ace7a650ab22	0.5523565529195802
76	0xc0072d93f6aac67a	-2.8972548743120656
77	0xbfe6928979469678	-0.7053878182093305
78	0x3fca015d082a9d19	0.20316660784485732
79	0x3fd689e3842e31ba	0.3521660605263396
80	0x3fadb42c1ba4d7a4	0.05801523053598537
81	0xbfe36add9e11ce88	-0.6067951285644577
82	0xbfd3be7b149d7c23	-0.30850102437210775
83	0xbfaa92fa683cf578	-0.051902604317073775
84	0xbfe12dcf01d52dce	-0.536841872767974
85	0x3fe7c036c50524c1	0.7422136161850618
86	0x3fff2a63c18488b4	1.9478490409169753
87	0xbfa467215af46224	-0.039849321701869195
88	0xbfdbbe14e3ec724a	-0.4334766603294936
89	0x3ffabdd7f7d012dc	1.6713485412776015
90	0xbfc0afc7368f89ee	-0.13036432422730065
91	0xbfd9ee2e5d493557	-0.40516242132146857
92	0xbfc98633084332ac	-0.19940793899003972
93	0x3fec725be004ea5e	0.8889598250746749
94	0xbff657159bd4c234	-1.396260842051686
95	0x3fcb17a714353266	0.21165932165822027
96	0x3fdda7d5582f88ef	0.46336873638041615
97	0x3ffbb959c210a4e3	1.7327516155876814
98	0xbfe2031861479d86	-0.5628778362269464
99	0x3fe77cf3a102f229	0.7340028900867469
100	0xbfd959e43b5c4140	-0.39611154362593837
101	0xbff5b7cc3beda1a3	-1.3573725071856664
102	0xbfe449f9bee5cdec	-0.6340302208395179
103	0x3ff98ff06d303579	1.5976413979691115
104	0x3fe213edb0112545	0.564932674294291
105	0xbfee5cbbf45c2980	-0.948820092454568
106	0xbfeb83e9a476fbc7	-0.8598526203348847
107	0x3ff5d1441aaeb3d7	1.3635903398783193
108	0xbfe23d2f6f90a50a	-0.5699689082149757
109	0xbfe78445e1d8eb63	-0.7348966036873715
110	0xbfb1e98460392701	-0.06996943806839441
111	0x3f14a9703165de7e	7.88187720440706e-05
112	0xbfe7aae1e3cc1289	-0.7396096657908667
113	0x3fc3ccb4a841ad9c	0.1546846219601833
114	0x3fdfa44b5b1171bf	0.494402731832249
115	0xbff5ce8f3b01c55e	-1.3629295639951446
116	0x3fdb552e0a976e5f	0.4270739654000177
117	0x3fefedf05bf14af4	0.9977952762368134
118	0xbfffbc8f068cf491	-1.983534837330158
119	0xbfd7892376632231	-0.36774527131322815
120	0x3fe1508ca12846c0	0.5410826823810666
121	0x3ff0b60582aebc70	1.0444388489520655
122	0xbfbf8d12ab5c75ad	-0.1232463520395501
123	0xbfbb1bb09769f425	-0.10589126297595948
124	0x3ff22dccd1e2a327	1.1361816595692262
125	0x3f76820298d78b71	0.005495081085856821
126	0x3fe306622d6e9cf1	0.5945292365403515
127	0xbfeb1ac1554acbb4	-0.8470160165655813
128	0x3ff593c63c994518	1.348577725137437
129	0xbfc745ed31920210	-0.18182148857523872
130	0x3f987c2b9fe00b4f	0.023911172516828668
131	0x3fe51722896d006a	0.6590740856263555
132	0x3fee4d2c3f5c828d	0.9469205129172039
133	0x3fe7f1838818e795	0.7482316644811698
134	0x3fd149024d3f134a	0.2700811151847132
135	0xbfe09ea10c64b715	-0.5193639032420118
136	0x3ffcc48abd91bfc8	1.7979838757564597
137	0x400ca6a12d9ec5c3	3.581362110526898
138	0x3ff109c45d0bc200	1.064884532414112
139	0xbff6b016b0dd8637	-1.417990389709656
140	0x3fddc3faacfa45f1	0.46508662121149685
141	0x3ff31a493a167715	1.1939174908688461
142	0x3fe7575b1aac166c	0.7294135590497723
143	0xbff6bb31d524cb1f	-1.4207018209387525
144	0xbfe6ebc10744fabb	-0.7162785665494406
145	0x3ff270077423ce01	1.1523508583749165
146	0x3ff6cf58cdcb9c1a	1.425621799362267
147	0xbff9f4c76bc8b0fb	-1.62226049521547
148	0x3fe4ef5a9c1c1c3c	0.6542180108089108
149	0x3fe20b6b06159cb0	0.5638938063465471
150	0xbfc3cec6402a05cc	-0.1547477544118422
151	0x3fb91d449255ec7b	0.0981028420700784
152	0x3fed29ab338cdb7f	0.9113365179863279
153	0x3fb5796dce35a748	0.08388410839475313
154	0xbfc54535b8713c73	-0.16617461687062338
155	0x3ff53018cc8dec74	1.3242424002080755
156	0x3ff073aaa5c04677	1.0282389139796615
157	0xbfea9fd023886f8b	-0.832008428001687
158	0x3fecc32f4f8ba804	0.8988262704490357
159	0x3ffad590387d04c4	1.6771394926620795
160	0x3fe1aca2e97220e7	0.552323776196343
161	0x3ff8d0ce03fcb5db	1.5509777217624705
162	0x3ff72221fbadb0c8	1.4458331900778365
163	0xbff1c6cd7bd99031	-1.111035808361532
164	0xbfec8ba9497ee225	-0.8920484958135303
165	0x4000a8eb6fb0f599	2.0824803090933526
166	0x3ff4fdf78f42b0e1	1.3120036693681458
167	0xbff7d97002a0fc9c	-1.4905853369416837
168	0x3fe020108213e930	0.5039141216832714
169	0x3fe6a4a24d77e2d4	0.7075969231655912
170	0x3ff309a20d2cc3c4	1.189851809944444
171	0x3fea032b49ca0c62	0.812886852378494
172	0x3ff18fd00cb9871a	1.09761052103608
173	0xbfe922435dab69c8	-0.7854325131877937
174	0xbfe8e7047bef96df	-0.778200380384728
175	0x4001458405bd024d	2.1589432190233198
176	0x3fed48542c16eedb	0.9150791989445354
177	0xbfd690c960110f46	-0.35258707410342927
178	0x3ffb4dd754e18655	1.7065041843092292
179	0x3fe64aba7197c5b2	0.6966221064196161
180	0x3fc6f290fa03770d	0.17927753646557001
181	0x3ff1e969a7670cd7	1.1194855250512796
182	0x3ff25b00417c7eb6	1.1472170408305096
183	0x3fb6bd3c81d9c881	0.08882501764472474
184	0x3fbd84b1e2788008	0.11530601290769493
185	0xbff129d933f9bfac	-1.0727169065757876
186	0x3fd05dfb7b63bebb	0.2557362275101515
187	0x3ffb5fdc4b531ddd	1.7109034483308883
188	0x3ff070bb14530246	1.0275221628109121
189	0xc0049026c2dae581	-2.5703864310314093
190	0x3fc65e1397146527	0.17474598767220437
191	0xbfc449c58615d346	-0.15850132987147897
192	0x3ff92616186682c0	1.5717984154836557
193	0x3fdf002c587dbf75	0.48438557283133515
194	0xbfee53741859b310	-0.9476871944039846
195	0xbfdd99eaf55e452a	-0.46251939737074343
196	0x4000007414a0eb2b	2.0002214061363666
197	0x40042de8725cd437	2.522416013200679
198	0xbfc8bea10350ad54	-0.19331753408310226
199	0x3fd75f3896c562a6	0.3651868317006496
200	0x3fd1a5f3ae55b6e6	0.275753898857927
201	0x3ff15c06b8ebacc9	1.0849673484288351
202	0x3ffcbad63b1b7610	1.7956144627454513
203	0xbff50c4e99e3c199	-1.3155046473803849
204	0xbfe0ef5f5a3e27ea	-0.5292202723078365
205	0x3ff482b2c6260a95	1.2819087734393737
206	0x3ff16cca46db3467	1.0890600936720831
207	0xbff876500badae5e	-1.5288849312008987
208	0x3fe3ce79e22a7031	0.6189546029377252
209	0x3fe972fe3ec60c62	0.7952872491881744
210	0x3fc7d8aa436f2f48	0.18629959385577366
211	0x3fd0023c0b637ff1	0.2501363860337725
212	0xbfee974b001e38c1	-0.955968380194257
213	0xbfd67171be738a2c	-0.35067409132730876
214	0x3fc2ccb3e91b8070	0.14687203294943485
215	0xbff4d46ae9ced382	-1.301859772979896
216	0xbfe77468e8b86809	-0.7329601807898608
217	0x3ff74a14bbc9b871	1.4555861793010332
218	0xbfed08d37cd22b3c	-0.9073274076375593
219	0xbffb161d605088fc	-1.6928991091049843
220	0xbfcf701de4192186	-0.2456090320358834
221	0xbfe5a6cd4ed3133f	-0.6766115703145273
222	0xbfe5ff3f440a06b4	-0.687408097161287
223	0x3fe371f934b0890b	0.6076627759069039
224	0xbfe5f4b87262410b	-0.6861231073435489
225	0xbfeedbd59fb20ea5	-0.9643352622083127
226	0x3ff284ed0d17a8ce	1.1574526320860516
227	0x3fa4b23c253a9336	0.040422324699909515
228	0xbffa00ff296251ba	-1.6252433411183191
229	0x3fd61efe6f62c1d0	0.34564171674267374
230	0x3fc11f648639ecdb	0.13377052835480793
231	0xbfd89ecb6e4cdc03	-0.38469205638415377
232	0xbfe9e4eb9a87a830	-0.8091943758165652
233	0x3ff001846e595e79	1.000370436717189
234	0xbfba2dabb65495cb	-0.10225938035417596
235	0xbff30e8cf996d352	-1.1910524129463806
236	0xbfd63223ff867d12	-0.3468103404392916
237	0x3fe4ce96c2151046	0.650218371455147
238	0xbff8162dfc3a463c	-1.505414948715397
239	0x3fdcb3cd253d3e0d	0.4484742034591996
240	0xbff19ca3a58900cf	-1.1007420030801318
241	0xbfeb6d9b7a5852dd	-0.8571298017073691
242	0xbfde1675ee126887	-0.4701208901329967
243	0x3fec0712b9a03057	0.8758634210112274
244	0x3fe93d36108b72af	0.788722069085983
245	0xc001a6284f769540	-2.2061315734923994
246	0xbfea815806a8925a	-0.8282890443848132
247	0x3fcfcc8ba0507e6f	0.24842973068097104
248	0xbff922fb4c96079e	-1.571040438808701
249	0xbfe172dbea155d59	-0.5452708789770596
250	0xbfb029aa101b292b	-0.06313574689116723
251	0x3fe07634a8829ed7	0.5144294062820006
252	0x3fe9cfe16b72a87b	0.8066260431853743
253	0xbf942b928802f0cc	-0.01969746546886668
254	0xbfc98b2078f0ed78	-0.19955831437423988
255	0x3ff1ac5716d3c0d1	1.1045752422033284

conv2.att_src f8 [1, 1, 64]
0	0xbfd10eb52b1b71b3	-0.2665226860970293
1	0x3fec26d66c563038	0.8797409168196344
2	0x3fec8ef694ea245e	0.8924515636910078
3	0x3ff1c55185f53b14	1.110673449776816
4	0x3fed1d39ea5b3293	0.909817655303032
5	0x3fe7ffdbb171078d	0.7499826875357357
6	0x3feb83d40569837c	0.8598423104959774
7	0x3ff1eaa2aab676a0	1.1197840374438002
8	0x3ff00c94cc0d6091	1.003071591452713
9	0xbfd1d450aee958f8	-0.2785836895103695
10	0x3feb600e94006019	0.8554757013944282
11	0xbfcc7f00f6ce7797	-0.22262584735011323
12	0xbfcd63790d2a709a	-0.22959817068920502
13	0x3feebcfd6e1d4edb	0.9605700636552358
14	0x3ff0c14601139faf	1.047185901838002
15	0x3febf0073b213f7e	0.8730503229980824
16	0x3fe541fd56299daa	0.6643053706038036
17	0xbfdc88e4e76831e5	-0.44585535620060873
18	0x3fe691195a5963d4	0.705212284529916
19	0x3fef5964d1ef2ae7	0.9796623325613297
20	0x3fd3494acfb023de	0.30134840280567043
21	0xbfc9f2ea0b85f9e7	-0.2027256542459803
22	0x3fee982cbea32460	0.9560760234245542
23	0x3feced659c770725	0.9039791160541638
24	0x3fde6c178c48e218	0.47534741115262724
25	0xbfe15f0a8944d607	-0.5428517037423156
26	0x3ff21899999ad4df	1.131005859392921
27	0x3ff2cebcc46c495c	1.1754729912541597
28	0xbfbe92bb8c76fdbf	-0.11942646197620997
29	0x3ff034f8990259ad	1.0129323937340857
30	0x3feb83caec6fa9c5	0.8598379724401687
31	0x3ff1ef66498951b8	1.1209471580997228
32	0xbfb5b44a53868259	-0.08478226222224218
33	0x3feeb871c6f481c0	0.9600151906816379
34	0x3fb925e08ec0d90c	0.09823420987308767
35	0xbfd626752264bc1a	-0.3460972629426934
36	0xbfd36c7f77159286	-0.30349718694041206
37	0xbfc9ed158aa96df5	-0.20254773398015372
38	0xbfd22d278e84cdf3	-0.2840060130867805
39	0x3fe602a0686399db	0.6878206290101007
40	0xbfcb8d30c1cb02d8	-0.21524629080342694
41	0x3fecfbb9d8441107	0.9057282661383689
42	0xbfda3c8287559928	-0.40994322983023546
43	0xbfdf38882e5592d6	-0.4878254368289111
44	0x3ff10d8c302c6db7	1.065807521989752
45	0x3fea07c710e58a9a	0.8134494142544384
46	0x3fc9a779d99141fa	0.20042346118363225
47	0x3ff009645ed5bbf6	1.002292986344171
48	0x3feb5387b77ecaec	0.8539465507404578
49	0x3feffe7cb4421cb3	0.9998153229397729
50	0xbfd5d49f614453d6	-0.3411024522659408
51	0x3fe867cd17eb940c	0.7626710383598279
52	0x3feca7907bd2a62c	0.8954546373763086
53	0x3fea7d24ba2a8c04	0.8277763019617628
54	0x3fd628002b9eabcc	0.34619144687411274
55	0x3fef6658dbc26c88	0.98124354287883
56	0x3fe953520ceb3652	0.7914209606476084
57	0x3ff14b8f7a51ba22	1.080947377976948
58	0xbfb9651d4be86739	-0.09919913390367875
59	0x3fe14b780e65b4a3	0.5404625207135222
60	0xbfe11e577d011d95	-0.534953827046524
61	0x3fe9edd9a30daf13	0.8102844414365528
62	0x3fe742deb217e8f9	0.7269128301989262
63	0x3fbc5c055eda6eac	0.11077912870171741

conv2.att_dst f8 [1, 1, 64]
0	0x3fbc661b72ce2840	0.11093303253997622
1	0x3fca55dcde699589	0.20574532375318835
2	0xbf94cff1c10563bf	-0.02032449474913611
3	0x3fd186a44eb3d94e	0.27384288488191977
4	0x3fb15d936dccab1d	0.06783410483027948
5	0xbf99fbf7d7888cb5	-0.025375244646181645
6	0xbfd06ab4a6abd276	-0.2565127971313709
7	0xbfd0ecd4d15b0569	-0.2644550365913206
8	0xbfb26d31e4e0b275	-0.07197868192515407
9	0xbfc3143664135c27	-0.14905433546548005
10	0xbfc96d7b9735bd3d	-0.1986536491708452
11	0xbfb6447756d7153a	-0.0869822108280304
12	0xbfc3f50db63063b8	-0.15591594119976349
13	0xbfbe280fab2dd6fa	-0.11779878548790271
14	0x3fcc002aff21abea	0.21875512559503757
15	0x3fce856980584fce	0.23844641463131072
16	0x3fb7958f3ca101cb	0.09212584715078902
17	0xbfcf77e65aea1618	-0.24584655226878804
18	0x3fcc923642a74acb	0.22321203474583337
19	0xbfc98e7257a5e433	-0.1996596267670455
20	0xbfc62855788cfb89	-0.17310589205041207
21	0xbfb56a927151d2e6	-0.08365741030304327
22	0xbfb834bc40767a6e	-0.0945546777133843
23	0x3fc4ca491bb2942f	0.16242326595707499
24	0x3fa08f592c4520cc	0.03234366097837124
25	0x3fc2b5375e5ec427	0.14615528209609005
26	0x3fd3e1e5f7662181	0.31066273841909015
27	0x3fbbdea711644267	0.10886615919685881
28	0x3f95fe6bf39a86e7	0.021478354209313457
29	0x3fb2b9afbf361d51	0.073145851309268
30	0x3fba48dc94072140	0.10267428029977044
31	0x3fd305fc1d9a061f	0.297240284831874
32	0xbfc7e279b18698b1	-0.18659897964716302
33	0xbfbc0676c124ea92	-0.10947363105234789
34	0xbfc14e068b7b6aa0	-0.13519365130089955
35	0x3fa02d17564b3050	0.031594018253230716
36	0xbf9aa632b41688e8	-0.026024620286656225
37	0xbf919d46cafc726d	-0.017201524867333996
38	0x3fbf4c9a61909b7d	0.12226261980013749
39	0xbfd3322aadfda9fc	-0.29993693343445194
40	0xbfb60861f063ef6c	-0.08606540793328826
41	0x3fc45744811d5b1e	0.15891319565226864
42	0xbfce8687185b4db0	-0.2384804600647903
43	0xbfc0d4cc388047d0	-0.13149407156794135
44	0xbfc47aeec35d96c7	-0.16000160731635146
45	0x3fc388cd2b03cc58	0.15261234855970218
46	0xbfc96afe3390561c	-0.19857766645206787
47	0x3fc1c313f488dc80	0.13876580658117987
48	0x3fd295e02dd487d0	0.2903976867256661
49	0x3fd3603f03281359	0.3027493983102452
50	0xbfca93eff5935ff7	-0.20763968935966634
51	0xbfb02b7b685317dc	-0.06316348359095464
52	0xbfcd189ac32f4856	-0.22731337099554833
53	0xbfd0b6b9ea3cd608	-0.26115272402543654
54	0x3fc6b85da2ad4eae	0.177501396591301
55	0xbfb72c0aae659e25	-0.09051577337015056
56	0x3fb8b531f558267d	0.09651481857158646
57	0x3fd0ae525103c66f	0.2606397429618487
58	0xbfc1025479a41861	-0.13288360538007551
59	0xbfb977279509996b	-0.09947440518008015
60	0x3fcd0b95d41b9725	0.22691605431389764
61	0xbfd246aad6e92570	-0.2855631922471593
62	0x3fa4258458ae07de	0.03934873182789976
63	0x3fc7fcf5e9246825	0.1874072445287435

conv2.att_edge f8 [1, 1, 64]
0	0xbfc0f9bb3a0e2131	-0.13262119612432735
1	0x3fb98ffb179d69b3	0.09985322310004711
2	0xbfb6ffae37d424c9	-0.08983887541775738
3	0xbfaaa15a12131241	-0.05201226683269456
4	0x3f8bffffd9f74d7c	0.013671873893065671
5	0xbfa12988ee1cfb34	-0.033520011011651724
6	0xbfb6531668a319a2	-0.0872053151570982
7	0xbfa9b70b76b8886f	-0.05022464584568886
8	0xbfadb6d17e6a3dd5	-0.05803541820671013
9	0xbf6f88e047a9dd74	-0.0038494472949498985
10	0x3fd55dd22396cb8e	0.33385137057774095
11	0x3fa99e51dfe4b063	0.05003600938866339
12	0xbfd6a576fb71a010	-0.35384916834891644
13	0xbfd13c23c9340edd	-0.26929564141049217
14	0x3fc9f7fc367e6f43	0.20288040791353454
15	0xbf9d355c973c6a2f	-0.028523871165001487
16	0x3f8a54f1db63cc80	0.012857331760164792
17	0x3f95e9b0525f965d	0.021399264362022986
18	0xbfd33e0050b79b12	-0.3006592548612598
19	0xbfd3d748aef1577d	-0.31001488765956947
20	0xbf879c7c54d625ba	-0.011528941477780264
21	0x3f8ebde4dff8e367	0.015010631642427176
22	0x3fa94dd9e3c39114	0.04942208199807588
23	0xbfc113c27cbaf35c	-0.13341551866860868
24	0xbfc51e1189b7a5e3	-0.16498011803132248
25	0x3f922a6d73c882ab	0.017739973251198176
26	0x3fd99af2a52a1498	0.40008226517995515
27	0x3fce0272d24e776d	0.23444972294685887
28	0xbfd1842bc43294a6	-0.27369207534713735
29	0x3fd42d02135c37d6	0.31524707689902465
30	0x3fd491e7c03a836a	0.32140535137482706
31	0x3f90bfee79c5714a	0.016357160742118716
32	0xbfd12b714096c95b	-0.2682765131713915
33	0x3fd4d84422e5ed31	0.3256998387148143
34	0x3fd05736dcce0ab8	0.25532313883756386
35	0xbfaa66c508a68c88	-0.051565320306758144
36	0x3fc29dc3889555b5	0.14543956917866088
37	0xbfb5053b951b698e	-0.08211109533605152
38	0x3fa00e8b643a3c52	0.03136096571426407
39	0xbfd108498b83bba8	-0.26613081573935427
40	0xbfa19fc7d4a04366	-0.03442215414555143
41	0xbfd1891f3fed9520	-0.2739942669198445
42	0x3fd8f57d95d8e9f0	0.3899835551598292
43	0xbfcca4d01b4c84ea	-0.22377969105676893
44	0xbfc50a4b71f9ef7e	-0.16437666955232183
45	0x3fb1f023ff6257d4	0.07007050499882378
46	0x3fc654e576876b83	0.17446583068416652
47	0xbf46789e0fcd464e	-0.0006857654367228934
48	0x3fb699b8abb10432	0.0882831019562367
49	0xbfa7b3bcf912f98a	-0.046293168453746494
50	0x3fcbe62dd0e21b95	0.21796200465561513
51	0x3fa32632f969b976	0.037400811143799936
52	0x3fd7707f7ec850ea	0.3662413347349359
53	0xbfbcad0b972d30bc	-0.11201546135743262
54	0xbfd0c5f3cca2b20b	-0.2620820520776596
55	0xbf76bd7a513e2a1a	-0.0055517938634559675
56	0xbf91a780b02d63ff	-0.017240534546861138
57	0xbfd417e3e7b28eb5	-0.313958145396309
58	0x3fbe82e367d98415	0.11918469701187491
59	0x3fcc23204c8b768b	0.21982196557558029
60	0xbfd06ace71f05cfc	-0.25651894690368215
61	0xbfcdaf4614f3c3cd	-0.23191143057877497
62	0x3fcbc98d9a64d914	0.21708841360823128
63	0x3fccdc7c0bfd946e	0.22547865472293743

conv2.bias f8 [64]
0	0x4051b18a7d9de9f7	70.77407780095369
1	0x405115dc05acde37	68.34155408746379
2	0x4051060c44986d98	68.09449877629811
3	0x405118aa736a1166	68.38540349348258
4	0x405116f66f22230c	68.35879114469225
5	0x405112665a70d01e	68.28749714867487
6	0x405132a3146c1eb0	68.79120359953481
7	0x4051019014592767	68.02441891390264
8	0x40510d3bc39005b6	68.2067726999729
9	0x405227a55e9a7f8e	72.6194683560154
10	0x40511eefe2e9324d	68.48339150212378
11	0x4051f2768a0861d3	71.78848505800788
12	0x4051d530278d093e	71.33106411717469
13	0x40511c6bb8a5eaf5	68.4440747852603
14	0x405134bf729fa16d	68.82418504322932
15	0x4050fb445b9434c2	67.92604722474337
16	0x40511ed2db253237	68.48161963112294
17	0x405236c9feaeb2f5	72.85607878742651
18	0x405111aca8490931	68.27616316921628
19	0x405120494fb4345d	68.50447456930256
20	0x40511073c51c1cf8	68.25706603761125
21	0x4051ee9baed3a8be	71.72825213117446
22	0x405118f3ea3379f5	68.38988738085739
23	0x4051126902f1642a	68.28765939305654
24	0x4051278569ea8114	68.61751792813112
25	0x405223c28c59beac	72.55874928249494
26	0x40511e2c6d069779	68.47146154063911
27	0x4051001b32f3020c	68.00166009646654
28	0x405154d2611ef645	69.32534053825027
29	0x405110391f52d8b0	68.25348647203896
30	0x40511d2186a627cf	68.45517126299022
31	0x405120d46d665bc9	68.51296553607894
32	0x4051385699e55889	68.88028571507506
33	0x40510ff4ee22eb91	68.24932435426878
34	0x405131fa70fbb660	68.7809107263688
35	0x4051ebbed22f23bb	71.68352179149126
36	0x405221f94c353ee4	72.53084092330715
37	0x405232f197821486	72.79599559500829
38	0x40520263ac40da13	72.03733354886235
39	0x405123da216f99b1	68.56018863581154
40	0x405142928f9df265	69.04019537376878
41	0x405109b63da18686	68.15174809240315
42	0x40521d3b749bac2a	72.45675387575525
43	0x4051fdad34372c8f	71.96369653118221
44	0x405114edfc031b44	68.32702541640634
45	0x4051107fa88906c2	68.25779164678082
46	0x405116fba323f920	68.35910871994975
47	0x40511f146b02e252	68.48562121659896
48	0x40510d042c8eb483	68.20337976394698
49	0x40511903ba3a7ccd	68.3908525057952
50	0x4051cb15cb1fb4cb	71.17320516678153
51	0x405107de6287950e	68.12294829597906
52	0x405110e9867a4c86	68.2642532533956
53	0x40512d666e13fa49	68.70937683058686
54	0x4050f783932c5998	67.86740569430401
55	0x405116c0f44cac1e	68.35552699553998
56	0x405118e5c99ddff5	68.38902511994804
57	0x405112ca8fa57b43	68.29361334953596
58	0x405178475f0935f9	69.87935615443702
59	0x405100a660dafb04	68.0101549280626
60	0x4051354f1d05d0fd	68.83295369689945
61	0x405111e3673b38e3	68.27950459273738
62	0x40511414f19a8725	68.3137783059179
63	0x4051463ec21e79e8	69.09758046127502
