models/model_0.525_250_out_of_500.pt (torch, 53307 bytes, 16 tensors)

conv1.att_src f8 [1, 1, 64]
000000 e7 ef ef d2 5c eb 11 40 c8 c8 ed 8e 2f d9 11 40
       4.479846282858467 4.462095483077242
000010 a3 28 d4 54 9a 8e 11 40 bd 3b 9d c4 90 94 11 40
       4.38926060242571 4.39508349618603
000020 80 61 79 c3 65 22 12 40 0d ce fc 80 88 04 11 40
       4.533591322215557 4.254426970891939
000030 01 fc 57 a9 da c8 10 40 45 d7 8d 0a 09 57 11 40
       4.196146627421514 4.334995427043229
000040 7c 37 93 3b 03 ce 11 40 24 85 4e 06 8b 70 11 40
       4.451184206829449 4.359905336897359
000050 5c 4b d4 c0 27 0f 12 40 83 e8 ca a7 a9 c6 11 40
       4.5148000840734674 4.4440065591426245
000060 19 dd e2 d5 66 d0 11 40 8c 3d 16 b8 ed 01 11 40
       4.453517286273631 4.2518833888601755
000070 40 2e d5 24 66 21 11 40 58 70 c9 a7 3f d4 11 40
       4.2826162104716445 4.457274076146938
000080 4a 64 8e 87 13 27 11 40 66 6b c1 b5 0d da 11 40
       4.288160436693099 4.462942924433127
000090 d7 76 be 49 4f 06 12 40 e6 b0 8b c3 4e ee 10 40
       4.506161834955228 4.2327223352442385
0000a0 16 4b 8f a1 6d 88 11 40 24 60 d4 c7 d8 d5 11 40
       4.383230709429673 4.4588347648023365
0000b0 cd 7a 32 3a 0e 94 11 40 d0 cf 60 11 3c 6e 11 40
       4.394585522967373 4.357651015790864
0000c0 c6 4e ca c4 70 94 11 40 8d ff 38 df a2 b9 11 40
       4.3949614284972025 4.431285369733712
0000d0 6b 6d d0 f3 8f 4e 11 40 ef 88 e8 5a 87 e0 10 40
       4.326721009823227 4.219266338770679
0000e0 27 00 fb c0 fc 99 11 40 5e 4c 9e 3c 0c fa 0f 40
       4.400378241844044 3.9970936523255167
0000f0 9a 72 48 3d 1a 3e 11 40 5c 6f 9b ca 49 d4 11 40
       4.310646970316748 4.457312741982459
000100 d4 af 86 2d f5 b2 10 40 94 b6 fe f2 0c b9 11 40
       4.174763404222137 4.430713459774456
000110 6c 70 a0 56 63 e5 11 40 9b a9 6e 49 07 3b 12 40
       4.474011758367947 4.557644984607033
000120 b7 a1 52 20 e2 b7 11 40 b2 ba be 8d b5 2c 12 40
       4.429573540728987 4.543661322370712
000130 06 25 15 10 9e 32 11 40 b6 a9 8a c0 37 a6 11 40
       4.299431086817327 4.412322052443804
000140 e0 44 72 32 e3 81 11 40 7d 84 e8 12 50 4d 11 40
       4.37684325048869 4.325500770036453
000150 68 57 8f 9a 80 9d 11 40 a6 22 11 3d ef cf 11 40
       4.403810896872393 4.453061060114726
000160 1e 0b bf f8 a3 2c 12 40 9d eb 16 d4 79 a9 11 40
       4.543594252262464 4.4155038012494545
000170 83 e7 05 fb ce b0 11 40 20 f0 df 3d eb 5c 12 40
       4.422664568171856 4.590741125863161
000180 bf 05 e6 ea 29 fe 11 40 f5 27 42 4a 1d 36 11 40
       4.4982067778486785 4.302846107757422
000190 5f fe e0 79 9d 0a 12 40 f4 32 f1 01 1c 13 11 40
       4.510366348607561 4.26866152796423
0001a0 c7 0a a7 81 34 cb 11 40 00 ae 4e 16 1f 70 11 40
       4.448442483730736 4.359493588020541
0001b0 44 32 1a 24 06 3f 11 40 5b 06 18 aa a3 5c 11 40
       4.311546863650225 4.340468080250129
0001c0 f2 e9 87 93 51 94 11 40 9e c1 b2 d3 71 d9 11 40
       4.394842438860438 4.462348277841015
0001d0 9b 3d bb c0 36 98 11 40 46 ed c2 5d 4a c5 11 40
       4.398646365574133 4.442666497251883
0001e0 c9 ac 07 56 54 aa 11 40 84 bb 6a 10 1b 80 11 40
       4.416337341516916 4.375103241457399
0001f0 c0 64 3b f5 3a b8 11 40 29 ed a7 3e 1e a0 11 40
       4.429912406683059 4.406365374564566

conv1.att_dst f8 [1, 1, 64]
000000 5f cd 16 6c 0b c2 05 c0 d9 43 a9 d5 86 9e ab 3f
       -2.7197483486612977 0.053943837720573824
000010 a0 f0 96 d6 4b 21 d4 3f c3 75 1b e0 59 0c a0 bf
       0.3145322414018299 -0.03134423123058696
000020 77 3e 54 eb 26 80 06 c0 9c a8 27 f0 bf 97 05 c0
       -2.8125742325863103 -2.6990965616324285
000030 7f 7b 88 fb fb a7 fa 3f e1 47 bf 36 f6 fb f1 3f
       1.6660117936623633 1.1240141047060137
000040 c1 75 0f f5 0b e5 05 c0 85 e2 80 fa f5 14 06 c0
       -2.7368392129271517 -2.760234791811231
000050 cb 2e 09 ec 37 2a 06 c0 e1 9a 04 91 61 d9 05 c0
       -2.77061447527908 -2.7311431245355924
000060 b7 0d f3 f8 7b ed b1 3f f1 65 de 4a 20 50 c8 3f
       0.07002997234217544 0.18994525581074087
000070 ce 2c d8 42 5d f3 05 c0 b8 6c 2a 72 cf 5f 06 c0
       -2.743830225202692 -2.796782390517901
000080 ec ea 38 cc b5 86 06 c0 6c 67 31 84 62 40 e4 3f
       -2.815776439177503 0.632859476270125
000090 74 3d 0c 3f c3 f7 d7 bf 74 e1 de b2 ba a2 f9 3f
       -0.37449723393452605 1.6022288310178654
0000a0 83 da 99 a5 07 38 c3 bf f6 8c 5e 6d c1 16 ce bf
       -0.15014739595399726 -0.2350694450407002
0000b0 c5 ae e1 9a 41 0d 06 c0 29 ca 8a ed 55 51 f2 3f
       -2.7564727878687756 1.144857337855351
0000c0 fd d0 82 7c e8 8b 05 c0 47 05 8e 50 c3 12 fc 3f
       -2.6933145263120637 1.754580797831595
0000d0 58 fe a5 b3 ac 11 9f bf 32 15 02 88 b4 08 df 3f
       -0.03034086081015483 0.4849063232616856
0000e0 03 94 ca be 36 e9 b0 bf 14 58 6a c2 d2 67 05 c0
       -0.06605856092444644 -2.675694960470546
0000f0 10 bc 9d 15 a5 b4 00 40 ad fb 8f ef 33 fc 05 c0
       2.088205498577288 -2.748145934659496
000100 fb ac b5 cd 80 f9 d2 3f b9 4a e1 8d 4f ee 05 c0
       0.29647846306643516 -2.741362675130713
000110 1a 3c 56 cc cb da 05 c0 bd 87 94 bb f9 ef d9 3f
       -2.731834026700665 0.40527194326761756
000120 55 3e b5 ec b8 fd ef 3f bb ac 85 97 3d e7 d2 bf
       0.9997219680025845 -0.2953638057430898
000130 bb ce 0a d2 f9 a3 fa 3f fd 2a 57 6e 72 f1 d9 bf
       1.6650331692480183 -0.40536175513686584
000140 52 80 60 af bf 18 06 c0 43 38 f2 40 4c a4 f3 3f
       -2.7620843602490277 1.2276117836913876
000150 5e cf 05 07 c7 f7 05 c0 a7 8d 24 c0 12 05 fe 3f
       -2.745985083451088 1.8762385850503536
000160 6c 6b 77 0a e5 86 fe 3f 40 18 19 8b 98 df 05 c0
       1.9079332741591442 -2.734177672103243
000170 f0 fb f7 09 fc 61 f9 3f f2 73 e7 ce 64 dc 05 c0
       1.5864220036889911 -2.7326141514190505
000180 11 93 4b d3 45 ac fa 3f 2a 09 62 55 67 46 05 c0
       1.6670587781638384 -2.6593767805617476
000190 03 4e c5 9b 02 66 06 c0 0e 19 79 d6 01 a9 f7 3f
       -2.7998096627795817 1.4787615182736462
0001a0 52 e8 c7 75 3d 18 f6 3f 99 06 28 91 19 6c ee 3f
       1.3809179879013027 0.9506957850537275
0001b0 8f 64 5a 52 08 77 e2 3f 2d 07 45 b6 dc 76 06 c0
       0.5770303352793621 -2.8080381622138675
0001c0 48 44 81 01 37 8d d4 bf b5 58 c4 3b d8 49 06 c0
       -0.32111907145469276 -2.7860569638533783
0001d0 5c 33 5d 8c d8 4c 06 c0 a8 d6 cb 33 62 6f 06 c0
       -2.787522408098466 -2.8043865248281072
0001e0 98 fc d6 6d 9f c7 d6 bf 0b 9b c7 bc 5c c3 dc bf
       -0.3559340069441048 -0.44942396579283245
0001f0 e9 ff 1f 74 ef 02 06 c0 dd 91 0d 2f a7 7b f9 3f
       -2.751433284021904 1.5926887357719501

conv1.att_edge f8 [1, 1, 64]
000000 8b 57 ff fb 91 bc 1d 40 d0 23 dc f4 fb 28 1f 40
       7.434150636157834 7.790023637710831
000010 a8 9b 41 fe 3d dc 1d 40 27 7a c0 c5 d8 d6 1c 40
       7.4650802352470365 7.209811296341775
000020 2e dd a8 ff d2 28 1f c0 d4 55 b9 2b 4f c3 1c c0
       -7.789867396051063 -7.190731700121848
000030 98 bd 91 b9 ec 2b 1f 40 94 de 19 6f 1b f8 1c 40
       7.792895221252728 7.242292152360864
000040 d4 c1 c4 50 1f 2f 1f 40 0f 01 3e 87 15 2e 1d c0
       7.796017896660903 -7.295003998908455
000050 ad b1 ae 95 03 05 1d c0 8f de d2 6a f6 c1 1b c0
       -7.2548964870333466 -6.939416569824643
000060 e0 7e 53 e2 ac bf 1a 40 f2 05 26 61 f2 f9 1c 40
       6.687182937952201 7.24408866686416
000070 7c 7c cc e1 4c 8a 1d c0 57 b9 35 8a eb 03 1c 40
       -7.385058906656123 7.003828200844814
000080 2d 35 1e b5 66 ca 1d 40 7f f6 1b ec e2 09 1f 40
       7.44765742298959 7.759654702383727
000090 20 d5 0f 4a 2c a5 1d c0 b9 81 d3 92 57 b3 1a 40
       -7.41130176278719 6.675138754042956
0000a0 e8 83 b6 6c 8c c7 1d 40 ec 60 78 1a f8 cd 1c c0
       7.444871615066383 -7.201141751859023
0000b0 d7 7c c9 56 7b 37 1d c0 0b e8 d4 ed 77 1c 1f c0
       -7.30418143849166 -7.777801242942597
0000c0 2a aa 18 b9 9c 0b 1f c0 5e b1 28 87 09 1f 1f c0
       -7.761340038423933 -7.780309783800787
0000d0 7d 6b ad b8 e5 89 1d 40 0f 82 68 d4 5c c9 1f c0
       7.384665380081853 -7.946643179777779
0000e0 35 49 e2 59 e2 92 1f 40 0d 16 2c 68 fb b5 1c 40
       7.893441585956954 7.177716853800587
0000f0 15 2b 17 c8 f2 9f 1d 40 6f d3 14 4b 01 f9 1e c0
       7.406199575819092 -7.743168995996583
000100 bb 79 f1 47 83 23 1f c0 ec 0b c4 2f 7f 82 1c c0
       -7.784680484879966 -7.127438303318723
000110 9f 18 07 5d e6 a2 1b 40 89 f5 a8 f7 6b d8 1d c0
       6.909081891592137 -7.461349363028952
000120 20 f7 dc e5 43 76 1b 40 df d9 af 3e e1 c8 1c 40
       6.865493384944585 7.1961717409926385
000130 df 50 91 d4 98 b7 1d c0 a7 72 2f 0e 73 e7 1d c0
       -7.429293938989047 -7.476024839063633
000140 b7 b7 81 93 ec 94 1c 40 a2 74 b4 a8 b4 05 1f 40
       7.145433716575943 7.755571971906791
000150 40 d1 d7 76 9c 2e 1e 40 e0 4a bf 74 6b c0 1e 40
       7.545518738672683 7.687909912276808
000160 cd 3c bc 56 36 95 1d 40 6c fb 50 1f 92 dd 1d 40
       7.395715098609071 7.466377724950558
000170 d9 34 a6 73 75 18 1f 40 ec 58 c9 46 7c 08 1d 40
       7.773885542888103 7.258286577262179
000180 13 07 ec e2 bf d2 1d c0 79 73 b3 6e 20 01 1d c0
       -7.455810113578781 -7.251100282385658
000190 22 14 8a 5c 41 f1 1f c0 7d 04 a6 41 da c5 1d c0
       -7.98560089676633 -7.443215394742876
0001a0 99 58 a3 87 fb 14 1f 40 74 8e 47 8c 2c 83 1b 40
       7.7704907601784265 6.878099624507389
0001b0 5a 9a 31 e2 72 aa 1d c0 c4 80 52 61 a1 40 1c c0
       -7.416453871037982 -7.0631156164747075
0001c0 07 e7 cd 63 a8 21 1f c0 e5 20 b1 df 96 ba 1e c0
       -7.782868918840683 -7.682216162859025
0001d0 88 d9 42 b9 69 c3 1c 40 cb 11 38 ba 18 12 1d 40
       7.190832991318878 7.267672452614032
0001e0 a7 54 71 6d 1d b1 1d 40 e3 81 12 62 3b 62 1d 40
       7.422963819543987 7.34592965352974
0001f0 ec dd df 74 26 64 1e 40 82 fd e9 b5 27 d1 1c c0
       7.59780295006156 -7.2042530464235615

conv1.bias f8 [64]
000000 c8 f4 8d 47 e5 f0 3b 40 6d 90 65 12 9d 3d 3c 40
       27.94099852767684 28.240677976413668
000010 8e 5d cd 08 62 f8 3b 40 63 66 20 2e f1 0c 3b 40
       27.970245885980653 27.050555117521423
000020 12 89 4e e3 63 9f 3b 40 dc 6b 65 0f 1c 64 3b 40
       27.622617918657006 27.391053163777414
000030 ba 09 25 16 d4 3b 3b 40 1e f4 25 e9 cf e1 3b 40
       27.233704933207015 27.882078716054927
000040 fc e4 d9 64 11 71 3b 40 20 de 65 0d 2b d7 3b 40
       27.44167166061105 27.840500676507986
000050 36 90 ea 34 4d 96 3b 40 c9 d4 ed c5 52 9b 3b 40
       27.58711558081287 27.606731768192535
000060 15 ee 6e 8f c9 f9 3b 40 04 73 1d 55 d1 3c 3b 40
       27.97573181589367 27.237569160165563
000070 8e ec be 4c d3 7c 3b 40 06 d6 94 31 6e fc 3b 40
       27.487599178898158 27.986056422078057
000080 2b 4e db 76 eb b3 3a 40 c4 ac 6d 29 c9 cd 3c 40
       26.702811649838775 28.803850735927668
000090 2b 04 28 29 e9 3d 3c 40 56 76 1d a3 5c 84 3b 40
       28.241839000959015 27.517038531010563
0000a0 08 bf 9a 5b 20 75 3b 40 63 e0 43 83 24 08 3b 40
       27.457524991302336 27.031807140418447
0000b0 4a 81 34 41 60 22 3b 40 c9 37 d4 f1 f5 c3 3b 40
       27.13428123027669 27.765471567450536
0000c0 cd a2 c0 bd 9c 87 3b 40 e0 19 62 48 92 35 3b 40
       27.529735431223163 27.209263347578485
0000d0 60 71 85 d4 5a 3c 3b 40 10 f3 5b 2c 88 23 3b 40
       27.235760958269907 27.138796589325523
0000e0 60 f2 ec 36 c7 be 3b 40 42 05 a0 38 6e e5 39 40
       27.745227272842726 25.896213091914667
0000f0 cb 5c a6 8d 32 62 3b 40 2a 4f 90 48 53 55 3b 40
       27.38358388244232 27.333302054626223
000100 ab c8 5e 41 3c 4c 3b 40 a3 94 68 e4 12 2a 3b 40
       27.297794423714247 27.164350772411705
000110 a2 6b 3b 53 e1 1c 3c 40 0e af db 0d a8 fc 3b 40
       28.11281318855948 27.986939302572004
000120 59 db 83 38 8b c3 3b 40 1b e0 df 03 50 da 3b 40
       27.763843090240105 27.85278343406399
000130 08 e8 da c4 80 0f 3c 40 ed b5 73 02 f6 f7 3b 40
       28.060558608478487 27.96859755825965
000140 65 70 6f bd 3b db 3a 40 a9 37 a0 f7 48 5a 3b 40
       26.856380309778974 27.352675892463285
000150 bb 97 35 d4 10 be 3b 40 b9 2c 75 3e f6 9c 3b 40
       27.742444289287715 27.61313238487921
000160 fe 60 dc 31 95 4c 3c 40 0b 5e 7c c6 a6 64 3b 40
       28.299151531508862 27.393169789660572
000170 05 26 39 7c 44 3a 3c 40 d4 8f 40 28 1a d6 3b 40
       28.227607501938127 27.836336627733388
000180 ad e3 7f 57 51 e4 3b 40 7e 5d b1 8c da 1f 3b 40
       27.89186617729472 27.124428551961948
000190 fb c7 41 d1 3c 9b 3c 40 8d 72 42 30 d1 cf 3b 40
       28.60639675003038 27.811785713408018
0001a0 58 45 e8 62 9c 92 3b 40 5d a9 fb 0b 41 94 3b 40
       27.572698766428715 27.57911753553468
0001b0 66 77 07 e8 c9 b3 3b 40 e3 dc 07 b0 1a 2f 3c 40
       27.702299596617557 28.184000970763815
0001c0 88 f1 ab 99 9b 8a 3b 40 11 2a f5 ba a8 d7 3a 40
       27.54143677184905 26.842418370108195
0001d0 a4 c7 4f bb 86 c4 3b 40 45 5d de d3 3e 9b 3b 40
       27.76768084237814 27.606427423275154
0001e0 cb 7e 9d 56 f5 c3 3b 40 b5 4d 5b 62 28 1a 3c 40
       27.76546231598949 28.10217871407595
0001f0 99 c3 59 e9 96 47 3b 40 76 fe 23 5f 8f 88 3b 40
       27.27964647714143 27.533437677657695

conv1.lin_src.weight f8 [64, 3]
000000 e1 70 21 1f ca 75 30 40 f6 0b 7c 11 fc 66 37 c0
       16.460115380920687 -23.40228375700459
000010 0a 5b 2c ce 06 48 38 c0 07 03 b6 05 9b 62 30 40
       -24.281353841618547 16.385177952705842
000020 79 3a e8 07 a6 d2 37 c0 1e c7 ed 6c 81 0b 38 c0
       -23.82284593028678 -24.044943626452657
000030 f7 11 48 1a e2 6f 30 40 a8 fe 24 46 8e 68 37 c0
       16.437043802829034 -23.40842092898552
000040 f5 b4 44 ef de ff 37 c0 3d 68 1b 97 d5 41 30 40
       -23.99949546267904 16.257165378752905
000050 b8 12 05 8d 48 2b 37 c0 fc 23 24 38 93 96 37 c0
       -23.16907578824859 -23.588183888266926
000060 e3 ba 0e a3 a2 8f 30 40 df 4d b0 48 61 d6 37 c0
       16.561075392814825 -23.837421935122503
000070 83 8c 19 d9 b1 6e 38 c0 c3 43 3e b1 91 4f 30 40
       -24.43240124582054 16.310816838933317
000080 bc ff 85 d9 9f 1f 37 c0 7b d9 1c 2d 29 01 38 c0
       -23.12353286286792 -24.004534549277633
000090 45 94 76 e3 c9 06 30 40 55 37 7a 05 de f6 36 c0
       16.026518074464793 -22.96432527765076
0000a0 d0 4b f0 27 ab 4b 37 c0 3a c5 ef 6a 69 cd 30 40
       -23.29558038345914 16.80238979676981
0000b0 79 2d 04 91 85 63 37 c0 82 7a ca fa 74 b3 37 c0
       -23.388756812591485 -23.701003717835654
0000c0 8b 25 b6 60 35 1d 30 40 e2 9c bf bb 98 a2 37 c0
       16.114095730275533 -23.63514302661941
0000d0 53 d8 8b 8a 3d 36 38 c0 ba e9 6e f7 62 38 30 40
       -24.211876544133997 16.22026010949933
0000e0 12 a2 ac 2b b0 b6 37 c0 21 e5 6f 36 c0 05 38 c0
       -23.713625650068998 -24.02246418220341
0000f0 ca 87 e3 61 64 a2 2f 40 e2 df d1 17 10 26 37 c0
       15.817172106766424 -23.148683060397055
000100 74 47 dc 48 fd 4e 38 c0 74 f8 75 af 16 3d 30 40
       -24.308552316454964 16.238627401639363
000110 39 f8 35 b3 b6 07 38 c0 0b 4e 32 82 cb 3c 38 c0
       -24.03013153140657 -24.23748029449602
000120 c6 a9 8d 06 2e 8c 30 40 25 c6 61 27 ea 6b 37 c0
       16.547577294908272 -23.421541653986555
000130 bc 44 4a 5e aa 0c 38 c0 06 5f 9c ae b2 fa 2f 40
       -24.049474614269215 15.98964448603466
000140 e9 ba 78 2c 7a fd 36 c0 66 0a 07 82 4e 24 37 c0
       -22.990145472979666 -23.141822935789968
000150 7c 99 82 8a c8 6b 30 40 5b 7b 16 c5 2a 11 38 c0
       16.421028763661056 -24.06705886649011
000160 9b be f1 3e 6a 0c 38 c0 61 5d 74 bd 47 0e 30 40
       -24.04849618341414 16.055782166394582
000170 73 6a 05 e8 b8 cd 37 c0 68 1c 38 48 8a 07 38 c0
       -23.803602696726056 -24.0294537674894
000180 c6 fe 75 42 e5 43 2f 40 66 fe ae 09 82 be 36 c0
       15.632608487037384 -22.744171719763834
000190 8b c2 d7 20 6d 77 36 c0 5b 1a 80 e6 f6 fc 30 40
       -22.46650891559197 16.988142401003966
0001a0 b1 8f 14 92 1c b6 37 c0 30 e2 68 00 98 9d 38 c0
       -23.711373453159187 -24.615600610357603
0001b0 05 12 4f 74 1c f4 30 40 56 e7 a9 59 77 71 37 c0
       16.953559178642553 -23.4432273902706
0001c0 f6 1a 7c 2a 97 c3 38 c0 75 f0 42 70 42 49 30 40
       -24.76402535943904 16.286170021383857
0001d0 1a 67 be d1 26 7e 37 c0 ea 05 b6 54 f9 a0 37 c0
       -23.492779835686726 -23.62880448764728
0001e0 22 93 02 e4 27 44 30 40 a8 c2 66 49 27 73 37 c0
       16.266233683231924 -23.44981821783827
0001f0 71 45 a2 4c ca d7 37 c0 f8 f4 4b 29 21 fa 2f 40
       -23.84293059312535 15.988534250757297
000200 a2 d7 7d 51 dd b3 36 c0 fb 4c 04 8c 93 d1 37 c0
       -22.702595799658987 -23.818657637643792
000210 34 f9 01 6a 64 3a 30 40 eb 50 73 5a 6c 1f 37 c0
       16.228094697458076 -23.1227470904859
000220 e1 66 e9 e2 f9 c7 37 c0 64 0f 52 34 ba 8d 30 40
       -23.78115671346939 16.553622503313264
000230 43 eb 03 9e 4c 32 37 c0 39 dd fd 8f 66 7b 37 c0
       -23.196481586415086 -23.48203372905593
000240 08 09 82 06 ca 3a 30 40 c6 d6 29 f8 6f e4 36 c0
       16.22964516329469 -22.892333517279233
000250 6a 8c e1 e5 37 e3 37 c0 ce 87 44 88 d7 49 30 40
       -23.88757168537669 16.288445011836124
000260 4c de a4 ff bf 1f 37 c0 18 7a fe 59 0f 5b 37 c0
       -23.12402341628176 -23.35570299589935
000270 cc 74 dd b5 0c 33 30 40 77 f5 09 1e 47 71 36 c0
       16.199412695471253 -22.442491414481506
000280 ff 5f 8f dc df fb 37 c0 38 9e 18 61 35 d9 2f 40
       -23.983884606364878 15.924235376601345
000290 55 18 96 51 b9 39 37 c0 21 ca 67 3c fa ec 36 c0
       -23.225483988899516 -22.925693297709703
0002a0 33 f2 bd 96 18 37 30 40 3c a1 a1 cd a4 dc 37 c0
       16.215218945859487 -23.861889697990804
0002b0 9a 18 9a d1 b1 d9 37 c0 43 33 95 2e e6 82 2d 40
       -23.850369548913115 14.755662399018211
0002c0 c8 c3 78 72 92 15 36 c0 fe 72 38 73 57 51 36 c0
       -22.08426585625037 -22.317740632325687
0002d0 be 24 df bb b3 59 30 40 88 d0 10 23 49 51 37 c0
       16.35039877126541 -23.317522231679078
0002e0 e5 54 29 9b a3 65 37 c0 e1 b0 6f 34 24 20 30 40
       -23.397027680960395 16.12555244185285
0002f0 6b 05 6b 22 b1 e6 37 c0 00 18 73 27 5b d3 37 c0
       -23.90114035713979 -23.825609651183186
000300 0a a3 1c b7 bc 78 30 40 90 42 c3 74 5c 3a 37 c0
       16.471629566661285 -23.227973268195058
000310 bc 5c 97 fa 44 95 37 c0 0b 80 1f 05 08 c2 2f 40
       -23.583083784059212 15.878967437834964
000320 15 2c 54 48 60 53 37 c0 fb dc 30 e7 4b aa 37 c0
       -23.32568790488229 -23.665220689229482
000330 01 8b 11 d0 47 21 30 40 27 ef ce d8 67 5b 37 c0
       16.130002025874095 -23.35705332805733
000340 c8 9c d9 bd 59 3b 38 c0 16 84 cb 8f 40 f7 2f 40
       -24.231838098171266 15.982914441674478
000350 1e f5 0a cf 4e ec 36 c0 30 d4 2e 4b 96 ed 37 c0
       -22.923077526259583 -23.928074549610926
000360 bf 7d b9 4e 77 a7 30 40 79 e8 f9 fc 28 0f 38 c0
       16.654164238248764 -24.059219180119246
000370 a3 81 54 62 0d 76 37 c0 dd f1 7f 2d fd 62 30 40
       -23.46114172518868 16.386675685631293
000380 66 91 3a 24 d0 d3 37 c0 ba 43 6b 42 24 1a 38 c0
       -23.82739473752863 -24.10211577528728
000390 71 7b 6e e4 65 a7 30 40 69 88 a6 68 00 06 37 c0
       16.65389850327796 -23.023443737657008
0003a0 98 02 76 1e 45 39 38 c0 df 83 c8 e1 c5 b8 30 40
       -24.22371092206103 16.72176943917645
0003b0 c2 c8 2e 5f be d9 37 c0 ac 5d da 2c 8e 08 38 c0
       -23.850561093255926 -24.03341942149352
0003c0 96 a4 e0 6b 92 ce 2e 40 5f 90 00 45 68 a0 36 c0
       15.403460856601935 -22.626591026914294
0003d0 03 e2 2f 7f c1 42 37 c0 0f 95 ab 76 07 51 30 40
       -23.260765027227546 16.31652013482113
0003e0 4c 63 9b 40 64 2d 37 c0 9d c9 b1 6a 02 5f 37 c0
       -23.177310979782575 -23.37113062706486
0003f0 30 52 91 15 fd 2a 30 40 eb f4 9f 0f df a4 36 c0
       16.167924259165545 -22.644028641273433
000400 c7 fd 99 f2 00 98 37 c0 d5 1b a6 88 17 71 30 40
       -23.593764460177933 16.441765347055327
000410 e8 7d 17 ac e5 9b 37 c0 34 d5 e2 6d dc 8f 37 c0
       -23.60897327016383 -23.561957233313663
000420 b6 15 e1 d0 22 33 31 40 a6 a1 2d 59 d4 5a 38 c0
       17.19974999900088 -24.354802678719032
000430 a8 f4 a4 8d 02 b9 38 c0 ae 3e 1d 18 9b e4 2f 40
       -24.722695210239777 15.946495774812629
000440 95 f8 5b 35 b7 66 37 c0 9c 5f e2 47 a2 d4 37 c0
       -23.401233038858283 -23.830601208464586
000450 37 17 09 18 24 ef 30 40 82 d5 34 f4 90 2c 37 c0
       16.934144499034314 -23.174086821459703
000460 c3 ea 3a 22 bb 39 38 c0 3d f4 96 73 76 d1 2f 40
       -24.2255116838303 15.909106838395127
000470 6d 35 48 98 e5 63 37 c0 9c 0b a0 6b 3e c0 38 c0
       -23.390222089413715 -24.750952459882328
000480 8f a3 dc cd 9c 3a 30 40 25 8b b7 33 1c 44 37 c0
       16.228955141417426 -23.266055328665193
000490 04 9c 2b de 59 c1 37 c0 02 5e 76 20 0d ec 2f 40
       -23.755277524611316 15.96103764958298
0004a0 3e 47 a2 f1 6e ff 36 c0 81 12 ba 5a ed 5e 37 c0
       -22.997786619299625 -23.37080924074917
0004b0 8d 89 c2 05 77 c9 30 40 be cd 5b 22 1f 58 38 c0
       16.786972389215908 -24.34422507039357
0004c0 55 e2 56 6c 50 21 39 c0 23 11 89 01 b0 80 30 40
       -25.13013341065592 16.50268563839303
0004d0 40 fc d1 8b 09 20 38 c0 7d 40 a2 fa 2a 89 37 c0
       -24.12514566303821 -23.535812058079035
0004e0 3d d3 d2 12 94 8e 30 40 33 52 90 45 d0 5f 37 c0
       16.55694692275141 -23.374271724447862
0004f0 41 6f 17 16 c5 59 37 c0 86 85 7c b2 a3 61 30 40
       -23.350663548203787 16.381404071236396
000500 75 ca 7b 64 9a 3c 37 c0 33 7d 71 2a 08 59 37 c0
       -23.236730842802405 -23.34778085013131
000510 d2 07 81 13 55 62 30 40 c9 e6 cd f5 6f 00 37 c0
       16.38411065960083 -23.001708376664087
000520 c5 70 ab 8e ac 7c 37 c0 4f 37 e4 29 92 66 30 40
       -23.48700801549491 16.40066778012925
000530 16 22 bd 0a 69 03 38 c0 a4 5b e7 f4 fa 53 38 c0
       -24.013321562934003 -24.328048044666176
000540 9b 98 30 7b 02 22 30 40 39 26 dc c1 5a 89 38 c0
       16.132850360264097 -24.53654109596957
000550 67 97 81 8b 83 70 37 c0 34 9a dd e7 b1 c4 2f 40
       -23.439507216585664 15.884169812966412
000560 7b 98 9a 2d dc 82 37 c0 ce 84 55 7d dc ae 37 c0
       -23.511172151797364 -23.683051904085737
000570 fa 1b 34 61 4f 55 30 40 7d d7 5a 6c 17 80 37 c0
       16.33324248811912 -23.500357410600817
000580 bd 70 cc 2a 10 05 38 c0 e2 72 63 48 b6 80 30 40
       -24.019777941620067 16.502781414298518
000590 0b 48 b0 26 c5 f3 36 c0 c0 dd b4 ba bb 1b 38 c0
       -22.95222703746553 -24.108333272129812
0005a0 b9 65 00 60 5a 30 30 40 9e dd 18 88 f1 73 37 c0
       16.18887901315404 -23.452904230185247
0005b0 70 ae ea 73 be bf 37 c0 88 50 78 de e6 51 30 40
       -23.748999829097045 16.319929031728435
0005c0 f0 47 2a 0f b9 d0 37 c0 38 55 9f c6 6d ff 37 c0
       -23.815323779890548 -23.997768796825056
0005d0 5c 7c 09 96 d3 f6 2f 40 80 dc db 60 e3 f0 36 c0
       15.982083023698742 -22.94096951835354
0005e0 fb 8b c7 53 1e 19 38 c0 d9 e7 3f bd 86 6f 30 40
       -24.098119007318 16.435649707891432
0005f0 a3 fa c4 00 c7 3b 37 c0 2d 6d 20 38 87 d3 37 c0
       -23.233505294886196 -23.82628203193342

conv1.lin_dst.weight f8 [64, 3]
000000 e1 70 21 1f ca 75 30 40 f6 0b 7c 11 fc 66 37 c0
       16.460115380920687 -23.40228375700459
000010 0a 5b 2c ce 06 48 38 c0 07 03 b6 05 9b 62 30 40
       -24.281353841618547 16.385177952705842
000020 79 3a e8 07 a6 d2 37 c0 1e c7 ed 6c 81 0b 38 c0
       -23.82284593028678 -24.044943626452657
000030 f7 11 48 1a e2 6f 30 40 a8 fe 24 46 8e 68 37 c0
       16.437043802829034 -23.40842092898552
000040 f5 b4 44 ef de ff 37 c0 3d 68 1b 97 d5 41 30 40
       -23.99949546267904 16.257165378752905
000050 b8 12 05 8d 48 2b 37 c0 fc 23 24 38 93 96 37 c0
       -23.16907578824859 -23.588183888266926
000060 e3 ba 0e a3 a2 8f 30 40 df 4d b0 48 61 d6 37 c0
       16.561075392814825 -23.837421935122503
000070 83 8c 19 d9 b1 6e 38 c0 c3 43 3e b1 91 4f 30 40
       -24.43240124582054 16.310816838933317
000080 bc ff 85 d9 9f 1f 37 c0 7b d9 1c 2d 29 01 38 c0
       -23.12353286286792 -24.004534549277633
000090 45 94 76 e3 c9 06 30 40 55 37 7a 05 de f6 36 c0
       16.026518074464793 -22.96432527765076
0000a0 d0 4b f0 27 ab 4b 37 c0 3a c5 ef 6a 69 cd 30 40
       -23.29558038345914 16.80238979676981
0000b0 79 2d 04 91 85 63 37 c0 82 7a ca fa 74 b3 37 c0
       -23.388756812591485 -23.701003717835654
0000c0 8b 25 b6 60 35 1d 30 40 e2 9c bf bb 98 a2 37 c0
       16.114095730275533 -23.63514302661941
0000d0 53 d8 8b 8a 3d 36 38 c0 ba e9 6e f7 62 38 30 40
       -24.211876544133997 16.22026010949933
0000e0 12 a2 ac 2b b0 b6 37 c0 21 e5 6f 36 c0 05 38 c0
       -23.713625650068998 -24.02246418220341
0000f0 ca 87 e3 61 64 a2 2f 40 e2 df d1 17 10 26 37 c0
       15.817172106766424 -23.148683060397055
000100 74 47 dc 48 fd 4e 38 c0 74 f8 75 af 16 3d 30 40
       -24.308552316454964 16.238627401639363
000110 39 f8 35 b3 b6 07 38 c0 0b 4e 32 82 cb 3c 38 c0
       -24.03013153140657 -24.23748029449602
000120 c6 a9 8d 06 2e 8c 30 40 25 c6 61 27 ea 6b 37 c0
       16.547577294908272 -23.421541653986555
000130 bc 44 4a 5e aa 0c 38 c0 06 5f 9c ae b2 fa 2f 40
       -24.049474614269215 15.98964448603466
000140 e9 ba 78 2c 7a fd 36 c0 66 0a 07 82 4e 24 37 c0
       -22.990145472979666 -23.141822935789968
000150 7c 99 82 8a c8 6b 30 40 5b 7b 16 c5 2a 11 38 c0
       16.421028763661056 -24.06705886649011
000160 9b be f1 3e 6a 0c 38 c0 61 5d 74 bd 47 0e 30 40
       -24.04849618341414 16.055782166394582
000170 73 6a 05 e8 b8 cd 37 c0 68 1c 38 48 8a 07 38 c0
       -23.803602696726056 -24.0294537674894
000180 c6 fe 75 42 e5 43 2f 40 66 fe ae 09 82 be 36 c0
       15.632608487037384 -22.744171719763834
000190 8b c2 d7 20 6d 77 36 c0 5b 1a 80 e6 f6 fc 30 40
       -22.46650891559197 16.988142401003966
0001a0 b1 8f 14 92 1c b6 37 c0 30 e2 68 00 98 9d 38 c0
       -23.711373453159187 -24.615600610357603
0001b0 05 12 4f 74 1c f4 30 40 56 e7 a9 59 77 71 37 c0
       16.953559178642553 -23.4432273902706
0001c0 f6 1a 7c 2a 97 c3 38 c0 75 f0 42 70 42 49 30 40
       -24.76402535943904 16.286170021383857
0001d0 1a 67 be d1 26 7e 37 c0 ea 05 b6 54 f9 a0 37 c0
       -23.492779835686726 -23.62880448764728
0001e0 22 93 02 e4 27 44 30 40 a8 c2 66 49 27 73 37 c0
       16.266233683231924 -23.44981821783827
0001f0 71 45 a2 4c ca d7 37 c0 f8 f4 4b 29 21 fa 2f 40
       -23.84293059312535 15.988534250757297
000200 a2 d7 7d 51 dd b3 36 c0 fb 4c 04 8c 93 d1 37 c0
       -22.702595799658987 -23.818657637643792
000210 34 f9 01 6a 64 3a 30 40 eb 50 73 5a 6c 1f 37 c0
       16.228094697458076 -23.1227470904859
000220 e1 66 e9 e2 f9 c7 37 c0 64 0f 52 34 ba 8d 30 40
       -23.78115671346939 16.553622503313264
000230 43 eb 03 9e 4c 32 37 c0 39 dd fd 8f 66 7b 37 c0
       -23.196481586415086 -23.48203372905593
000240 08 09 82 06 ca 3a 30 40 c6 d6 29 f8 6f e4 36 c0
       16.22964516329469 -22.892333517279233
000250 6a 8c e1 e5 37 e3 37 c0 ce 87 44 88 d7 49 30 40
       -23.88757168537669 16.288445011836124
000260 4c de a4 ff bf 1f 37 c0 18 7a fe 59 0f 5b 37 c0
       -23.12402341628176 -23.35570299589935
000270 cc 74 dd b5 0c 33 30 40 77 f5 09 1e 47 71 36 c0
       16.199412695471253 -22.442491414481506
000280 ff 5f 8f dc df fb 37 c0 38 9e 18 61 35 d9 2f 40
       -23.983884606364878 15.924235376601345
000290 55 18 96 51 b9 39 37 c0 21 ca 67 3c fa ec 36 c0
       -23.225483988899516 -22.925693297709703
0002a0 33 f2 bd 96 18 37 30 40 3c a1 a1 cd a4 dc 37 c0
       16.215218945859487 -23.861889697990804
0002b0 9a 18 9a d1 b1 d9 37 c0 43 33 95 2e e6 82 2d 40
       -23.850369548913115 14.755662399018211
0002c0 c8 c3 78 72 92 15 36 c0 fe 72 38 73 57 51 36 c0
       -22.08426585625037 -22.317740632325687
0002d0 be 24 df bb b3 59 30 40 88 d0 10 23 49 51 37 c0
       16.35039877126541 -23.317522231679078
0002e0 e5 54 29 9b a3 65 37 c0 e1 b0 6f 34 24 20 30 40
       -23.397027680960395 16.12555244185285
0002f0 6b 05 6b 22 b1 e6 37 c0 00 18 73 27 5b d3 37 c0
       -23.90114035713979 -23.825609651183186
000300 0a a3 1c b7 bc 78 30 40 90 42 c3 74 5c 3a 37 c0
       16.471629566661285 -23.227973268195058
000310 bc 5c 97 fa 44 95 37 c0 0b 80 1f 05 08 c2 2f 40
       -23.583083784059212 15.878967437834964
000320 15 2c 54 48 60 53 37 c0 fb dc 30 e7 4b aa 37 c0
       -23.32568790488229 -23.665220689229482
000330 01 8b 11 d0 47 21 30 40 27 ef ce d8 67 5b 37 c0
       16.130002025874095 -23.35705332805733
000340 c8 9c d9 bd 59 3b 38 c0 16 84 cb 8f 40 f7 2f 40
       -24.231838098171266 15.982914441674478
000350 1e f5 0a cf 4e ec 36 c0 30 d4 2e 4b 96 ed 37 c0
       -22.923077526259583 -23.928074549610926
000360 bf 7d b9 4e 77 a7 30 40 79 e8 f9 fc 28 0f 38 c0
       16.654164238248764 -24.059219180119246
000370 a3 81 54 62 0d 76 37 c0 dd f1 7f 2d fd 62 30 40
       -23.46114172518868 16.386675685631293
000380 66 91 3a 24 d0 d3 37 c0 ba 43 6b 42 24 1a 38 c0
       -23.82739473752863 -24.10211577528728
000390 71 7b 6e e4 65 a7 30 40 69 88 a6 68 00 06 37 c0
       16.65389850327796 -23.023443737657008
0003a0 98 02 76 1e 45 39 38 c0 df 83 c8 e1 c5 b8 30 40
       -24.22371092206103 16.72176943917645
0003b0 c2 c8 2e 5f be d9 37 c0 ac 5d da 2c 8e 08 38 c0
       -23.850561093255926 -24.03341942149352
0003c0 96 a4 e0 6b 92 ce 2e 40 5f 90 00 45 68 a0 36 c0
       15.403460856601935 -22.626591026914294
0003d0 03 e2 2f 7f c1 42 37 c0 0f 95 ab 76 07 51 30 40
       -23.260765027227546 16.31652013482113
0003e0 4c 63 9b 40 64 2d 37 c0 9d c9 b1 6a 02 5f 37 c0
       -23.177310979782575 -23.37113062706486
0003f0 30 52 91 15 fd 2a 30 40 eb f4 9f 0f df a4 36 c0
       16.167924259165545 -22.644028641273433
000400 c7 fd 99 f2 00 98 37 c0 d5 1b a6 88 17 71 30 40
       -23.593764460177933 16.441765347055327
000410 e8 7d 17 ac e5 9b 37 c0 34 d5 e2 6d dc 8f 37 c0
       -23.60897327016383 -23.561957233313663
000420 b6 15 e1 d0 22 33 31 40 a6 a1 2d 59 d4 5a 38 c0
       17.19974999900088 -24.354802678719032
000430 a8 f4 a4 8d 02 b9 38 c0 ae 3e 1d 18 9b e4 2f 40
       -24.722695210239777 15.946495774812629
000440 95 f8 5b 35 b7 66 37 c0 9c 5f e2 47 a2 d4 37 c0
       -23.401233038858283 -23.830601208464586
000450 37 17 09 18 24 ef 30 40 82 d5 34 f4 90 2c 37 c0
       16.934144499034314 -23.174086821459703
000460 c3 ea 3a 22 bb 39 38 c0 3d f4 96 73 76 d1 2f 40
       -24.2255116838303 15.909106838395127
000470 6d 35 48 98 e5 63 37 c0 9c 0b a0 6b 3e c0 38 c0
       -23.390222089413715 -24.750952459882328
000480 8f a3 dc cd 9c 3a 30 40 25 8b b7 33 1c 44 37 c0
       16.228955141417426 -23.266055328665193
000490 04 9c 2b de 59 c1 37 c0 02 5e 76 20 0d ec 2f 40
       -23.755277524611316 15.96103764958298
0004a0 3e 47 a2 f1 6e ff 36 c0 81 12 ba 5a ed 5e 37 c0
       -22.997786619299625 -23.37080924074917
0004b0 8d 89 c2 05 77 c9 30 40 be cd 5b 22 1f 58 38 c0
       16.786972389215908 -24.34422507039357
0004c0 55 e2 56 6c 50 21 39 c0 23 11 89 01 b0 80 30 40
       -25.13013341065592 16.50268563839303
0004d0 40 fc d1 8b 09 20 38 c0 7d 40 a2 fa 2a 89 37 c0
       -24.12514566303821 -23.535812058079035
0004e0 3d d3 d2 12 94 8e 30 40 33 52 90 45 d0 5f 37 c0
       16.55694692275141 -23.374271724447862
0004f0 41 6f 17 16 c5 59 37 c0 86 85 7c b2 a3 61 30 40
       -23.350663548203787 16.381404071236396
000500 75 ca 7b 64 9a 3c 37 c0 33 7d 71 2a 08 59 37 c0
       -23.236730842802405 -23.34778085013131
000510 d2 07 81 13 55 62 30 40 c9 e6 cd f5 6f 00 37 c0
       16.38411065960083 -23.001708376664087
000520 c5 70 ab 8e ac 7c 37 c0 4f 37 e4 29 92 66 30 40
       -23.48700801549491 16.40066778012925
000530 16 22 bd 0a 69 03 38 c0 a4 5b e7 f4 fa 53 38 c0
       -24.013321562934003 -24.328048044666176
000540 9b 98 30 7b 02 22 30 40 39 26 dc c1 5a 89 38 c0
       16.132850360264097 -24.53654109596957
000550 67 97 81 8b 83 70 37 c0 34 9a dd e7 b1 c4 2f 40
       -23.439507216585664 15.884169812966412
000560 7b 98 9a 2d dc 82 37 c0 ce 84 55 7d dc ae 37 c0
       -23.511172151797364 -23.683051904085737
000570 fa 1b 34 61 4f 55 30 40 7d d7 5a 6c 17 80 37 c0
       16.33324248811912 -23.500357410600817
000580 bd 70 cc 2a 10 05 38 c0 e2 72 63 48 b6 80 30 40
       -24.019777941620067 16.502781414298518
000590 0b 48 b0 26 c5 f3 36 c0 c0 dd b4 ba bb 1b 38 c0
       -22.95222703746553 -24.108333272129812
0005a0 b9 65 00 60 5a 30 30 40 9e dd 18 88 f1 73 37 c0
       16.18887901315404 -23.452904230185247
0005b0 70 ae ea 73 be bf 37 c0 88 50 78 de e6 51 30 40
       -23.748999829097045 16.319929031728435
0005c0 f0 47 2a 0f b9 d0 37 c0 38 55 9f c6 6d ff 37 c0
       -23.815323779890548 -23.997768796825056
0005d0 5c 7c 09 96 d3 f6 2f 40 80 dc db 60 e3 f0 36 c0
       15.982083023698742 -22.94096951835354
0005e0 fb 8b c7 53 1e 19 38 c0 d9 e7 3f bd 86 6f 30 40
       -24.098119007318 16.435649707891432
0005f0 a3 fa c4 00 c7 3b 37 c0 2d 6d 20 38 87 d3 37 c0
       -23.233505294886196 -23.82628203193342

conv1.lin_edge.weight f8 [64, 10]
000000 14 41 78 2e cb b9 22 c0 c2 91 92 e4 5d a2 02 c0
       -9.362878276996106 -2.3292806489209577
000010 ea d9 af 1e 23 f8 1e 40 22 d3 ed 94 bd b2 a1 bf
       7.742321471675021 -0.034566807203111574
000020 03 1e d8 a1 f4 2c f2 bf 62 9b cd 68 4f bd 19 40
       -1.1359754869498608 6.434873235272649
000030 65 71 49 a5 42 9e 14 40 d7 a6 b7 ef a1 c7 a2 3f
       5.15455110798607 0.03667932559240022
000040 73 64 2c dd ab d9 f7 3f 76 37 e4 91 38 07 07 40
       1.4906424178682556 2.8785258672496026
000050 fb c4 3e f3 9d be 22 c0 d9 22 37 5a 9c a2 ff bf
       -9.372298814213073 -1.9771998905218224
000060 79 f0 12 85 ea f2 20 40 64 de be 19 3a f4 e7 bf
       8.47444549423402 -0.7485628607600572
000070 09 9e c2 31 c0 b8 f7 bf 71 58 06 8a e1 00 fd 3f
       -1.4826051658400294 1.8127150909035914
000080 d2 0f 45 ea 86 7e f9 3f 1b 8e 1b 2c 2c 67 b2 bf
       1.5933903838313097 -0.07188678814741715
000090 82 bd 1c 97 00 1d 00 40 7d 99 a2 da cc e6 d1 3f
       2.014161282124122 0.27971192694749175
0000a0 d7 69 5f e8 b7 b9 22 c0 05 4d dd c0 bd 4a ff bf
       -9.362731229445599 -1.9557473691718894
0000b0 89 d7 cf b2 b1 e6 20 40 82 12 79 a8 1c a9 db bf
       8.450574481841402 -0.4321967740291158
0000c0 9d 5d 60 9c 5a d8 f7 bf 10 72 50 ba 4c be 02 40
       -1.4903207882360683 2.3429197841453586
0000d0 d4 76 da 8a 4f 6b fe 3f 3d f1 8a 50 01 31 9a bf
       1.9011989044151294 -0.025577564755381522
0000e0 5a 5f 3c 35 de 3f ff 3f 1b 66 a3 55 56 99 00 40
       1.953092773392163 2.074871701287305
0000f0 7e d3 6d 73 ad be 22 c0 2b bc d6 de 33 7f 00 c0
       -9.372417075306426 -2.062110653808778
000100 fa f3 b0 37 47 90 20 40 8c 1d 68 5f 6e 39 ae bf
       8.281793346739494 -0.05903191485054568
000110 52 5a 42 de 29 0e f1 bf a3 39 df c3 6b 5c 12 40
       -1.0659578973769794 4.590254841327268
000120 be ac 08 11 96 c3 0b 40 8a 45 95 a5 79 fe 97 bf
       3.470501072957261 -0.023431683284177697
000130 d1 3c fa 06 2d 35 fe 3f 01 be dc 13 e1 60 10 40
       1.887982394462416 4.094608602855716
000140 36 ac fe 31 48 be 22 40 b0 ff 13 0d 6f a1 ff 3f
       9.371644556367851 1.9769125471939155
000150 77 1b 29 5c 81 f6 20 c0 2d 44 59 e4 cb 05 e8 3f
       -8.481455688493709 0.7507075748382072
000160 77 5c 18 a5 08 b4 f7 3f e0 50 55 c0 82 85 fc bf
       1.4814535569219325 -1.7825953972833801
000170 a1 7d d8 99 30 2c f9 bf 1c 27 74 80 56 a2 b2 3f
       -1.573288536986958 0.0727895797355384
000180 45 62 31 90 c6 27 00 c0 58 3c ba 79 19 00 cf bf
       -2.0194216981001625 -0.24219053691601533
000190 d2 d0 88 b4 c3 b9 22 40 cb a5 de 68 bc 7f ff 3f
       9.362821237279068 1.9686855408166248
0001a0 26 78 86 39 e8 0d 21 c0 79 a6 88 a5 6e a5 d5 3f
       -8.527162358917916 0.3382221809903068
0001b0 5c 11 1d e7 17 1c f7 3f 37 c1 d6 c3 6f 73 fd bf
       1.4443587329743286 -1.8406827592808221
0001c0 df 18 84 3e 43 4f f9 bf 08 08 70 19 58 ff a3 3f
       -1.5818512384444643 0.03905749617116788
0001d0 9e 63 f7 5b ab 09 00 c0 61 8e 1b cc 5b 73 d3 bf
       -2.0047213730690165 -0.3039159291495022
0001e0 e5 85 bf 5e 68 be 22 c0 cf aa fb 8a 86 a4 ff bf
       -9.371890030745769 -1.9776673726106997
0001f0 ca 2d de 4e 1d f0 20 40 26 66 9a 66 7d f1 e7 bf
       8.468973602887576 -0.7482287410704813
000200 a4 35 98 02 42 c0 f7 bf 84 df f6 7a 93 a0 fd 3f
       -1.4844379521704036 1.8517031482024047
000210 b2 b6 3a ed ed e8 f9 3f 20 0a 34 48 b3 e8 b1 bf
       1.6193675295611851 -0.06995697510505083
000220 24 dc 72 c4 c6 15 00 40 3b d4 a6 e2 a3 7d d7 3f
       2.0106330249359576 0.3670434678454659
000230 17 7b fe b4 f8 b9 22 c0 80 7b a3 52 a3 78 ff bf
       -9.363225608887246 -1.966952631766361
000240 34 9d d7 ac 2f 0c 21 40 e6 aa 93 1a 3f 77 d6 bf
       8.523801232643201 -0.35102822871583184
000250 bf 3b 17 00 50 30 f7 bf ae 32 85 98 de 0e fe 3f
       -1.4492950442834027 1.878630252630653
000260 e7 f4 fb cf 08 b5 f9 3f e2 fe 42 9b f8 b0 a3 bf
       1.6066978573210748 -0.03845955748829312
000270 96 6e 30 3b 72 03 00 40 20 df 4a b1 df c1 dc 3f
       2.001682722487952 0.4493331176158666
000280 27 86 bb e8 57 be 22 c0 a2 6c 14 b9 99 79 ff bf
       -9.371764443293683 -1.9671876172713287
000290 9e 69 4b 2f 98 24 21 40 f0 d3 0b ef 1c bf eb bf
       8.57147357745708 -0.8670792263861795
0002a0 4c b4 fd 9d 87 c5 f6 bf ac 1e f0 19 01 67 f4 3f
       -1.423225037720175 1.275147534675777
0002b0 40 0c c2 43 da 87 f3 3f 80 50 4c 20 75 a2 ce bf
       1.2206671377941944 -0.23933281018310382
0002c0 0a 08 25 ad 9f 93 00 40 02 97 24 f3 e5 ca e5 bf
       2.072081902210816 -0.6810178517232262
0002d0 b5 86 19 b6 ef b9 22 40 df 79 55 03 70 8a ff 3f
       9.363156977287284 1.9712982301931488
0002e0 ac 39 23 2a 25 f6 20 c0 63 89 5c bb 26 c6 d5 3f
       -8.480752293395959 0.34021919533747375
0002f0 b3 df a1 a4 c6 4a f7 3f 75 94 c5 91 fc 06 01 c0
       1.4557558470678316 -2.1284114254399875
000300 1a ea 1e a5 49 6a fc bf 1b b6 1c 8b da a4 a1 3f
       -1.7759491395978615 0.03446085880419166
000310 70 ef 64 e8 92 91 ff bf 92 a3 12 8c 73 77 ed bf
       -1.9730404928113465 -0.9208314643666304
000320 3a fb ad be 88 be 22 40 dc c5 0e 50 d9 82 fe 3f
       9.372137030351599 1.9069455268148578
000330 2f cb e9 8d 64 48 21 c0 5b 43 2a 44 00 ab e8 3f
       -8.641392168797749 0.7708741504048747
000340 aa 99 42 5a ad d5 f6 3f 85 f8 d0 77 ab 13 ec bf
       1.4271672750270263 -0.877401098266788
000350 45 bd c5 a2 42 e9 ec bf 6f 44 58 44 cd 7e b3 3f
       -0.9034741572521986 0.07615359228681638
000360 f7 ea 78 cd 5b ed 00 c0 65 c4 c4 9d 0e 90 f1 3f
       -2.1158977558637804 1.0976701891743457
000370 4c 54 4f fd e6 b9 22 40 8d 22 a5 5c ea bf fe 3f
       9.363090434964896 1.9218543642947765
000380 2c 79 c9 f1 c6 45 21 c0 ed 55 f4 29 c6 68 e5 3f
       -8.636283450931465 0.6690398044035512
000390 e6 ae 6d dd 1f e1 f6 3f 41 ef 31 83 d6 75 eb bf
       1.4299620294140651 -0.858134514084192
0003a0 09 ff fc 91 18 d1 ec bf b2 8c b9 b6 d7 fb ad 3f
       -0.9005244113286334 0.05856203179862386
0003b0 43 fa da 8c 66 f5 00 c0 a3 c9 74 40 4e e8 f1 3f
       -2.119824505264917 1.1192152517147427
0003c0 1a d9 bf bf f1 b9 22 c0 10 2e 94 ed 3e d6 00 c0
       -9.36317252365966 -2.1046122132154395
0003d0 0b 6f 7c 30 86 40 20 40 70 1d 66 2f 8c 51 b7 bf
       8.126023783864659 -0.09108806760024435
0003e0 b6 fb 95 69 07 34 f3 bf c3 60 67 5f 64 cf 1b 40
       -1.2002023815582397 6.952531328854266
0003f0 af d8 ef f0 95 40 14 40 cb d2 d7 77 fd 3d a2 3f
       5.063071980132164 0.03562919700553876
000400 3a 5f d8 af 70 8e f8 3f 9d 4e d3 03 a5 a6 01 40
       1.5347754353478664 2.2063694285260014
000410 43 56 02 7c 49 be 22 c0 86 61 c0 fb 48 95 fe bf
       -9.371654391560815 -1.9114465555231575
000420 90 d3 d8 03 68 4b 21 40 33 26 76 b5 82 7e e7 bf
       8.647277946680134 -0.7341931862039871
000430 93 0d 58 d2 7a f5 f6 bf a1 8d 98 3e 7a 33 ee 3f
       -1.4349315849839044 0.9437838766647709
000440 26 b3 d7 30 89 75 ee 3f 4a c9 dc 95 c2 96 b0 bf
       0.9518476442295636 -0.06480041655303129
000450 fd e1 bb 4f f6 e0 00 40 82 1b 7d 13 25 e9 ec bf
       2.109844801827647 -0.9034600620878879
000460 53 a4 28 cb f4 b9 22 40 2e 34 b5 05 4c 73 ff 3f
       9.363195751868409 1.965648672386361
000470 6d 69 99 3b bf f4 20 c0 c8 b1 73 93 66 a2 d8 3f
       -8.478021490551976 0.3849121513328808
000480 62 12 bf 7c 74 8f f7 3f 6c c8 cf a5 f7 67 01 c0
       1.4725232003121609 -2.1757653192553814
000490 81 cf 57 cc 12 d7 fc bf 1b be 84 b2 98 48 a0 3f
       -1.802508161749728 0.03180386714154456
0004a0 3f 25 c2 80 b5 87 ff bf 8b db c2 77 81 3e f5 bf
       -1.9706320790886165 -1.327760188881913
0004b0 8e ab 2d 5e fc b9 22 c0 5d c5 87 f0 55 8e fe bf
       -9.363253539156883 -1.9097499271122935
0004c0 4c fe aa a1 3b 36 21 40 ef 92 c6 36 b3 d1 e8 bf
       8.605923702357494 -0.7755981511914721
0004d0 71 26 a5 17 9b a6 f6 bf b2 1d c0 d9 de 8b e7 3f
       -1.415675251353971 0.7358240368784463
0004e0 f4 75 53 60 aa ec e9 3f 72 d4 7b c1 7f 78 b5 bf
       0.8101398354880858 -0.0838699195263233
0004f0 a7 5e 13 05 16 0f 01 40 ff f3 16 7e bc ff f6 bf
       2.1323662182365584 -1.4374356198670737
000500 03 83 33 2c b3 b9 22 c0 b3 4d dc ef f9 5a ff bf
       -9.362695103920037 -1.9597110147050045
000510 c4 dc 7f 86 be de 20 40 56 ed 1e 9f a9 7d da bf
       8.435047343357276 -0.41391983546391964
000520 55 04 05 cf 20 d5 f7 bf 35 ad 01 89 64 00 03 40
       -1.4895332419112226 2.375191755641618
000530 f7 76 69 1b 4f d1 fe 3f 71 3c 03 80 74 cd 9b bf
       1.9261008330135476 -0.027150936425468012
000540 cb 54 fd 6d 66 0d ff 3f eb ce 73 b8 43 30 ff 3f
       1.9407715126483704 1.9492833333178463
000550 99 17 56 db 4b be 22 c0 3c 88 31 f4 97 a0 ff bf
       -9.371672491320895 -1.976707414513398
000560 d1 72 eb 19 a8 03 21 40 8a 77 51 56 1b 35 e8 bf
       8.507141885749123 -0.7564827619460044
000570 85 84 1c fe f7 93 f7 bf 78 dd 2d 9e a3 c1 fa 3f
       -1.4736251760698746 1.6722751788018666
000580 2e f2 ed 27 3e ff f7 3f b0 9f 1b 3c 0f 1f b4 bf
       1.499815135931509 -0.07859893052557143
000590 72 1e 6e 8e a8 43 00 40 76 bd 1a 23 d5 25 81 3f
       2.03303633950764 0.008372941144755269
0005a0 50 f8 80 53 cc b9 22 40 27 59 97 57 fa 60 ff 3f
       9.362887010091214 1.9611762448817645
0005b0 4b 69 09 98 74 f7 20 c0 6a 72 3f 95 fe cd d9 3f
       -8.483311415814248 0.403197904348224
0005c0 6b af e7 09 bb 98 f7 3f 33 c6 0c d2 46 29 01 c0
       1.4747877489962444 -2.145154610648001
0005d0 9f ea 30 98 32 78 fc bf a6 dd af 02 fa 94 a0 3f
       -1.7793451256717743 0.03238660128402708
0005e0 ff 61 c4 fe 64 8e ff bf 81 9e e2 23 d7 6b f5 bf
       -1.9722642852631223 -1.3388282205359305
0005f0 63 34 bb 00 7b be 22 c0 48 a2 84 7e a6 54 fe bf
       -9.372032187320832 -1.8956665937531785
000600 37 61 00 6a c9 9c 20 40 f4 85 df 6e 9a 27 ec bf
       8.306224167391163 -0.8798343816271754
000610 94 a4 1a 17 d9 d2 f5 bf 25 54 1b 67 a4 95 dd 3f
       -1.363976564646042 0.46225843495386904
000620 0f 43 05 50 7d 7b e3 3f ae 4b 16 9a 50 86 d1 bf
       0.608824402132173 -0.2738229279286156
000630 ba c1 89 5e e4 41 01 40 13 a6 93 e6 4f 8c 01 c0
       2.1571738611021063 -2.193511773472673
000640 38 30 47 4e b8 b9 22 c0 85 b0 e3 1c 65 58 ff bf
       -9.362734266462311 -1.9590808037274041
000650 ed 89 d2 4d 77 ea 20 40 f5 18 e9 ec 0a 92 da bf
       8.457941467237982 -0.41516373763842235
000660 3c b1 58 a8 4c bf f7 bf 97 f3 81 7f ee 1b 02 40
       -1.4842039657624602 2.2636384927304323
000670 e1 03 aa 65 84 a9 fd 3f 86 d8 27 11 f6 c9 9d bf
       1.8538860293631318 -0.029090733334634432
000680 da 3a ac 7c f1 4e ff 3f 43 c1 5d 28 e9 65 fb 3f
       1.9567732687025257 1.7123805596166484
000690 b7 9d 52 14 d7 be 22 40 42 ad f8 f2 de 83 fe 3f
       9.372734675488443 1.907195042712218
0006a0 ef 3a 0d c5 8b 45 21 c0 73 ba ed 85 1b c2 e8 3f
       -8.635831983437553 0.7736947646897775
0006b0 17 64 8d 71 fc c8 f6 3f ac 15 b3 57 9a e0 ea bf
       1.4240688739430476 -0.8399173462755036
0006c0 69 09 88 42 d9 16 ec bf 78 d2 da cf 52 25 b4 3f
       -0.8777891444627076 0.0786945111711449
0006d0 49 ae 44 f4 3e f5 00 c0 7f 39 9c 6c 5b 31 f3 3f
       -2.1197489818057744 1.1995500795925123
0006e0 4b 26 9e d5 fd b9 22 40 69 96 77 0e 91 87 ff 3f
       9.36326472812211 1.9705973210451708
0006f0 a3 55 ac c8 c7 f1 20 c0 24 12 38 62 6f e0 d5 3f
       -8.472227355038575 0.3418234309358772
000700 5b 64 94 ea 7d 50 f7 3f de f5 0f bf b9 76 01 c0
       1.4571513331668686 -2.1829714705224736
000710 a4 ff 17 ef d9 f9 fc bf d7 5e 1c 3e 33 f6 a0 3f
       -1.810998853645267 0.03312835820378062
000720 de ef c9 87 2c 72 ff bf 46 ee fd 5d c1 fd f0 bf
       -1.965374498772682 -1.061951987415243
000730 d6 ac 4b bd a0 be 22 40 c7 f8 d6 9d 6c 9f ff 3f
       9.372320094573677 1.9764219442
000740 68 22 80 22 45 02 21 c0 d7 f4 29 cf 23 9a e8 3f
       -8.504433706418425 0.768815903298356
000750 77 31 f9 63 64 8c f7 3f 2c d2 89 15 ca 8a fa bf
       1.4717754273616188 -1.6588841286985696
000760 2b 62 64 e4 b4 da f7 bf c5 88 c2 de b6 3d b5 3f
       -1.490895168453913 0.08297293604349239
000770 b9 f2 16 91 c2 43 00 c0 fe 27 68 95 71 80 9a 3f
       -2.033085950386831 0.025880598777838763
000780 60 ff 93 fc 48 be 22 40 12 1a 62 48 54 84 ff 3f
       9.371650593820675 1.9698069407910492
000790 b8 3e f0 97 d2 1e 21 c0 88 62 56 7b e3 2f eb 3f
       -8.560200450970441 0.8495957764562982
0007a0 6f c3 42 fb b2 ff f6 3f 87 d3 d1 fd b1 d8 f5 bf
       1.4374265494227207 -1.3654041209058236
0007b0 b6 66 cb 61 a4 95 f4 bf e7 44 e5 19 29 5a c4 3f
       -1.2865337200259268 0.15900148167069192
0007c0 33 36 19 b9 4a 81 00 c0 e5 b2 cc 32 42 bb e1 3f
       -2.063130804139996 0.5541087143115787
0007d0 2d 44 c8 30 51 be 22 40 d3 aa fe 2f 39 99 ff 3f
       9.371713184782573 1.9749080538555759
0007e0 b7 75 c7 19 ac 08 21 c0 53 ac 90 10 bd 5a e9 3f
       -8.516938024137614 0.7923264812028584
0007f0 ea fe 92 e0 e0 6f f7 3f b3 f6 6d 77 a6 b1 f9 bf
       1.4648140690259717 -1.605871645471251

conv2.att_src f8 [1, 1, 64]
000000 7e 8d 32 3b 22 2a f4 3f 54 59 33 8f 30 73 f5 3f
       1.260286551704524 1.3406224817059256
000010 c8 c6 fd 18 ec fd f6 3f 2a a6 a2 44 90 e4 f6 3f
       1.436992738363573 1.4308016472881584
000020 7f 27 25 c7 31 e4 f6 3f 93 97 f4 f5 4b 76 f5 3f
       1.4307115344149393 1.341381035579137
000030 01 a3 9c a8 78 f3 f5 3f 9d 2a 26 95 d3 d8 f5 3f
       1.3719412409211034 1.3654361559044113
000040 b1 ed 7d 80 2d 6b f7 3f 6d f6 9b ad 5b cd fa 3f
       1.463666440888897 1.6751362592325691
000050 55 8d c5 1c 37 18 f2 3f 6e 54 3b af 79 c2 f6 3f
       1.1309119342702918 1.4224793286314497
000060 6c 93 7c 1a b6 65 f9 3f 1b 6a a5 94 f4 f0 f4 3f
       1.5873318705209511 1.3088270002832647
000070 69 da 89 4e 3c 18 f4 3f 25 02 22 89 7d 64 f7 3f
       1.2559168880376552 1.4620337826492087
000080 16 e5 a2 a7 92 18 f5 3f 36 bb 89 f4 b4 42 f3 3f
       1.3184992359441075 1.20378585360204
000090 62 da a0 01 de 60 f5 3f 09 c2 67 c1 db 95 f9 3f
       1.3361492217642525 1.5990865282911975
0000a0 6a 25 8a b9 97 49 f7 3f 12 25 7e 1b 7a a2 f8 3f
       1.4554669616357736 1.5396672319350881
0000b0 4d 2b d6 f1 df 27 f7 3f 63 fb d4 47 08 3c f6 3f
       1.4472350546590917 1.3896563344894381
0000c0 72 ea b9 7d 26 dc f4 3f d0 42 3a f2 88 ef f5 3f
       1.3037476454907417 1.3709802114500924
0000d0 e8 6c 75 a2 d2 98 f3 3f 14 b1 97 0c 8e 37 f2 3f
       1.2248102518122383 1.1385632030388182
0000e0 cd c4 eb af b1 9f f2 3f f5 9f 44 c3 7c 99 fa 3f
       1.163987815085693 1.6624724986704653
0000f0 85 57 16 f7 2a d8 f9 3f 43 5f 3f d9 5c 05 f0 3f
       1.6152753497931098 1.0013092504722898
000100 01 4d c6 04 2a ba f7 3f 00 10 35 4a 64 39 f3 3f
       1.4829502283581066 1.2015116595002837
000110 a3 2f d5 b9 52 51 f8 3f 35 f7 60 45 0d d6 f3 3f
       1.5198542841999163 1.2397587499721798
000120 97 72 5e b4 b1 7a f7 3f bb 31 23 2c 6d 46 f9 3f
       1.4674546285306513 1.5796939586754053
000130 6d ae 9c b5 6a 07 f6 3f 76 76 e4 16 25 ec f7 3f
       1.3768107504100968 1.495152558730664
000140 6f f1 56 97 e4 a2 f2 3f 5e 9e 75 02 23 63 f9 3f
       1.1647687827781643 1.586703309638231
000150 02 6a c4 70 ed d0 f7 3f 9a 0d f3 7c 68 20 f3 3f
       1.488507690903703 1.1954121476017918
000160 f9 de c6 91 68 c5 f5 3f 83 06 52 3f 75 dd f5 3f
       1.3606954283149533 1.3665668939069355
000170 d7 83 88 aa a1 2d f5 3f 0f 1e 56 28 32 58 f9 3f
       1.3236405049758468 1.5840322089806056
000180 fa 0f 59 af 64 37 f8 3f 74 43 40 44 0e 85 f5 3f
       1.5135237550284715 1.3449843088203268
000190 18 a1 dd a2 d6 6b f9 3f 40 13 82 2d 9c 93 fc 3f
       1.5888277399008697 1.786037614599266
0001a0 60 25 96 06 ae ab f2 3f 01 c4 18 d2 5e 41 f8 3f
       1.1669140107427083 1.5159595686820924
0001b0 7c 88 94 18 86 1d f8 3f 30 d5 22 ca 48 d4 f6 3f
       1.5072079620518073 1.426827230066305
0001c0 c4 42 82 7b de 8c f4 3f 29 10 53 cd eb bf fa 3f
       1.284391863304493 1.6718557377325942
0001d0 a0 9b d3 b2 d8 68 f7 3f cd 93 4e d1 b4 e7 f7 3f
       1.4630972848333172 1.4940689254810764
0001e0 b1 c4 92 bb a6 db f8 3f bc 52 41 21 2f b8 f3 3f
       1.5536258055765695 1.2324668215780283
0001f0 a0 38 05 31 26 6b f5 3f 3a 6d 0e dc c8 df f6 3f
       1.3386594691142264 1.4296349140120825
