models/model_0.01_500_out_of_1500.pt (torch, 1191 bytes, 1 tensors)

linear.weight f4 [1, 32]
00000000: a678 c9bf f75e 4740 9575 f33e a49f c2c0
00000010: cc90 d2c0 7665 9cc0 194f 4f40 a933 7d40
00000020: d728 a140 7c66 e0bf 6e2f 2dc0 ad49 bf40
00000030: e66f bc40 2af1 1340 f5dd 9940 79b7 1ac1
00000040: 0f43 dd40 2410 bf40 5106 37c0 79e4 52c0
00000050: 9f1f 0dc1 0aec cebf d4dc 38c0 9ee6 d540
00000060: 063d 84c0 4d9e 2dc0 e328 8940 1d44 d440
00000070: 056d 2440 1f44 2240 7985 c3be daee 6540
-1.5739944 3.1151712 0.47550645 -6.0819874 -6.5801754 -4.8873854 3.2392027 3.956278
5.0362353 -1.7531276 -2.7060199 5.9777436 5.8886595 2.3115945 4.8083444 -9.669793
6.914436 5.9707203 -2.8597605 -3.2951949 -8.82022 -1.6165783 -2.8884783 6.6844015
-4.132449 -2.712787 4.286241 6.6333146 2.569154 2.5354078 -0.3818777 3.5927033
