models/model_0.01_750_out_of_1000.pt (torch, 1191 bytes, 1 tensors)

linear.weight f4 [1, 32]
00000000: 2083 56be 5a28 833e a267 b43c 7dce 22be
00000010: 1f13 e2bd 6450 5e3c 19ea 583d 9a31 32bb
00000020: e478 4e3e 0faa 97bd 69d8 b53d 54fa d23c
00000030: da4b a9bc 2415 b33d 4623 13bd 0034 53be
00000040: 8b6d 123e 064f d0bd 898b 453e db53 6a39
00000050: 09cb 283d 7283 29be ad67 04be ef84 2e3d
00000060: 8322 79be 89d1 85bd b4b2 873d 6041 ba3c
00000070: 9767 d43d 578c 53bd 5948 fbbd 0586 6dbe
-0.20948458 0.25616723 0.022022072 -0.15899082 -0.11038803 0.013568971 0.052957628 -0.002719021
0.20163304 -0.07405483 0.088791676 0.025754131 -0.020666052 0.08744267 -0.03592231 -0.20625305
0.142996 -0.101713225 0.1929151 0.00022347218 0.041209254 -0.16554049 -0.12930174 0.042607244
-0.24329571 -0.06534106 0.06625882 0.022736251 0.10371321 -0.05164751 -0.122696586 -0.23195656
