models/model_0.01_500_out_of_1000.pt (torch, 1191 bytes, 1 tensors)

linear.weight f4 [1, 32]
0	0x40495b66	3.1462035
1	0x402e3a94	2.7223253
2	0xbf38ceb2	-0.7219039
3	0xc0076e15	-2.1160939
4	0xc014940f	-2.3215368
5	0x3f6eefb0	0.93334484
6	0x3f9ef9ef	1.2420024
7	0xc0b64ba4	-5.6967335
8	0xc03f4016	-2.9882865
9	0x408b0809	4.344731
10	0xc07d6988	-3.959566
11	0xbfa46b0c	-1.2845168
12	0xc05c9479	-3.446562
13	0x3f8d219e	1.1025884
14	0xc04bb569	-3.1829474
15	0x40913186	4.5372953
16	0xbfe74f2d	-1.8071038
17	0xbf86de6c	-1.0536628
18	0xc02d7a55	-2.7105916
19	0xbed9bed0	-0.4252839
20	0xbf0e6c57	-0.55634063
21	0x40304dd6	2.7547507
22	0x41002a59	8.010339
23	0x39355e88	0.00017296721
24	0x3f08c37e	0.534233
25	0x401059f0	2.2554893
26	0xbebb547a	-0.36587888
27	0xc043262d	-3.049205
28	0xc0913094	-4.53718
29	0x402d90d4	2.7119646
30	0xbfe91a0d	-1.8211075
31	0x3dab2c67	0.083580784
