models/model_0.01_250_out_of_1000.pt (torch, 1191 bytes, 1 tensors)

linear.weight f4 [1, 32]
0.8605305 1.8624136 -0.43937066 -1.9582399 -2.4635363 0.85593915 1.975419 -5.978011
-2.343874 5.2817116 -1.5713485 -0.44146484 -3.568769 0.9250024 -2.5685282 3.9025774
-0.7739053 -1.1830035 -2.6945057 -0.5118805 -0.58780974 2.6473544 6.8290615 1.506436
-0.30701986 1.5185738 -3.2957056 -3.7483432 -3.9572692 2.773958 -3.4691448 -0.2801183
00000000: ba4b 5c3f 9263 ee3f 31f5 e0be 9ba7 fabf
00000010: 94aa 1dc0 d41e 5b3f 88da fc3f de4b bfc0
00000020: 0802 16c0 c803 a940 f321 c9bf ae07 e2be
00000030: b666 64c0 f5cc 6c3f c462 24c0 d4c3 7940
00000040: a81e 46bf a96c 97bf c872 2cc0 9a0a 03bf
00000050: b37a 16bf 416e 2940 ac87 da40 e5d2 c03f
00000060: b531 9dbe a060 c23f d7ec 52c0 dbe4 6fc0
00000070: e643 7dc0 8788 3140 7806 5ec0 aa6b 8fbe
