models/model_0.05.pt (torch, 53307 bytes, 16 tensors)

conv1.att_src f8 [1, 1, 64]
5.046484442162659 4.723889945123593 4.86811121959384 4.795481545811586 4.869853101159818 5.17119018935089 4.792568650022108 4.309229389397994
4.194836378414095 4.3506491628395745 4.84959294875075 4.152850623677793 4.8609645363836975 5.081959861650436 5.075417728223049 5.131035779994275
5.211071838629178 4.969930107263791 5.075575900934111 4.401374613971398 4.814789513959033 4.963629205181143 4.866524917798267 4.856937854835828
4.168589716482316 4.851505056484735 4.207037128782647 4.498434413237781 5.288604792096521 4.987514425196668 4.853841953615109 4.455240960159763
4.809947053942055 4.911249383352201 4.640193306171079 4.736100484491624 4.581441264304866 5.043765023459884 4.753996622060791 4.350064054332616
5.017314333056433 5.195901058870049 4.75302895713128 4.705055395066701 4.5442860563454035 4.85208405145147 4.887487176100175 4.443322069996331
5.031333082419186 4.578193574965387 4.869998995068587 5.015791587425418 4.883583900026736 5.480112870550628 4.931488894697847 4.886928722088999
5.640563449054078 4.687229392474952 4.778191068945038 5.397311381783766 4.389640790376331 4.632967039497849 4.8174008310991665 4.789107197442933
00000000: 1972 1b9e 992f 1440 16d6 e067 43e5 1240
00000010: edc8 c525 f278 1340 4354 dfb6 922e 1340
00000020: ef38 77c5 ba7a 1340 eaa1 227b 4caf 1440
00000030: 24b8 be1d 972b 1340 abb4 09a1 a63c 1140
00000040: 4070 0530 83c7 1040 2110 fb92 1067 1140
00000050: cc2f a7b1 fb65 1340 307a b7df 849c 1040
00000060: 9822 fbaf a071 1340 447e 3549 ed53 1440
00000070: c506 114e 3a4d 1440 9db9 563e 2e86 1440
00000080: 5d13 5037 23d8 1440 3f6a a85b 35e1 1340
00000090: cf82 dbc4 634d 1440 9fce 61f2 019b 1140
000000a0: a64f ae2e 5842 1340 d9e4 469d c1da 1340
000000b0: 5973 dc4e 5277 1340 a9e5 f41d 816d 1340
000000c0: 10ef 5ac8 a2ac 1040 1aec 07f1 f067 1340
000000d0: 83b7 848a 01d4 1040 983a 4097 65fe 1140
000000e0: 0018 be03 8827 1540 1431 42fb 36f3 1340
000000f0: 27eb 8a8b 556a 1340 48be aeaf 2ad2 1140
00000100: d1b0 b0c2 623d 1340 d2fd ef8e 1ea5 1340
00000110: d97d 84d5 8e8f 1240 5ad8 4d53 c4f1 1240
00000120: eaef ba56 6553 1240 21e0 01bd d02c 1440
00000130: aa2e c4b0 1704 1340 7c74 0331 7766 1140
00000140: f0ea 38d9 ba11 1440 0065 8449 9ac8 1440
00000150: 8247 df05 1a03 1340 28b8 9e0a fad1 1240
00000160: 75b0 ee52 592d 1240 80b5 b9b8 8868 1340
00000170: eae0 3370 c98c 1340 c4ea 8038 f6c5 1140
00000180: d617 91c7 1520 1440 45ef fcf9 1150 1240
00000190: 637d 3d04 e17a 1340 272d 7eab 2b10 1440
000001a0: 408c c737 ca88 1340 519d 55b5 a2eb 1540
000001b0: fd41 8d39 d8b9 1340 7405 fd0a 378c 1340
000001c0: 08cd 62dd ef8f 1640 961e d60f b9bf 1240
000001d0: 04a2 9c1e de1c 1340 005c 7ccb d896 1540
000001e0: 6d6a cffe fd8e 1140 585b f882 2888 1240
000001f0: 332d 35b9 0445 1340 f238 98b7 0b28 1340

conv1.att_dst f8 [1, 1, 64]
0.053627935248799385 -0.12321918546270066 -0.038171327088389606 -0.013033612795088833 -0.2546349809352076 -0.27790450326250316 0.055156257198241056 0.055343717564300426
0.002159241454365609 -0.17394907298427242 -0.014101242892087194 -0.04792658363498319 -0.08389884021590359 0.1404151958433112 0.0006440362901060313 0.09465426837691054
0.10899169873258743 0.021190487934697123 0.05595306567790258 -0.11396467896264126 0.09525938489918619 -0.2751801733287668 0.034570912200051346 0.0060621575781710894
0.02364526966208539 -0.24658729156622072 0.06387877082294845 0.18099398343202855 -0.25521632346853224 0.10400478682484862 0.061500510080708164 0.20572281581551977
0.033207653650022116 0.021193155375075 -0.20069052352903316 -0.10282483418030038 -0.274253772666853 -0.01738614412656547 0.07527802930874307 0.07970420925941732
0.019880072928484826 -0.28651881477085483 -0.04943496486627426 -0.10015845818040595 0.0936246851317707 0.010434867412428887 0.10558948188096587 -0.24463414709581774
0.038619135886787385 -0.01997038105734851 -0.17793534797745697 0.0711143633650846 -0.06410598773947247 -0.36398313394194215 -0.2415725922750435 -0.13977997895860844
-0.07667618849959129 -0.003744473292365775 -0.0395932177249555 0.06711562498153002 0.038377138888834574 -0.16905695760434186 -0.06594724992700901 -0.08363390190643
00000000: c058 17e8 1e75 ab3f ac53 cde3 4a8b bfbf
00000010: 98a6 fa32 318b a3bf b30a a1e5 5db1 8abf
00000020: f931 e284 f04b d0bf e01b 3bf8 2fc9 d1bf
00000030: b523 ace1 703d ac3f 2c99 f401 0356 ac3f
00000040: c507 c8ed 41b0 613f 2488 d195 f643 c6bf
00000050: 5f8c 6fc8 1ce1 8cbf 677c a44a d589 a8bf
00000060: 834e e6f6 647a b5bf 1c15 0109 20f9 c13f
00000070: cb34 d766 911a 453f 140b 1b1b 433b b83f
00000080: e289 9745 e1e6 bb3f 3dc9 a992 f5b2 953f
00000090: de22 6556 e1a5 ac3f d62e 0b09 ca2c bdbf
000000a0: d971 c746 eb62 b83f 3b19 3d4d 8d9c d1bf
000000b0: 2c8f 9552 47b3 a13f 8cc0 a908 a2d4 783f
000000c0: aa72 9d2f 7736 983f dc6c 7120 2c90 cfbf
000000d0: bfde 97ef 5b5a b03f 8c81 ce93 cf2a c73f
000000e0: 17f9 acd8 7655 d0bf 0249 0ac6 0ea0 ba3f
000000f0: 97c9 f7ae fe7c af3f 00fe fb0e 2055 ca3f
00000100: 03b7 cef4 9700 a13f 33a2 f094 a8b3 953f
00000110: fc4f 9621 3ab0 c9bf 1d61 0574 ba52 babf
00000120: 0029 1ab2 5f8d d1bf 7f64 b561 accd 91bf
00000130: 8906 fdc1 6b45 b33f be6b 1fbc 7e67 b43f
00000140: a39d 471c 715b 943f c849 c802 5356 d2bf
00000150: 4a55 c22a 8a4f a9bf fa78 4d16 fca3 b9bf
00000160: a93f bd90 c9f7 b73f a221 3232 e05e 853f
00000170: 1af7 7a8b e907 bb3f 3f75 a1f6 2b50 cfbf
00000180: 475e 442b e3c5 a33f 64b0 1e96 1d73 94bf
00000190: 96ca 2ee2 95c6 c6bf 51cc ed08 8d34 b23f
000001a0: 9d9d d100 4069 b0bf f0e0 24ea 7f4b d7bf
000001b0: 5533 b7c7 d9eb cebf 26a3 2173 4fe4 c1bf
000001c0: 54d8 fcf9 0ca1 b3bf 8f4a 9bca baac 6ebf
000001d0: 904f 8bee 8f45 a4bf 49a5 5856 7d2e b13f
000001e0: a518 e218 2ba6 a33f 3e34 098c a8a3 c5bf
000001f0: ac98 b241 ebe1 b0bf ac65 8609 0869 b5bf

conv1.att_edge f8 [1, 1, 64]
-0.5431622528835249 -0.6496030626401667 0.8495265492405625 0.5082133558737431 0.08009504354804257 -0.5967416279866963 -0.38596758952831095 -0.30067176004270013
-0.19587284136855934 0.19256537450515557 0.248461033369539 -0.355194721757827 -0.7304139024595199 -0.6535625598036334 0.3103720362704915 -0.3787886426630499
-0.569940408548789 -0.15638856215819005 0.6240819440742164 -0.688229439602963 0.13063652286844651 0.25568176930594416 0.47581910221668094 0.42591683856579204
-0.49336997388801207 0.4258642376679752 0.23008690208778096 0.20417839593805248 0.3094455026802615 0.3081882603376585 -0.4673687229303465 0.2546096539423094
-0.5545670698253774 0.5601792317941755 0.4869167208005773 0.5387535686017456 -0.11326544196446257 -0.023758403126379453 0.2445799838115776 0.18081442386208013
0.7985164274362865 0.33011635680404544 0.5241177555890509 0.7746956147001024 0.2819753550751022 0.5755447734935507 -0.24019122826920974 0.7808549812223862
-0.7698390722197687 -0.5048492773577837 0.7861556060094672 -0.7903594006159775 0.3037374240357907 -0.7010790514582402 0.058329483356726664 0.32310252535993417
-0.42974742467571486 0.3748327351332246 0.29145970859423137 -0.6110022957678699 -0.4297284479396092 0.7277995074338313 -0.5823174711461164 -0.23249691162135347
00000000: 34ce 11ce 9561 e1bf 7778 ad5c 8cc9 e4bf
00000010: 694d 424d 522f eb3f c5c7 dba7 4843 e03f
00000020: 434c 9cd8 1b81 b43f 49ab 0be6 8118 e3bf
00000030: 57c3 9567 b1b3 d8bf beb4 0dc4 343e d3bf
00000040: a120 ed7b 5c12 c9bf b5ba eb70 fba5 c83f
00000050: 4286 5336 92cd cf3f 1359 6aa4 82bb d6bf
00000060: 976f f3f9 8c5f e7bf 8ee4 8707 fce9 e4bf
00000070: defa 57ac 22dd d33f be60 15b8 123e d8bf
00000080: 8559 ecaa f33c e2bf c30c f857 8a04 c4bf
00000090: df54 7ab2 7af8 e33f fba6 e7be f905 e6bf
000000a0: 880a b194 b2b8 c03f 7d8e 5611 175d d03f
000000b0: 614b b5f6 d173 de3f a32b 1db3 3842 db3f
000000c0: 4a5a aba7 5f93 dfbf a679 5413 5c41 db3f
000000d0: 913c dad3 7c73 cd3f 3645 8d86 8422 ca3f
000000e0: f6fb 7982 f4cd d33f 0154 ca40 5bb9 d33f
000000f0: 142f 0a81 5ee9 ddbf ee65 3b4a 864b d03f
00000100: 5bd5 8a70 03bf e1bf 578a 0eff fcec e13f
00000110: dfb2 edbf a429 df3f e5ed b71f 783d e13f
00000120: 431d 01c9 f6fe bcbf 2260 bb71 1f54 98bf
00000130: 370c dd9b 654e cf3f d8fc 9052 ed24 c73f
00000140: 1f0b a552 728d e93f 5346 165b a020 d53f
00000150: ad40 7099 92c5 e03f d5ba 2f75 4eca e83f
00000160: d6d5 145c e20b d23f 9f3b 71df dc6a e23f
00000170: d6e5 190f 96be cebf 5c9a e895 c3fc e83f
00000180: 8dbd cb8c 85a2 e8bf 3626 f5ab b927 e0bf
00000190: 4e16 2ccd 2f28 e93f ca6a 37cc 9f4a e9bf
000001a0: 3585 b317 6f70 d33f 1f90 bd55 3d6f e6bf
000001b0: 78c6 d1ae 5cdd ad3f 6742 eb36 b6ad d43f
000001c0: 4f6f a157 fb80 dbbf f983 b770 42fd d73f
000001d0: f7e3 209f 46a7 d23f 5153 c3af 548d e3bf
000001e0: f6ee 83bf ab80 dbbf 9224 4f31 224a e73f
000001f0: a7c8 ce3f 58a2 e2bf f5d7 ea73 75c2 cdbf

conv1.bias f8 [64]
104.69019396268392 104.66733749600336 104.22603893365105 104.98759799460879 105.13285601126977 105.43706593236662 105.10949240920587 104.03402740563222
104.88502637521418 103.99300255040549 105.09294468379548 104.08326603652891 104.71382569532199 105.54102536514974 104.77123035717281 104.73098099737523
103.57252474114975 104.7649612465931 104.6533879929455 104.9220024494563 104.89527256556633 104.4583617114834 104.63563039194953 104.58530166125459
103.99685838722445 105.31203668720056 104.43438913315663 104.33254658818083 104.47880129676358 103.51026856435779 104.10187560509073 104.77432948276594
105.01405230904365 105.11064210336374 104.50907908968607 104.16476467197964 104.97155041357932 104.84927300484365 104.7093613509938 104.37972574876764
105.5511059048072 105.68397294013673 105.32577652776637 103.92782329978678 104.09497524742042 105.12190405479858 103.69607590000972 104.67837133623921
104.90604350340472 104.67783759750489 105.20412363058178 105.20163099309916 105.02342894985482 104.76059224452243 105.60971606794638 104.35946497812664
105.35851637712936 103.74319249425432 105.39985154389527 104.81172347498328 104.46106578937788 104.93285962338105 105.35756721987636 105.65480739670701
00000000: f167 4c23 2c2c 5a40 a72e 54a8 b52a 5a40
00000010: dbe9 006c 770e 5a40 281c 38ce 343f 5a40
00000020: c3de 7fb6 8048 5a40 776d 63e3 f85b 5a40
00000030: c42c 73ec 0147 5a40 eb96 4881 2d02 5a40
00000040: 1c69 aa45 a438 5a40 84b5 915a 8dff 5940
00000050: 464f 42ce f245 5a40 97f0 113b 5405 5a40
00000060: f41c f851 af2d 5a40 f967 da28 a062 5a40
00000070: 566f 92d6 5b31 5a40 576e 8564 c82e 5a40
00000080: e6d8 cf3e a4e4 5940 c934 0420 f530 5a40
00000090: 3353 df1b d129 5a40 cacf 8f16 023b 5a40
000000a0: 4287 4d25 4c39 5a40 d423 5ccc 551d 5a40
000000b0: 1571 182b ae28 5a40 8258 1995 7525 5a40
000000c0: d4f7 1e87 ccff 5940 6eab b968 f853 5a40
000000d0: 5029 1408 cd1b 5a40 8428 7c71 4815 5a40
000000e0: 72b8 31ae a41e 5a40 fd05 7b3d a8e0 5940
000000f0: fe07 4221 8506 5a40 bb33 3f9d 8e31 5a40
00000100: a6f1 a73b e640 5a40 82e0 9dc2 1447 5a40
00000110: dd51 76c0 9420 5a40 146c 1f81 8b0a 5a40
00000120: 432f c9e1 2d3e 5a40 774b 297d 5a36 5a40
00000130: 25e4 262d 662d 5a40 fe19 3a6d 4d18 5a40
00000140: e271 b351 4563 5a40 1e4f 7036 c66b 5a40
00000150: e723 cb85 d954 5a40 4443 fa74 61fb 5940
00000160: 6a66 0f13 1406 5a40 0527 aa46 cd47 5a40
00000170: d584 ee81 8cec 5940 3dec 9b6f 6a2b 5a40
00000180: 19f8 e39d fc39 5a40 1852 f2b0 612b 5a40
00000190: 216c 8f5c 104d 5a40 234e ae85 e74c 5a40
000001a0: fd59 23dc 7f41 5a40 2af4 178b ad30 5a40
000001b0: 3aeb 8a96 0567 5a40 1f47 6579 0117 5a40
000001c0: 77b6 acee f156 5a40 1e5d 4077 90ef 5940
000001d0: 4212 ee2a 9759 5a40 b79c 0447 f333 5a40
000001e0: adab 151a 821d 5a40 8d8b d9f8 b33b 5a40
000001f0: 66df 9e61 e256 5a40 4682 485d e869 5a40

conv1.lin_src.weight f8 [64, 3]
76.79632300049558 -97.20108284196458 -95.87141907960044 75.66961118137606 -96.26080367845438 -95.27598662641459 76.18283707692088 -96.56589939414778
-96.29566326094064 76.03717744411199 -96.66306975093285 -96.97347828721212 76.2072156287251 -97.30258079777857 -95.90686601901439 77.22807688496604
-97.0578199119114 -96.97522683074672 77.68315159400807 -96.92235892266606 -97.06619658177075 71.95413711657349 -97.26166847797863 -94.54558736810306
73.40155358369981 -97.26241019059877 -95.03024301362596 75.20902181617573 -95.51431784376042 -94.78971822038464 76.0480907948838 -98.05790126299927
-95.38449832910568 73.04130388520073 -97.03446696092736 -95.21402662756363 76.34179522645077 -96.66350520793706 -95.78567104793552 76.68214886996196
-98.2014811215206 -97.5298267871395 75.95008833851745 -96.96848705387293 -96.40041968221145 72.93204055868783 -96.52727627663808 -96.95945358630688
71.88251434133265 -96.17921758065621 -95.23985350306589 75.67043490468158 -96.76311780743184 -96.72441494270429 76.70669149013109 -97.14329976673639
-95.69398575886497 75.72561718551735 -97.36596829705402 -94.82271252562924 75.94584112541853 -97.8566763344099 -96.67644225473134 75.49592845586443
-97.19208732812187 -95.12585558410858 76.48965649840248 -97.34878783417847 -96.18658902213802 76.0709712244585 -96.28306431701327 -96.67687508261496
72.75436539360376 -97.4354791924392 -93.99550980213617 77.03839212388215 -97.40780818963516 -95.5471821530657 75.26598354755465 -97.17015948162889
-94.99678896308008 74.11754155920866 -96.901846906998 -95.65341944254976 76.06640420224271 -96.47598202712201 -94.77360593590647 71.85305910773934
-96.67002296912744 -95.53519546603253 76.61520182536933 -95.8684937322563 -96.20420000206232 73.35924451364278 -97.59887848065834 -95.4193116032559
76.93029642639847 -97.52757754864565 -96.92951869323755 76.95178716712151 -96.97306781076531 -96.91126851786909 76.44917145631119 -96.71373257363393
-95.40564511260615 76.32572943739439 -96.39796476243008 -94.80599195747978 75.98464324541897 -97.48015115028694 -95.44504963873251 77.10074624946289
-97.22375844482985 -95.77934894502548 75.79244473997346 -96.37382715258163 -96.38462488337669 74.72857434889492 -97.3554198022099 -94.7122420186617
77.22418960688545 -98.10142291902785 -96.95268245783797 75.80997171054435 -97.60884070160785 -96.03635044292439 77.19311296744193 -97.22745317794714
-96.8132693475558 75.39594779067329 -96.30781748514006 -94.96510396449091 71.96635157750676 -97.32132216789499 -95.725376938401 76.66139871898869
-97.33439651035769 -95.78777447469804 71.87937010465053 -96.42145744960627 -96.0881053930464 76.81717808508228 -96.21786618897508 -95.56024724337546
77.16466269518853 -96.91484570334444 -96.72172747073779 76.74242540870615 -95.2135956742954 -96.79631035052961 77.24594744435397 -96.76815441043554
-95.69460886417494 76.25315681330041 -97.41925978702096 -96.95586859098552 76.36494949279785 -97.36596311870483 -96.75509271087917 76.42375664960431
-96.800410061016 -95.34840980756017 78.07648722317299 -97.06057341654721 -95.64413923607708 76.27885884333554 -96.3342201317551 -94.93536120816489
76.90935544294977 -97.40505579797407 -96.41987225008084 74.11576605028584 -96.29139037177934 -96.02232372970627 76.72516955852728 -96.72657472736287
-96.98785553379821 76.85040755825985 -96.5248737512367 -95.04712878471726 72.96138382374173 -97.61342225078859 -95.35805260112207 74.95913168285627
-97.0106509781298 -95.39863707174631 76.56836044224622 -97.1024627610298 -95.89309749044929 78.02913770871518 -97.18053545549812 -97.05965287622476
00000000: 970b bff4 f632 5340 9381 918a de4c 58c0
00000010: a3ff 8754 c5f7 57c0 f342 dbe8 daea 5240
00000020: d668 e901 b110 58c0 61a5 cfc3 a9d1 57c0
00000030: c577 489a b30b 5340 38ac 17b2 3724 58c0
00000040: 9a17 9925 ec12 58c0 08a7 801d 6102 5340
00000050: 4dce 1bbc 6f2a 58c0 4cbc df77 4d3e 58c0
00000060: 0a26 5705 430d 5340 d2b6 d97b 5d53 58c0
00000070: 5061 c517 0afa 57c0 c679 cacf 984e 5340
00000080: e4ad 4952 b343 58c0 4a0f cc1d 6a3e 58c0
00000090: 659e 76c1 b86b 5340 9201 b8ed 073b 58c0
000000a0: fe73 9690 3c44 58c0 4ee5 1f95 10fd 5140
000000b0: fdd3 242d bf50 58c0 41c7 47e7 eaa2 57c0
000000c0: 4465 cd0d b359 5240 91b0 1c54 cb50 58c0
000000d0: 2f9d 6480 efc1 57c0 0528 0a9d 60cd 5240
000000e0: d1ac 6395 eae0 57c0 df66 4abe 8ab2 57c0
000000f0: efd0 69eb 1303 5340 a7be 7fa7 b483 58c0
00000100: 0938 e19e 9bd8 57c0 a208 0db9 a442 5240
00000110: 6f7e e9b4 3442 58c0 f976 bd9c b2cd 57c0
00000120: 3de2 15f9 df15 5340 2f34 8cde 762a 58c0
00000130: 0413 386f 48f2 57c0 5cdf bb53 a82b 5340
00000140: 50ec 1211 e58c 58c0 c5d3 9cae e861 58c0
00000150: 948f 513f cefc 5240 f4be 1fb1 fb3d 58c0
00000160: 77f1 df79 a019 58c0 0787 718d a63b 5240
00000170: 8007 ffe4 be21 58c0 f3cd 03b0 673d 58c0
00000180: 9591 6e1d 7bf8 5140 59f2 034d 780b 58c0
00000190: f0df 81c2 59cf 57c0 136d cd67 e8ea 5240
000001a0: 8f7a 12ec d630 58c0 83e9 7dd0 5c2e 58c0
000001b0: 5f9e f16e 3a2d 5340 10ea c8d2 2b49 58c0
000001c0: bf8d 3e43 6aec 57c0 9b4d 1083 70ee 5240
000001d0: 12ce 4a06 6c57 58c0 94e5 6f52 a7b4 57c0
000001e0: 9a38 37a9 88fc 5240 0de3 f9c8 d376 58c0
000001f0: 086d 74d4 4a2b 58c0 fcc5 b44a bddf 5240
00000200: 9b10 a628 4b4c 58c0 fb70 9404 0ec8 57c0
00000210: 67ba 3588 561f 5340 8242 358a 5256 58c0
00000220: 07f8 1413 f10b 58c0 6800 e4ca 8a04 5340
00000230: 240f ccb9 1d12 58c0 bfd3 ddeb 512b 58c0
00000240: cab0 c985 4730 5240 5a67 1ee4 de5b 58c0
00000250: 6dc1 be6e b67f 57c0 dc1f 3d04 7542 5340
00000260: 8961 8587 195a 58c0 d017 4b08 05e3 57c0
00000270: 5d81 dbdf 05d1 5240 d32c 98e4 e34a 58c0
00000280: 555c ef63 cbbf 57c0 362e 08cd 8587 5240
00000290: 88e3 16dc b739 58c0 9814 c89f d1e9 57c0
000002a0: c33c 69f7 3f04 5340 43fe 517d 761e 58c0
000002b0: 6dad 78c2 82b1 57c0 e852 3a85 98f6 5140
000002c0: 28fe 04a8 e12a 58c0 f1e4 7ba4 40e2 57c0
000002d0: a619 7a77 5f27 5340 9834 bc66 95f7 57c0
000002e0: daac e29c 110d 58c0 3e57 b3dc fd56 5240
000002f0: 2b2d 6806 5466 58c0 51b4 5500 d6da 57c0
00000300: e5bd 05fa 893b 5340 5d62 9fd4 c361 58c0
00000310: 761e f93b 7d3b 58c0 85e2 b814 ea3c 5340
00000320: c001 36be 463e 58c0 d187 3039 523a 58c0
00000330: cfc9 a239 bf1c 5340 4076 63cb ad2d 58c0
00000340: 3e1b eb16 f6d9 57c0 043d 48c0 d814 5340
00000350: 3fe6 3141 7819 58c0 bd8d 4a5f 95b3 57c0
00000360: 5053 1a65 04ff 5240 a1e7 e3cb ba5e 58c0
00000370: fadc 7ab1 7bdc 57c0 d1a8 65a0 7246 5340
00000380: e0af f00e 524e 58c0 9ec3 65da e0f1 57c0
00000390: b084 246a b7f2 5240 79ac b8c8 ec17 58c0
000003a0: 2ad5 afb1 9d18 58c0 534d 4ef6 a0ae 5240
000003b0: e8b5 b232 bf56 58c0 4c3f 8c5f 95ad 57c0
000003c0: 456b 5d1f 594e 5340 8712 8eb6 7d86 58c0
000003d0: c4f8 d7bf f83c 58c0 48de 9593 d6f3 5240
000003e0: 4878 fd3e f766 58c0 8be3 ce90 5302 58c0
000003f0: 2fe6 7df6 5b4c 5340 df29 c697 8e4e 58c0
00000400: daa5 e09a 0c34 58c0 60f7 6635 57d9 5240
00000410: 11f4 1b48 b313 58c0 9e2e 6b43 c4bd 57c0
00000420: 1775 49b4 d8fd 5140 afa5 da8a 9054 58c0
00000430: 1ded 6493 6cee 57c0 0eeb 4a5b 542a 5340
00000440: 80f8 9ec0 6655 58c0 e85c a1e5 6af2 57c0
00000450: 7723 8c99 47f8 5140 baad aa28 f91a 58c0
00000460: 136f cd84 a305 58c0 ec9b 4fa5 4c34 5340
00000470: 5623 0785 f10d 58c0 31fe 4017 dbe3 57c0
00000480: 2ead 66d5 894a 5340 0830 fed4 8c3a 58c0
00000490: 64dc 6ac8 302e 58c0 3187 dce5 832f 5340
000004a0: 9dea 308d abcd 57c0 6c3f b0bf f632 58c0
000004b0: 3f82 599a bd4f 5340 53c6 1d71 2931 58c0
000004c0: 28c9 bc78 74ec 57c0 a178 a2b8 3310 5340
000004d0: 1c72 0027 d55a 58c0 9c63 74f3 2c3d 58c0
000004e0: 8c10 1e55 5b17 5340 4898 92f0 6b57 58c0
000004f0: 23ab 6070 5330 58c0 d6e0 35d4 1e1b 5340
00000500: ffdc 1eeb 3933 58c0 e744 a658 4cd6 57c0
00000510: c085 aa2a e584 5340 f2c4 526f e043 58c0
00000520: 6041 c693 39e9 57c0 e614 c3d2 d811 5340
00000530: 64e3 d5dc 6315 58c0 fac0 41f5 dcbb 57c0
00000540: 2bfa 2be1 323a 5340 a556 276f ec59 58c0
00000550: 17a6 db2f df1a 58c0 bffd 01b6 6887 5240
00000560: 574a cd23 a612 58c0 d840 82c0 6d01 58c0
00000570: 7c7b 942d 692e 5340 ea07 4933 802e 58c0
00000580: 80b5 6a06 393f 58c0 d3bf d213 6d36 5340
00000590: ca05 1388 9721 58c0 e543 7328 04c3 57c0
000005a0: f277 0450 873d 5240 a571 664f 4267 58c0
000005b0: 4a04 7555 ead6 57c0 359b da69 62bd 5240
000005c0: 3aaf 7081 ae40 58c0 e987 1045 83d9 57c0
000005d0: 68f2 7904 6024 5340 93eb f7bf 8e46 58c0
000005e0: a467 6082 28f9 57c0 c680 6864 dd81 5340
000005f0: 8148 95e4 8d4b 58c0 da1f 4c5a d143 58c0

conv1.lin_dst.weight f8 [64, 3]
76.79632300049558 -97.20108284196458 -95.87141907960044 75.66961118137606 -96.26080367845438 -95.27598662641459 76.18283707692088 -96.56589939414778
-96.29566326094064 76.03717744411199 -96.66306975093285 -96.97347828721212 76.2072156287251 -97.30258079777857 -95.90686601901439 77.22807688496604
-97.0578199119114 -96.97522683074672 77.68315159400807 -96.92235892266606 -97.06619658177075 71.95413711657349 -97.26166847797863 -94.54558736810306
73.40155358369981 -97.26241019059877 -95.03024301362596 75.20902181617573 -95.51431784376042 -94.78971822038464 76.0480907948838 -98.05790126299927
-95.38449832910568 73.04130388520073 -97.03446696092736 -95.21402662756363 76.34179522645077 -96.66350520793706 -95.78567104793552 76.68214886996196
-98.2014811215206 -97.5298267871395 75.95008833851745 -96.96848705387293 -96.40041968221145 72.93204055868783 -96.52727627663808 -96.95945358630688
71.88251434133265 -96.17921758065621 -95.23985350306589 75.67043490468158 -96.76311780743184 -96.72441494270429 76.70669149013109 -97.14329976673639
-95.69398575886497 75.72561718551735 -97.36596829705402 -94.82271252562924 75.94584112541853 -97.8566763344099 -96.67644225473134 75.49592845586443
-97.19208732812187 -95.12585558410858 76.48965649840248 -97.34878783417847 -96.18658902213802 76.0709712244585 -96.28306431701327 -96.67687508261496
72.75436539360376 -97.4354791924392 -93.99550980213617 77.03839212388215 -97.40780818963516 -95.5471821530657 75.26598354755465 -97.17015948162889
-94.99678896308008 74.11754155920866 -96.901846906998 -95.65341944254976 76.06640420224271 -96.47598202712201 -94.77360593590647 71.85305910773934
-96.67002296912744 -95.53519546603253 76.61520182536933 -95.8684937322563 -96.20420000206232 73.35924451364278 -97.59887848065834 -95.4193116032559
76.93029642639847 -97.52757754864565 -96.92951869323755 76.95178716712151 -96.97306781076531 -96.91126851786909 76.44917145631119 -96.71373257363393
-95.40564511260615 76.32572943739439 -96.39796476243008 -94.80599195747978 75.98464324541897 -97.48015115028694 -95.44504963873251 77.10074624946289
-97.22375844482985 -95.77934894502548 75.79244473997346 -96.37382715258163 -96.38462488337669 74.72857434889492 -97.3554198022099 -94.7122420186617
77.22418960688545 -98.10142291902785 -96.95268245783797 75.80997171054435 -97.60884070160785 -96.03635044292439 77.19311296744193 -97.22745317794714
-96.8132693475558 75.39594779067329 -96.30781748514006 -94.96510396449091 71.96635157750676 -97.32132216789499 -95.725376938401 76.66139871898869
-97.33439651035769 -95.78777447469804 71.87937010465053 -96.42145744960627 -96.0881053930464 76.81717808508228 -96.21786618897508 -95.56024724337546
77.16466269518853 -96.91484570334444 -96.72172747073779 76.74242540870615 -95.2135956742954 -96.79631035052961 77.24594744435397 -96.76815441043554
-95.69460886417494 76.25315681330041 -97.41925978702096 -96.95586859098552 76.36494949279785 -97.36596311870483 -96.75509271087917 76.42375664960431
-96.800410061016 -95.34840980756017 78.07648722317299 -97.06057341654721 -95.64413923607708 76.27885884333554 -96.3342201317551 -94.93536120816489
76.90935544294977 -97.40505579797407 -96.41987225008084 74.11576605028584 -96.29139037177934 -96.02232372970627 76.72516955852728 -96.72657472736287
-96.98785553379821 76.85040755825985 -96.5248737512367 -95.04712878471726 72.96138382374173 -97.61342225078859 -95.35805260112207 74.95913168285627
-97.0106509781298 -95.39863707174631 76.56836044224622 -97.1024627610298 -95.89309749044929 78.02913770871518 -97.18053545549812 -97.05965287622476
00000000: 970b bff4 f632 5340 9381 918a de4c 58c0
00000010: a3ff 8754 c5f7 57c0 f342 dbe8 daea 5240
00000020: d668 e901 b110 58c0 61a5 cfc3 a9d1 57c0
00000030: c577 489a b30b 5340 38ac 17b2 3724 58c0
00000040: 9a17 9925 ec12 58c0 08a7 801d 6102 5340
00000050: 4dce 1bbc 6f2a 58c0 4cbc df77 4d3e 58c0
00000060: 0a26 5705 430d 5340 d2b6 d97b 5d53 58c0
00000070: 5061 c517 0afa 57c0 c679 cacf 984e 5340
00000080: e4ad 4952 b343 58c0 4a0f cc1d 6a3e 58c0
00000090: 659e 76c1 b86b 5340 9201 b8ed 073b 58c0
000000a0: fe73 9690 3c44 58c0 4ee5 1f95 10fd 5140
000000b0: fdd3 242d bf50 58c0 41c7 47e7 eaa2 57c0
000000c0: 4465 cd0d b359 5240 91b0 1c54 cb50 58c0
000000d0: 2f9d 6480 efc1 57c0 0528 0a9d 60cd 5240
000000e0: d1ac 6395 eae0 57c0 df66 4abe 8ab2 57c0
000000f0: efd0 69eb 1303 5340 a7be 7fa7 b483 58c0
00000100: 0938 e19e 9bd8 57c0 a208 0db9 a442 5240
00000110: 6f7e e9b4 3442 58c0 f976 bd9c b2cd 57c0
00000120: 3de2 15f9 df15 5340 2f34 8cde 762a 58c0
00000130: 0413 386f 48f2 57c0 5cdf bb53 a82b 5340
00000140: 50ec 1211 e58c 58c0 c5d3 9cae e861 58c0
00000150: 948f 513f cefc 5240 f4be 1fb1 fb3d 58c0
00000160: 77f1 df79 a019 58c0 0787 718d a63b 5240
00000170: 8007 ffe4 be21 58c0 f3cd 03b0 673d 58c0
00000180: 9591 6e1d 7bf8 5140 59f2 034d 780b 58c0
00000190: f0df 81c2 59cf 57c0 136d cd67 e8ea 5240
000001a0: 8f7a 12ec d630 58c0 83e9 7dd0 5c2e 58c0
000001b0: 5f9e f16e 3a2d 5340 10ea c8d2 2b49 58c0
000001c0: bf8d 3e43 6aec 57c0 9b4d 1083 70ee 5240
000001d0: 12ce 4a06 6c57 58c0 94e5 6f52 a7b4 57c0
000001e0: 9a38 37a9 88fc 5240 0de3 f9c8 d376 58c0
000001f0: 086d 74d4 4a2b 58c0 fcc5 b44a bddf 5240
00000200: 9b10 a628 4b4c 58c0 fb70 9404 0ec8 57c0
00000210: 67ba 3588 561f 5340 8242 358a 5256 58c0
00000220: 07f8 1413 f10b 58c0 6800 e4ca 8a04 5340
00000230: 240f ccb9 1d12 58c0 bfd3 ddeb 512b 58c0
00000240: cab0 c985 4730 5240 5a67 1ee4 de5b 58c0
00000250: 6dc1 be6e b67f 57c0 dc1f 3d04 7542 5340
00000260: 8961 8587 195a 58c0 d017 4b08 05e3 57c0
00000270: 5d81 dbdf 05d1 5240 d32c 98e4 e34a 58c0
00000280: 555c ef63 cbbf 57c0 362e 08cd 8587 5240
00000290: 88e3 16dc b739 58c0 9814 c89f d1e9 57c0
000002a0: c33c 69f7 3f04 5340 43fe 517d 761e 58c0
000002b0: 6dad 78c2 82b1 57c0 e852 3a85 98f6 5140
000002c0: 28fe 04a8 e12a 58c0 f1e4 7ba4 40e2 57c0
000002d0: a619 7a77 5f27 5340 9834 bc66 95f7 57c0
000002e0: daac e29c 110d 58c0 3e57 b3dc fd56 5240
000002f0: 2b2d 6806 5466 58c0 51b4 5500 d6da 57c0
00000300: e5bd 05fa 893b 5340 5d62 9fd4 c361 58c0
00000310: 761e f93b 7d3b 58c0 85e2 b814 ea3c 5340
00000320: c001 36be 463e 58c0 d187 3039 523a 58c0
00000330: cfc9 a239 bf1c 5340 4076 63cb ad2d 58c0
00000340: 3e1b eb16 f6d9 57c0 043d 48c0 d814 5340
00000350: 3fe6 3141 7819 58c0 bd8d 4a5f 95b3 57c0
00000360: 5053 1a65 04ff 5240 a1e7 e3cb ba5e 58c0
00000370: fadc 7ab1 7bdc 57c0 d1a8 65a0 7246 5340
00000380: e0af f00e 524e 58c0 9ec3 65da e0f1 57c0
00000390: b084 246a b7f2 5240 79ac b8c8 ec17 58c0
000003a0: 2ad5 afb1 9d18 58c0 534d 4ef6 a0ae 5240
000003b0: e8b5 b232 bf56 58c0 4c3f 8c5f 95ad 57c0
000003c0: 456b 5d1f 594e 5340 8712 8eb6 7d86 58c0
000003d0: c4f8 d7bf f83c 58c0 48de 9593 d6f3 5240
000003e0: 4878 fd3e f766 58c0 8be3 ce90 5302 58c0
000003f0: 2fe6 7df6 5b4c 5340 df29 c697 8e4e 58c0
00000400: daa5 e09a 0c34 58c0 60f7 6635 57d9 5240
00000410: 11f4 1b48 b313 58c0 9e2e 6b43 c4bd 57c0
00000420: 1775 49b4 d8fd 5140 afa5 da8a 9054 58c0
00000430: 1ded 6493 6cee 57c0 0eeb 4a5b 542a 5340
00000440: 80f8 9ec0 6655 58c0 e85c a1e5 6af2 57c0
00000450: 7723 8c99 47f8 5140 baad aa28 f91a 58c0
00000460: 136f cd84 a305 58c0 ec9b 4fa5 4c34 5340
00000470: 5623 0785 f10d 58c0 31fe 4017 dbe3 57c0
00000480: 2ead 66d5 894a 5340 0830 fed4 8c3a 58c0
00000490: 64dc 6ac8 302e 58c0 3187 dce5 832f 5340
000004a0: 9dea 308d abcd 57c0 6c3f b0bf f632 58c0
000004b0: 3f82 599a bd4f 5340 53c6 1d71 2931 58c0
000004c0: 28c9 bc78 74ec 57c0 a178 a2b8 3310 5340
000004d0: 1c72 0027 d55a 58c0 9c63 74f3 2c3d 58c0
000004e0: 8c10 1e55 5b17 5340 4898 92f0 6b57 58c0
000004f0: 23ab 6070 5330 58c0 d6e0 35d4 1e1b 5340
00000500: ffdc 1eeb 3933 58c0 e744 a658 4cd6 57c0
00000510: c085 aa2a e584 5340 f2c4 526f e043 58c0
00000520: 6041 c693 39e9 57c0 e614 c3d2 d811 5340
00000530: 64e3 d5dc 6315 58c0 fac0 41f5 dcbb 57c0
00000540: 2bfa 2be1 323a 5340 a556 276f ec59 58c0
00000550: 17a6 db2f df1a 58c0 bffd 01b6 6887 5240
00000560: 574a cd23 a612 58c0 d840 82c0 6d01 58c0
00000570: 7c7b 942d 692e 5340 ea07 4933 802e 58c0
00000580: 80b5 6a06 393f 58c0 d3bf d213 6d36 5340
00000590: ca05 1388 9721 58c0 e543 7328 04c3 57c0
000005a0: f277 0450 873d 5240 a571 664f 4267 58c0
000005b0: 4a04 7555 ead6 57c0 359b da69 62bd 5240
000005c0: 3aaf 7081 ae40 58c0 e987 1045 83d9 57c0
000005d0: 68f2 7904 6024 5340 93eb f7bf 8e46 58c0
000005e0: a467 6082 28f9 57c0 c680 6864 dd81 5340
000005f0: 8148 95e4 8d4b 58c0 da1f 4c5a d143 58c0

conv1.lin_edge.weight f8 [64, 10]
-0.7156906314214236 0.1927275348464303 0.7229694532277816 -1.5996397640948066 2.731601990933228 -0.0442177494060358 -1.1588289541262602 0.8859046141289579
-0.7615326250145953 0.15376343204537132 0.5752152509915975 -0.9419898862531161 0.6192608983739474 0.054075817300435064 2.0744585645560782 -0.17828043076038036
-1.0245165970997836 1.3985415714299758 0.3962565267723012 0.853850622857327 -0.6425730880778011 1.0802745135812528 -0.7605467244406611 0.10657259897215611
-1.4341706019055935 0.04651891563671723 1.3836561442600928 -1.659118766102798 0.029995028720473063 -1.4220165760289574 -0.8689714832327365 0.3228435936315261
-0.45764593396277375 0.8503841645497541 -1.6832197796726391 0.0037803374385369753 1.3255526770278259 -0.823826408192195 0.38285190933659174 -0.24690649391602906
1.6034777379367342 0.0563271764802849 -0.40156719352559805 0.8564288503654784 -0.032768949954032484 0.3666221251724657 1.2352439145861611 -0.43510670924807027
0.5885623069041617 0.32970516958564344 0.5157896158924764 -1.0602422088992347 0.39738715576285594 0.1361953387975286 1.5120788301155785 -0.26693169330153566
-1.6162112441800265 1.0516244733045075 0.16727086739933864 1.281408288134563 -0.8029858035764303 0.08294222036881875 0.28595145693153234 -0.674719162141449
2.7288835379557557 -0.18067963770101952 -1.0256671946743239 0.9268575516255837 -0.5388330575566832 0.05189997834261949 -0.8264983519938369 0.11888740521719841
0.2681191985583491 -0.6453035118137804 1.7699602006857396 -0.1769566516433895 -1.1575653098618222 0.6163901366075357 -0.7747766805475911 -0.35066119155364384
-0.6505112303786823 0.04732539115866904 0.29147705859271295 -0.6658329211941665 0.40570235558955914 -0.2664502143242302 -1.251674271904991 0.5573585326291566
-0.6243427324864297 -0.9269423071368765 -0.4013276563110174 0.9126247284310302 -0.4014545449927876 0.6578526182316896 -1.0105982884822045 0.4842647470988955
1.794436899537971 0.28965819064298065 0.7705040018033364 -1.3587882202382686 0.4962664927057689 -0.12380146052275512 -0.38102296895518656 1.2182956951144512
-1.7339507176303404 -0.06527555658076506 1.5018078204625411 0.9199871121738465 0.7298749197039691 -0.67472147379527 -0.8726292584809273 0.1356806845241845
0.2112958921829886 -0.741292764453753 2.4485333233957074 -0.11850531617472301 -1.1816861963054175 0.5218705256652125 -0.45767890355040175 -0.10362987067209717
0.7070262300997693 -1.0953160907309916 0.5592584023328723 0.07969138994323077 1.5358428560537813 -0.1550334037825124 -1.1044508827826132 1.6876211413260485
0.015409579468275184 1.0494525529553145 0.03830070002649548 -1.2331068768706703 0.2931194981783484 -0.25965648188934204 1.2993384523626321 0.40803557507554533
-1.3652993876426747 0.5571986220619933 -0.5651591696345033 0.5146995124646302 0.8222866011036901 -0.0805947754500238 -0.5165684185073273 1.2422901316573862
-2.4498453432044673 0.2980200378792064 1.1389215423905 -1.1963337285775348 0.7400465621858955 0.4108964734086392 -0.12899862406410392 -0.4774136917105972
0.24383256981837828 -0.7609582574651312 1.5892906705483685 -0.009751227344968956 -1.3342797681698593 0.271291504993944 -0.5574221377197447 0.05898614663799597
0.5370527770195388 -1.0901135063541683 0.31158726872338427 0.1475457785324533 1.5970470966496073 -0.1981554013796713 -1.1833098411130643 1.194437008666326
0.366666887424987 0.9133546588956507 -0.5466185119732456 0.04439325046385412 0.3140345051975068 -0.708849196395197 0.24064385453703677 -0.28749828320124826
-1.1473584044190448 0.5271290331147153 -0.7637719809262923 -0.5523751011781682 -0.6349392885533108 1.042899284364323 -0.4920216246346028 -0.33753971365406
-1.6045265110152522 0.3357936105549456 1.4642687614597196 -1.1775937611520992 -0.2278742397932957 -1.3033006504794415 0.3866818195348104 0.3970496992220278
0.44560626188441727 -1.4511813414254138 2.5915196230855573 0.012114021023543474 -1.5958482159369198 -0.6331674476742306 -0.8106118353781833 1.3643029802569995
0.7893455529944966 -0.06488732897224524 -0.29850167288667256 1.0334608274736021 -0.05614182545903857 0.4000001221760434 1.026696433874159 0.23532709411871994
1.0758832136388021 0.43077085308708346 0.6899714213664481 -0.06420490928608097 -0.28688553304959175 0.5767177590171398 -1.0142831648690502 0.21998088862723963
1.284937314228627 -0.4338331157561763 0.41917477239117945 0.4581785029931081 -0.19839794438729177 1.1744391203166022 -0.3496169219445161 0.542666761461726
-1.2976082591352027 0.6434068860603487 1.204546400742625 -0.8187237472062059 0.30756938443707627 0.003859197352428674 1.0109543065922917 -0.22673806563759707
-0.30900427810540415 1.2287245230957298 -2.390290249941289 0.1926478091822862 1.4186677580533371 -0.42736844543120456 0.5807747985875532 -0.1447352589265068
0.377442417969013 -0.9969326508832392 0.4024365804699494 0.2691541029932454 1.6640903155226656 -0.22477212313456024 -1.631163389643982 1.0713350543700872
0.18579120207764163 1.2698135394476902 1.2298838327241228 -0.25240929271041185 -0.2496944825988807 1.0805080150918471 -2.4692446223703763 0.18936551891509656
00000000: 7d46 000a f0e6 e6bf 8e20 9abd 4bab c83f
00000010: b1d9 b3d5 9022 e73f 8fb1 82dd 1f98 f9bf
00000020: 3ff9 0525 52da 0540 1a0b 3477 b5a3 a6bf
00000030: 2f15 ba3a 908a f2bf 64e6 21a2 5459 ec3f
00000040: 7eca e8aa 795e e8bf b750 fa27 85ae c33f
00000050: 426b 65d0 2968 e23f 2bd6 53f9 c724 eebf
00000060: 58a5 463b fcd0 e33f 4ca3 9e55 d3af ab3f
00000070: 5867 5dbb 7d98 0040 e4f9 d0a5 e4d1 c6bf
00000080: 620b ec83 6b64 f0bf 0b36 7620 6d60 f63f
00000090: bb11 d455 445c d93f 28ed 9a8a be52 eb3f
000000a0: 2caf d26f f58f e4bf 668a a8ed cd48 f13f
000000b0: 99ae 9115 6656 e8bf b931 3c83 5748 bb3f
000000c0: 471b 81df 5cf2 f6bf e833 9cca 53d1 a73f
000000d0: db1a 08a0 7423 f63f 5676 891e c08b fabf
000000e0: 748a 964d 04b7 9e3f d9a0 0674 94c0 f6bf
000000f0: d784 b448 9dce ebbf 93b6 172d 78a9 d43f
00000100: 8a1e e12b 124a ddbf 16e1 f8d9 5836 eb3f
00000110: fac9 1add 77ee fabf b7d3 5235 f1f7 6e3f
00000120: 305b 4fb9 7635 f53f 2f88 1833 c95c eabf
00000130: d6f4 734b a580 d83f 010a 45ca a19a cfbf
00000140: 5ad6 c445 d8a7 f93f 68ba b769 ead6 ac3f
00000150: 4db1 d5e2 46b3 d9bf 9e75 f579 dd67 eb3f
00000160: e4ef c080 17c7 a0bf bfc4 66a5 bc76 d73f
00000170: 74b0 7b1f 8fc3 f33f b066 9fcf c9d8 dbbf
00000180: 5cf9 799e 80d5 e23f 7851 2cb6 e319 d53f
00000190: a0fc 7b39 5981 e03f e9f9 d088 c0f6 f0bf
000001a0: ed85 7689 ca6e d93f 2263 004f d96e c13f
000001b0: 2720 4592 7931 f83f 6ebe 3fab 6815 d1bf
000001c0: 15e4 5252 00dc f9bf e241 082f 74d3 f03f
000001d0: 09e0 86bc 2169 c53f dbc7 25fa a580 f43f
000001e0: e46a b048 0fb2 e9bf 5b13 f18b b33b b53f
000001f0: 4eed f056 074d d23f b639 eca3 4c97 e5bf
00000200: e7e6 70e4 c0d4 0540 1e50 7da7 8220 c7bf
00000210: f34c 1b01 2269 f0bf 5a0a 092b d1a8 ed3f
00000220: 5fb5 06d3 1e3e e1bf be10 4a4b a292 aa3f
00000230: 9a5d 00ac ac72 eabf 3f6d 50ad 676f be3f
00000240: c438 4f6d dd28 d13f 0c7e e78c 53a6 e4bf
00000250: 69ab 92c9 c151 fc3f 5d1b cffb 83a6 c6bf
00000260: 3b73 cd33 6385 f2bf 86cd c9ce 77b9 e33f
00000270: 92f8 1477 f8ca e8bf 32c1 6ca3 3b71 d6bf
00000280: 7907 85ed fcd0 e4bf 1b02 989e 083b a83f
00000290: 9928 8c64 8fa7 d23f 8221 a4d7 804e e5bf
000002a0: 5cb5 4a03 07f7 d93f 8039 2233 850d d1bf
000002b0: 8a39 f199 db06 f4bf a83d b98f e1d5 e13f
000002c0: a4c8 309c 9dfa e3bf 42d0 cde9 82a9 edbf
000002d0: 7283 b531 5aaf d9bf 9f3a 44c6 3834 ed3f
000002e0: f9c5 6467 6eb1 d9bf 1d94 1cef 200d e53f
000002f0: 55cb 661c 692b f0bf 554f d990 31fe de3f
00000300: 0205 6477 03b6 fc3f ef20 f581 c289 d23f
00000310: acd6 2502 f8a7 e83f 86d0 81b7 98bd f5bf
00000320: cf66 1189 d4c2 df3f b26b 24d8 73b1 bfbf
00000330: 89fd ab29 ae62 d8bf 8afc 75a0 237e f33f
00000340: 9591 911b 43be fbbf f419 be1c e6b5 b0bf
00000350: ed37 1ca3 6707 f83f a4e6 f0cf 8870 ed3f
00000360: d492 c9a5 225b e73f e481 fb7c 5197 e5bf
00000370: 81aa d631 94ec ebbf 5979 5d13 fc5d c13f
00000380: 0040 5a69 be0b cb3f bee3 829a abb8 e7bf
00000390: bf34 99a3 9896 0340 1661 5f49 5d56 bebf
000003a0: 3143 f4c8 2fe8 f2bf 304f 0fd1 29b3 e03f
000003b0: fa5b b474 9c4a ddbf d8e4 6cb9 7c87 babf
000003c0: 6f2a f678 f59f e63f 0a8e 472a 6a86 f1bf
000003d0: 7d0d 81e0 71e5 e13f b036 94a9 a766 b43f
000003e0: 58bd 68f5 cf92 f83f 3448 8473 22d8 c3bf
000003f0: 386f 59b0 d4ab f1bf 8389 a006 7f00 fb3f
00000400: 150e e4be 0e8f 8f3f 3a59 9ac2 8eca f03f
00000410: 462f 0e3c 269c a33f 9b1d ca46 ceba f3bf
00000420: 73bd 9f48 78c2 d23f 5b2f 7a38 369e d0bf
00000430: fb52 f51d 17ca f43f 1075 a33e 411d da3f
00000440: 2cc9 b22b 44d8 f5bf a63d 6434 92d4 e13f
00000450: b0ab d3ae c815 e2bf f9af a91c 6b78 e03f
00000460: 35bd 75fd 2b50 ea3f 004c c9f4 dba1 b4bf
00000470: 4b55 f47d ba87 e0bf c9ca f99d 6be0 f33f
00000480: 9491 ea83 4899 03c0 9c9b 0fa3 c212 d33f
00000490: e66e 94cb 0539 f23f de79 f5d5 2e24 f3bf
000004a0: 7f61 c320 76ae e73f da3c d5b8 204c da3f
000004b0: 29cb cae3 0683 c0bf 2ad1 2328 f28d debf
000004c0: b7e7 88d8 e735 cf3f 66e2 ad21 c559 e8bf
000004d0: 8e7d dd0d bc6d f93f 970b 5794 73f8 83bf
000004e0: 6a10 00be 3559 f5bf 4d6c 680b d75c d13f
000004f0: a753 72f3 66d6 e1bf 835a 74a5 6e33 ae3f
00000500: facb 304e 892f e13f 3181 2bdc 1a71 f1bf
00000510: e014 41ba 0bf1 d33f f3d8 bab2 c7e2 c23f
00000520: 5082 a441 818d f93f d6c8 39fc 275d c9bf
00000530: 5dd9 c94c d6ee f2bf bca9 15fb 691c f33f
00000540: 3c0d 8164 7877 d73f ce64 b38c 333a ed3f
00000550: 5806 0a1b e67d e1bf 508f cf4d b6ba a63f
00000560: a7e2 682e 2419 d43f 2906 8a82 e4ae e6bf
00000570: 7527 9cf6 6acd ce3f 3c5a 0033 5f66 d2bf
00000580: 2154 7c7c 945b f2bf 63fe bfb4 3dde e03f
00000590: f7be f5ef d170 e8bf e5ea 558c 0ead e1bf
000005a0: f505 e932 6c51 e4bf 7add f528 b7af f03f
000005b0: fdbe ae44 487d dfbf 82b4 cf2b 409a d5bf
000005c0: 0402 a6fd 23ac f9bf 1a83 e27b a47d d53f
000005d0: fb61 b014 a56d f73f 4ff3 418e 6cd7 f2bf
000005e0: 2dac c1ab fb2a cdbf baa2 6ac8 51da f4bf
000005f0: b606 371a 65bf d83f 50e5 4224 4369 d93f
00000600: b5ed 6b20 d084 dc3f 0ecd 1fed 0938 f7bf
00000610: fac1 e0a3 6ebb 0440 5f12 f460 3ccf 883f
00000620: a743 8d23 9888 f9bf 32e2 1461 e842 e4bf
00000630: 0865 563b 88f0 e9bf 58a0 a05c 2fd4 f53f
00000640: 3a57 eb9a 5142 e93f 674f dcbb 749c b0bf
00000650: 015f b6c2 a61a d3bf b723 7b38 0e89 f03f
00000660: 3191 9110 9fbe acbf 5818 c91c 9a99 d93f
00000670: a88c 663d 596d f03f 8622 8dbe 321f ce3f
00000680: f94d 0e51 d136 f13f 0f0f 85e9 bf91 db3f
00000690: 6631 3ef2 3e14 e63f 6c59 a0a1 bb6f b0bf
000006a0: 7e2f 8923 555c d2bf 6508 40cd 7874 e23f
000006b0: 66ef dffb 803a f0bf d812 3371 5528 cc3f
000006c0: 3a5a e06d 1a8f f43f 430d 06f9 ebc3 dbbf
000006d0: 719d ae6c c2d3 da3f 157b 85ed cb52 dd3f
000006e0: 7d57 5e95 1a65 c9bf ef71 ceac 80ca f23f
000006f0: fa4f 78a7 1f60 d6bf ce56 23af 865d e13f
00000700: 4115 c0e0 00c3 f4bf 0bd0 b409 ca96 e43f
00000710: ee43 5b72 d245 f33f fab1 d624 fc32 eabf
00000720: 361e da7f 37af d33f f615 5ccd 529d 6f3f
00000730: 2b07 496c de2c f03f eafc 55c0 c005 cdbf
00000740: ed5a 32e1 b9c6 d3bf 67d4 a70b dba8 f33f
00000750: 6390 9b7e 501f 03c0 74bf 0af4 aea8 c83f
00000760: daa8 8bf6 dcb2 f63f 640a 1e2e 015a dbbf
00000770: efc8 c807 b595 e23f a26e d559 af86 c2bf
00000780: 6834 533e 0428 d83f 8a75 7b4d dfe6 efbf
00000790: c347 f55b 85c1 d93f 502c 7c21 d239 d13f
000007a0: a829 ac2a 1da0 fa3f 862c f53a 55c5 ccbf
000007b0: 2941 4fc8 3e19 fabf 1b3f d939 3024 f13f
000007c0: 7b6c 6790 01c8 c73f 2422 7f00 2851 f43f
000007d0: 2dde 76ab 9aad f33f 1574 594e 7927 d0bf
000007e0: 9f7d 6022 fdf5 cfbf 6d2a bec5 c249 f13f
000007f0: b23c 1753 03c1 03c0 0c7e 5d1b 213d c83f

conv2.att_src f8 [1, 1, 64]
0.9260876563286704 0.8242389106887655 0.8123836488780354 0.7970619531950636 0.7898700702324994 0.8523626167256247 0.3004362552434698 0.6346335344041696
0.22322226728520878 0.7987194356599403 0.9061413653491951 0.8653724535298709 0.8187861952963671 0.8988079987138147 0.8901748254156118 0.8403278359970233
0.712928960600574 0.5338812759728516 0.14764306454444318 0.30636212195842893 0.2609359520969693 0.2208705620084159 0.27050719050037036 0.8020964589630066
0.17889311926109314 0.25540896437869237 0.8420345590342244 0.163741188106453 0.26179106516020306 0.8937617376240107 0.8921971637713187 0.2747756850849985
0.6256356751538302 0.5597661273884225 0.54285611768531 0.9288767316320591 0.26377127262244543 0.8351345800866671 0.8692560990613015 0.1745738190288347
0.8570754603075331 0.20549899523078044 0.6185546738298602 0.2867835249439964 0.748460696256934 0.28797980203613044 0.8125543038858088 0.884868163694932
0.025109317945860663 0.8836351423004095 0.5522961844063015 0.8737775011911151 0.8465079104782789 0.7575645185745646 0.20929949759323796 0.8535919785218714
0.9467871895616649 0.21002380134365148 0.2401001452710175 0.9239895833766731 0.9217079072404142 0.21664415485340358 0.5339265780129264 0.9094664228123063
00000000: 5026 a594 82a2 ed3f 18f7 af47 2a60 ea3f
00000010: d88f 77fe 0bff e93f 507a bb11 8881 e93f
00000020: 209c f798 9d46 e93f e16c 65f7 8d46 eb3f
00000030: 176b b3fc 583a d33f debe 66fc ea4e e43f
00000040: fc4d dd18 8c92 cc3f 40d9 da0f 1c8f e93f
00000050: 5748 372d 1cff ec3f 75a4 5892 21b1 eb3f
00000060: 72da 661b 7f33 ea3f 4a7d fbfd 08c3 ec3f
00000070: f33d 5cea 4f7c ec3f 43d2 b033 f7e3 ea3f
00000080: d8d2 4465 50d0 e63f 3701 882f 8e15 e13f
00000090: 838c d9ca f7e5 c23f fcda a2df 6f9b d33f
000000a0: d2da 26b5 2cb3 d03f 2fd6 3c90 7c45 cc3f
000000b0: 2f0b 2264 fd4f d13f fe78 6f31 c6aa e93f
000000c0: 6658 5a40 f8e5 c63f 4d26 47d7 9e58 d03f
000000d0: baeb a475 f2f1 ea3f 8073 f6a3 78f5 c43f
000000e0: 7fe0 cf4f 2fc1 d03f 3b5c 3037 b299 ec3f
000000f0: a96a ff10 e18c ec3f a044 4bc1 ec95 d13f
00000100: fde3 7f1b 3505 e43f ca56 51a7 9ae9 e13f
00000110: b88a fcca 135f e13f 8300 0cb2 5bb9 ed3f
00000120: bb69 62e7 a0e1 d03f c363 a727 6cb9 ea3f
00000130: 7123 aa2a f2d0 eb3f c3bb bb55 6f58 c63f
00000140: 3533 0784 296d eb3f 9143 f083 ca4d ca3f
00000150: ea63 dc2b 33cb e33f cea0 2a49 a95a d23f
00000160: 3c7a 98d8 63f3 e73f c9d6 e9d5 426e d23f
00000170: 2b3c 2de2 7100 ea3f feeb 0a0a d750 ec3f
00000180: 59fe 9bcd 41b6 993f 9fd9 b834 bd46 ec3f
00000190: 7c61 370c 69ac e13f 0a16 f33b fcf5 eb3f
000001a0: 74e7 e9c1 9716 eb3f 5d68 fcf1 f73d e83f
000001b0: 54b8 9d70 53ca ca3f d123 fc1f a050 eb3f
000001c0: 220d eea5 144c ee3f df87 1357 0fe2 ca3f
000001d0: 6318 daff 99bb ce3f ba51 4e9a 5291 ed3f
000001e0: 62fd c194 a17e ed3f c382 fbe3 feba cb3f
000001f0: 97fb e030 ed15 e13f 313f d953 591a ed3f

conv2.att_dst f8 [1, 1, 64]
0.013953220561371006 -0.04642131757339077 0.01925369982393697 -0.007897116873325349 -0.050244079597591286 -0.040258165786939276 0.10333389839261012 0.08571994082195802
-0.006198399969958407 0.013733978263429808 -0.06874928862196289 0.0865526234036868 -0.0030855403736361133 -0.06252998053937558 -0.030478688821679523 -0.04506478034039279
-0.10598815572487581 0.0677535527316235 -0.010089160177008916 -0.08839936703985678 -0.039295177544483355 0.06493765240458259 -0.02850622666891499 -0.07036668588846963
-0.008931759370397113 0.019967056113558403 0.04025617898050856 0.12626306976899293 0.0872085200317583 0.021990978231720804 -0.11434344118887355 0.07110888214038033
0.01989277899370314 0.02247629995239517 0.024345908801676558 -0.0629809737485356 -0.039223173581449 0.050426729675295726 0.010478608195602996 0.023515286660858538
-0.09873056952749196 0.009556638273687358 0.018705316880742714 0.06569088329990513 -0.03794393621812267 0.01803819057143598 0.10621201484500993 -0.0788183764695295
-0.04782622378609215 0.08839958771848833 -0.034068904044498305 0.01906136294820704 -0.0039830454833458115 -0.12155853364471221 0.08329389259052065 -0.09272043541314356
0.017238222469497272 0.018104381207325198 0.11196197486863353 0.040027458733998586 -0.017269806662448588 0.12512874199322405 0.07679147979034971 -0.01542313753450987
00000000: 6734 e18f 8193 8c3f 4440 a1f1 88c4 a7bf
00000010: 7b82 48ec 3db7 933f a604 a115 5d2c 80bf
00000020: b5e8 608d 97b9 a9bf ec58 e7e2 b79c a4bf
00000030: 3a19 2a22 1774 ba3f 7203 72f6 bdf1 b53f
00000040: fa35 8952 7e63 79bf 7d1c e25b 8f20 8c3f
00000050: 2c2d 41aa 8d99 b1bf ecde e60e 5028 b63f
00000060: 7120 d9df d846 69bf 84a6 6ffd f601 b0bf
00000070: 4d36 db2e ce35 9fbf c7dd 861b bb12 a7bf
00000080: cd08 9a2e 0a22 bbbf ee8d 2bfd 4b58 b13f
00000090: 4ded 0828 a0a9 84bf 6b5c 6c46 57a1 b6bf
000000a0: 175d e35c 7f1e a4bf 8f50 5b05 c19f b03f
000000b0: 1cf6 197d bc30 9dbf 096f 9e16 8d03 b2bf
000000c0: b0fd 2173 d04a 82bf da40 0574 3e72 943f
000000d0: 4bcd 5d38 759c a43f 9cd9 ac65 6329 c03f
000000e0: f20d 782d 4c53 b63f a0c8 3f91 cd84 963f
000000f0: 7216 6b9c 9c45 bdbf 5680 3f13 3134 b23f
00000100: 466b d1cc c55e 943f 9928 ecf4 0604 973f
00000110: a8de 6048 22ee 983f 7f2b 8566 851f b0bf
00000120: c028 8e4f 0f15 a4bf d268 9945 88d1 a93f
00000130: 8acb 0ffc ce75 853f 3a66 a82c 6414 983f
00000140: 9a6c 3c17 6846 b9bf 81f2 c246 6e92 833f
00000150: fc71 0e91 7c27 933f 381f 6b23 1ed1 b03f
00000160: 64d5 463a 636d a3bf 4555 557a 9a78 923f
00000170: 059b 33ea b530 bb3f 88ac 42ed 702d b4bf
00000180: d2d9 1ac6 ad7c a8bf 1815 3bfa 5aa1 b63f
00000190: 7805 5db9 7a71 a1bf c03f eb69 d284 933f
000001a0: ef63 6ea1 8650 70bf ddc2 8dc6 751e bfbf
000001b0: af00 a2a0 bf52 b53f 7834 c5c5 86bc b7bf
000001c0: 689b fd86 e5a6 913f cb92 cc74 f489 923f
000001d0: add3 743c 8aa9 bc3f feb5 68a4 7a7e a43f
000001e0: fe38 4b1b 2daf 91bf 3644 53f7 3704 c03f
000001f0: 7f9d 4f3e 9ba8 b33f 48db 7f7a 2a96 8fbf

conv2.att_edge f8 [1, 1, 64]
0.44926632059827326 -0.27557817773317533 0.3345890280253252 0.12709979692779885 -0.1916565012223334 0.33284625594914447 0.2854001734614479 0.44354445138286386
-0.43676819187367155 -0.33879692092364794 0.43397091711678076 0.3036602580278099 0.181312616258185 0.207851546070226 0.4207055048190494 0.2094993307198063
-0.25338837826758703 0.3021761129271562 0.4233543195643175 -0.39495684866536174 0.4767333208737914 0.31319865608322567 -0.4053034864150612 -0.17695074125150287
-0.3689389134705922 -0.4247687709642982 -0.39154867160109236 0.1942500597512955 -0.41044019068899196 -0.4532656129049963 -0.3864352263728592 -0.33295565597868654
-0.3165281664990279 -0.4630561677214652 0.4249592644696907 0.27173637337336864 -0.22391769464776923 0.2045249349038652 -0.3045627929116411 0.38781035203553627
-0.3406883372238348 0.31278319461850274 -0.3023204920892751 -0.21002040287541685 0.22291193350273517 -0.33197533255710726 0.593359620797005 -0.4426585423858444
-0.09872225714773804 -0.4564566172359732 0.21763497758720837 -0.32137256254673735 -0.27883135282247545 -0.3328370113785183 -0.19534677625886523 0.3081475741905165
0.33952086202204323 -0.39462789009213545 0.3359824789822242 -0.2759484233155477 -0.4278430623871318 0.3506668995459824 -0.2920844522213638 0.28039085527159174
00000000: 457c 8a86 c7c0 dc3f a3bc 36a7 12a3 d1bf
00000010: 5c07 3e19 e869 d53f a50a 915f ce44 c03f
00000020: 0e69 6842 3388 c8bf 9f72 f961 5a4d d53f
00000030: 8f89 d216 ff43 d23f 13bf 4044 0863 dc3f
00000040: 42f3 0193 02f4 dbbf 7190 d647 d9ae d5bf
00000050: f9a0 1bf4 2dc6 db3f 65c2 546f 2b6f d33f
00000060: 5e2e 9776 4035 c73f 5ab7 6524 e19a ca3f
00000070: ad7a 1cc8 d6ec da3f c0db fcc2 dfd0 ca3f
00000080: fd20 76e3 8337 d0bf f6e3 a97a da56 d33f
00000090: 798a 49b7 3c18 db3f 3255 1617 f946 d9bf
000000a0: 0840 8479 cc82 de3f add4 4160 720b d43f
000000b0: c2e0 c608 7ef0 d9bf 0bce 5667 52a6 c6bf
000000c0: 6bfd e4f5 b19c d7bf 74d7 e95a 692f dbbf
000000d0: 7169 d428 220f d9bf b85d f09a 2fdd c83f
000000e0: 4e49 feee a644 dabf c303 f5c5 4d02 ddbf
000000f0: 68cd d2d0 5abb d8bf 7f96 5c3d 254f d5bf
00000100: 2113 d85a ff41 d4bf 42c9 2456 b6a2 ddbf
00000110: ece3 c157 8832 db3f c46c 31f5 2064 d13f
00000120: 5002 c1c3 55a9 ccbf f276 5081 df2d ca3f
00000130: 2292 c8f0 f47d d3bf 78be c282 e2d1 d83f
00000140: c151 a074 d6cd d5bf e9fd e7cd a304 d43f
00000150: b1c7 9b0c 3859 d3bf 46dc ebd4 f2e1 cabf
00000160: d724 24d4 6088 cc3f 0356 1a77 153f d5bf
00000170: 15e2 c250 cdfc e23f 1fe7 b57e 8454 dcbf
00000180: f53a d6a1 dc45 b9bf 1890 c4d0 9536 ddbf
00000190: cff3 9983 76db cb3f af13 7e39 5e91 d4bf
000001a0: bf34 5e75 5fd8 d1bf 3239 b19b 334d d5bf
000001b0: e996 b487 1f01 c9bf 325c 5f9a b0b8 d33f
000001c0: 1e71 acb5 b5ba d53f c940 8256 9541 d9bf
000001d0: 827d d0a7 bc80 d53f 8279 6193 23a9 d1bf
000001e0: 6b7c 31de c761 dbbf d6bd 5594 5371 d63f
000001f0: 467e 7dfc 82b1 d2bf 0d4b 5f7c ecf1 d13f
