models/model_0.01_250_out_of_1500.pt (torch, 1191 bytes, 1 tensors)

linear.weight f4 [1, 32]
00000000: 9089 bdbf 2ab4 8940 752b 9cbd 0ac3 cdc0
00000010: ac66 c5c0 003a abc0 bc94 6e40 38e0 a040
00000020: a431 b540 d270 47c0 a203 a5c0 2326 d440
00000030: f93e c340 570f 5840 d14d 9d40 6a71 03c1
00000040: 148b d040 e958 bd40 ec42 94c0 8bde 83c0
00000050: 9103 cfc0 6343 2cc0 a8ac 99c0 9870 d240
00000060: 561e 85c0 e52e 9dbf cf95 aa40 2c7f c640
00000070: 227d 9c40 5862 9940 92cb 55c0 223a 2140
-1.4807606 4.3032427 -0.07625476 -6.4300585 -6.168783 -5.35083 3.727828 5.0273705
5.6623096 -3.116261 -5.1566935 6.6296554 6.101437 3.3759363 4.915749 -8.215189
6.5169773 5.9171033 -4.633169 -4.120916 -6.4691854 -2.691613 -4.802326 6.5762444
-4.159953 -1.2279936 5.330787 6.203024 4.890275 4.793255 -3.34055 2.5191731
